models/clients/client-6/sub_model.pkl (torch, 42501 bytes, 27 tensors)

layer1_task.0.weight f4 [32, 3]
0	0x3e509b56	0.20371756
1	0x3ddc9447	0.10770469
2	0xbe965741	-0.29363444
3	0xbe5988f7	-0.21243654
4	0x3ded2aad	0.115804054
5	0xbd031de7	-0.03201094
6	0xbf0b395a	-0.54384387
7	0xbdc36b35	-0.095419325
8	0x3dff9260	0.12479091
9	0x3cd4579e	0.025920685
10	0x3e585e00	0.21129608
11	0x3e8530b7	0.2601373
12	0xbe263f47	-0.16235076
13	0xbf14bdf9	-0.58102375
14	0xbbf74610	-0.007546194
15	0x3c94358e	0.018091943
16	0xbc476a25	-0.012171303
17	0xbd359d6f	-0.044339593
18	0xbec42a38	-0.3831346
19	0xbe52833f	-0.20557879
20	0x3d01376e	0.031547002
21	0xbdfdfec0	-0.12402105
22	0x3e4fc378	0.20289409
23	0x3d72a52e	0.05923956
24	0xbd5c1d2f	-0.05373877
25	0x3f223163	0.6335661
26	0x3d8e098d	0.069354154
27	0x3d31bdae	0.043393783
28	0xbe20f2e2	-0.15717652
29	0xbe9dab91	-0.30794957
30	0x3da585ce	0.08082162
31	0x3d9ba9fa	0.0760078
32	0xbdb561e0	-0.08856559
33	0xbde5706a	-0.11203082
34	0x3f093faf	0.536128
35	0xbe462e70	-0.19353652
36	0xbe83bd66	-0.25730437
37	0xbe3c20c3	-0.18371873
38	0x3e3c8009	0.18408217
39	0xbda20bab	-0.07912382
40	0x3f105e7d	0.5639418
41	0xbdd6bdbe	-0.10485409
42	0xbe5b7a19	-0.21433295
43	0xbeba4546	-0.36380976
44	0xbec12aae	-0.37727875
45	0x3e5e03d5	0.2168115
46	0x3d522420	0.051303983
47	0x3ed1a36e	0.40945
48	0x3e5f5bab	0.21812312
49	0x3e0d6a68	0.13810122
50	0x3f2af5d3	0.6678135
51	0xbcea2254	-0.028580822
52	0x3e7843ff	0.24244688
53	0xbecd98f2	-0.4015575
54	0x3e08974c	0.13338965
55	0xbe6bc167	-0.23022996
56	0xbd854739	-0.06507725
57	0xbddb1ae9	-0.10698492
58	0xbf0d9178	-0.5530009
59	0x3da739e6	0.0816534
60	0xbee9ffd7	-0.45703003
61	0xbd07fe6c	-0.03320162
62	0x3c927e68	0.01788254
63	0x3e1b17fd	0.1514587
64	0xbe9e1be3	-0.3088065
65	0xbd888e94	-0.066678196
66	0x3ce4b05d	0.027916128
67	0x3e9043ec	0.2817682
68	0x3d452de0	0.048139453
69	0xbe84b16b	-0.2591661
70	0x3e16b6cc	0.14718169
71	0x3e099b28	0.13438094
72	0xbc63c9ed	-0.013903123
73	0x3d7a0e91	0.061049048
74	0xbe3ef10e	-0.18646643
75	0x3def5af0	0.11687267
76	0xbd10360a	-0.035207786
77	0xbdfcb8d3	-0.1233994
78	0x3e9c231d	0.3049554
79	0x3e5d5a33	0.2161644
80	0x3dcc1c3e	0.09966324
81	0xbd25a14e	-0.040437035
82	0xbdd0a534	-0.1018776
83	0x3e7cdbac	0.24693173
84	0xbea0c845	-0.31402794
85	0x3e407fa3	0.1879869
86	0xbdf467fb	-0.11933895
87	0x3ef03489	0.4691508
88	0xbebb3bed	-0.36569157
89	0x3e894786	0.2681238
90	0x3eafb210	0.34315538
91	0x3c8fa75d	0.01753586
92	0xbeaf6cfc	-0.34262836
93	0x3e89e013	0.26928768
94	0xbf4045cd	-0.7510651
95	0x3eb2293c	0.34797084

layer1_task.0.bias f4 [32]
0	0xbd90acf4	-0.07064238
1	0x3dacc81c	0.08436605
2	0x3e63ed4d	0.22258492
3	0x3de8477d	0.1134176
4	0xbe508b46	-0.20365629
5	0xbdd5ab7f	-0.10433101
6	0x3d9cc3ec	0.07654557
7	0xbea7cdf1	-0.32774308
8	0xbc8d9d0c	-0.0172868
9	0xbe86981d	-0.26287928
10	0xbded5160	-0.11587787
11	0x3e0715eb	0.13191955
12	0xbcb7b8fd	-0.022427076
13	0x3d58be08	0.052915603
14	0xbda58e85	-0.08083824
15	0x3e775b7f	0.24155997
16	0xbd40158e	-0.046895556
17	0x3d5cdd71	0.05392212
18	0x3d23c4ca	0.039982595
19	0x3d7b1c45	0.061306257
20	0xbdb7d847	-0.089767985
21	0xbb853153	-0.004064718
22	0x3db71457	0.089394264
23	0xbddaec9c	-0.10689661
24	0x3d7add2a	0.061246075
25	0xbc6cb37b	-0.014447088
26	0xbce3e386	-0.027818453
27	0xbcf07c81	-0.029356243
28	0x3cee7743	0.029109603
29	0xbdd23c33	-0.10265388
30	0x3d5e008d	0.054199744
31	0xbe302bf2	-0.17204264

layer1_task.2.weight f4 [32]
0	0x3f8a5ab5	1.0808932
1	0x3f9ac5e8	1.2091646
2	0x3f759552	0.9593097
3	0x3f938a81	1.1526643
4	0x3f7cd88e	0.98767936
5	0x3f8e63ff	1.1124266
6	0x3f855428	1.0416307
7	0x3f70fb7f	0.9413375
8	0x3f7f7926	0.9979423
9	0x3f60f8bc	0.8787954
10	0x3f84e8c4	1.0383534
11	0x3f88ef11	1.0697957
12	0x3f951d8c	1.1649642
13	0x3f7e2bba	0.9928547
14	0x3f838358	1.0274458
15	0x3f817869	1.0114871
16	0x3f6d7f01	0.9277192
17	0x3f8356f3	1.026091
18	0x3f6a60ff	0.91554254
19	0x3f884328	1.0645494
20	0x3f5d9586	0.8655628
21	0x3f853bd8	1.0408888
22	0x3f7ed605	0.9954532
23	0x3f8635c5	1.0485159
24	0x3f8917a2	1.0710337
25	0x3f5e0b10	0.8673563
26	0x3f5dc27b	0.8662488
27	0x3f82dc2f	1.0223445
28	0x3f86e867	1.0539674
29	0x3f6e0145	0.9297069
30	0x3f563e70	0.8368902
31	0x3f784a36	0.96988237

layer1_task.2.bias f4 [32]
0	0x3da09523	0.078409456
1	0x3db4d532	0.08829726
2	0xbd95b974	-0.07310763
3	0x3d3bd83a	0.045860507
4	0xbdcf9627	-0.10136061
5	0xbe01b799	-0.12667693
6	0xbdea6ace	-0.114461526
7	0xbccb7e7d	-0.024840588
8	0x3d01563f	0.03157639
9	0xbbc2ef06	-0.005948904
10	0x3d1a4ba1	0.03766978
11	0x3b367d7a	0.0027845786
12	0x3dbfd03a	0.09365888
13	0xbdaad9ad	-0.083422996
14	0x3d033505	0.032032985
15	0x3e3873b9	0.18012895
16	0x3d59e4ce	0.05319672
17	0x3d1af25c	0.03782879
18	0x3d95a98b	0.073077284
19	0xbe33a622	-0.17543843
20	0x3e809fe3	0.25121984
21	0xbcf32060	-0.029678524
22	0xbdeb6da1	-0.114955194
23	0x3e0004d3	0.1250184
24	0x3e861cba	0.26193792
25	0x3dd1b7ab	0.1024011
26	0xbd86e1d8	-0.06586045
27	0xbd8a8f79	-0.067656465
28	0x3d2765c4	0.040868536
29	0xbe168e11	-0.14702632
30	0xbd9f2ac8	-0.07771832
31	0xbd9a831f	-0.075445406

layer1_task.2.running_mean f4 [32]
0	0x46594bd2	13906.955
1	0xc657e1aa	-13816.416
2	0xc70c002a	-35840.164
3	0x447bd6bf	1007.3554
4	0xc62754f3	-10709.237
5	0x44c57763	1579.7308
6	0xc6c96f8c	-25783.773
7	0xc5fc846c	-8080.5527
8	0xc556d54e	-3437.3315
9	0x4528e318	2702.1934
10	0x45a2fa1f	5215.265
11	0xc5ee91a3	-7634.2046
12	0xc685cf62	-17127.691
13	0xc5a1853e	-5168.6553
14	0xc6561b76	-13702.865
15	0x465ad0f9	14004.243
16	0x4664d908	14646.258
17	0xc4e561df	-1835.0585
18	0x4605d89e	8566.154
19	0xc5e2d24d	-7258.2876
20	0xc6e88b40	-29765.625
21	0x46166ed1	9627.704
22	0x44e32f91	1817.4865
23	0xc682d7b6	-16747.855
24	0xc4814cf1	-1034.4044
25	0x45f5dcd9	7867.606
26	0x469635f6	19226.98
27	0xc524dfcf	-2637.988
28	0xc6a526da	-21139.426
29	0x46ec0812	30212.035
30	0x46b1538c	22697.773
31	0x468aab66	17749.7

layer1_task.2.running_var f4 [32]
0	0x4d0b7fd9	1.4627573e+08
1	0x4d0bb63e	1.4649853e+08
2	0x4e70e11a	1.010321e+09
3	0x4961e4f7	925263.44
4	0x4cabbaaf	9.0035576e+07
5	0x4a05d702	2.1928325e+06
6	0x4def531b	5.0190013e+08
7	0x4c40137e	5.035161e+07
8	0x4b0b18c4	9.115844e+06
9	0x4aadcaa8	5.694804e+06
10	0x4ba4b146	2.1586572e+07
11	0x4c2e8d90	4.5758016e+07
12	0x4d56c3d9	2.2519746e+08
13	0x4ba1b746	2.1196428e+07
14	0x4d09ba92	1.444191e+08
15	0x4d15adff	1.5695051e+08
16	0x4d206412	1.6818205e+08
17	0x4a26773c	2.727375e+06
18	0x4c552883	5.5878156e+07
19	0x4c1b3056	4.0681816e+07
20	0x4e219610	6.777416e+08
21	0x4c85d41a	7.016469e+07
22	0x4a1a2cf4	2.526013e+06
23	0x4d59996c	2.281694e+08
24	0x49496ee2	825070.1
25	0x4c3a7bd7	4.8885596e+07
26	0x4d8d73a8	2.966459e+08
27	0x4aa7e803	5.5019535e+06
28	0x4da2277a	3.40062e+08
29	0x4e2b5d10	7.187507e+08
30	0x4dc30fde	4.0907462e+08
31	0x4d6b492e	2.467151e+08

layer1_1vm.0.weight f4 [64, 40]
0	0x3d54ae84	0.051924244
1	0x3d556f68	0.0521082
2	0xbd0f0b3f	-0.034922834
3	0x3e63e231	0.22254254
4	0x3ad10e3c	0.0015949677
5	0x3c4d1db8	0.0125192925
6	0x3ddd7595	0.108134426
7	0x3caeca4e	0.0213367
8	0xbc96f1c8	-0.018425837
9	0xbe13a149	-0.14416994
10	0xbe978de0	-0.2960043
11	0x3d530fa0	0.051528573
12	0x3d76786e	0.060173444
13	0x3dba93f5	0.09110252
14	0xbe8bd519	-0.27311018
15	0x3e57ddfd	0.21080776
16	0xbe480e1f	-0.19536637
17	0x3de23991	0.11046136
18	0xbbf22cc4	-0.0073905904
19	0xbeceb30e	-0.40370983
20	0x3eaf4277	0.34230396
21	0xbc7591e4	-0.014988396
22	0xbd7bc42a	-0.061466374
23	0xbe007813	-0.12545805
24	0x3c27ce1b	0.0102420105
25	0xbd82bc6a	-0.063835934
26	0x3d9a5046	0.07534842
27	0xbe90ffbe	-0.28320116
28	0x3deea3f1	0.11652363
29	0xbe4a5897	-0.19760357
30	0xbddc9913	-0.10771384
31	0xbe14ffe3	-0.14550738
32	0x3cb67a80	0.02227521
33	0x3d798cfd	0.060925473
34	0x3e8d1b8a	0.27560073
35	0x3da180d0	0.07885897
36	0x3e06c927	0.13162671
37	0xbe9c2b36	-0.30501717
38	0x3b8cc149	0.0042955023
39	0x3d952839	0.072830625
40	0xbd14d5a6	-0.036336564
41	0xbe03e25c	-0.12879318
42	0xbd303ba4	-0.043025628
43	0x3ebea619	0.37236097
44	0x3da5dcb4	0.080987364
45	0xbb122ba0	-0.0022303835
46	0xbe2e2288	-0.1700536
47	0xbe01f584	-0.12691313
48	0xbec350c6	-0.38147563
49	0xbe8220dc	-0.25415695
50	0x3d5a0eb4	0.05323668
51	0x3d41a6a7	0.047278073
52	0x3e049080	0.12945747
53	0x3e32b75c	0.17452759
54	0xbe956651	-0.29179624
55	0xbde81427	-0.11331969
56	0x3ea2908b	0.31750903
57	0x3e5b7579	0.21431531
58	0xbce93d35	-0.028471569
59	0x3e6002a9	0.21876015
60	0xbe7742ad	-0.24146529
61	0xbeb0ecee	-0.34555763
62	0xbdd0a9c0	-0.10188627
63	0x3e0789c1	0.13236143
64	0xbeba2dc8	-0.36363053
65	0xbe1b8ed1	-0.15191199
66	0x3e31a16d	0.17346735
67	0x3e7bd4cb	0.24592893
68	0x3eba1f8c	0.36352193
69	0xbea03c7f	-0.31296155
70	0xbcf3a726	-0.029742789
71	0xbe88ca20	-0.2671671
72	0x3da14a94	0.07875553
73	0xbdeeeaba	-0.11665864
74	0x3e17b29f	0.14814232
75	0x3e81970e	0.25310558
76	0xbe3e30cc	-0.18573302
77	0x3e873371	0.26406434
78	0x3e5856b3	0.21126823
79	0xbacb9642	-0.0015532451
80	0x3df94814	0.12171951
81	0xbea40788	-0.32036996
82	0xbe05f29f	-0.13080834
83	0x3d4831d7	0.048875656
84	0xbe84521b	-0.25843892
85	0xbc31800d	-0.010833752
86	0x3ce5a669	0.028033452
87	0x3cb2e2a3	0.021836584
88	0xbe0cb62f	-0.13741373
89	0xbd9bffc6	-0.07617144
90	0xbd9b5d4b	-0.075861536
91	0xbd17c47b	-0.037052613
92	0xbe473c91	-0.19456698
93	0x3d9f90cf	0.07791292
94	0xbda8681c	-0.08222982
95	0xbe013e26	-0.12621364
96	0x3d89fc4b	0.06737574
97	0x3e33dbc8	0.17564309
98	0xbe9bae7c	-0.3040656
99	0xbe05efaa	-0.13079706
100	0x3d323793	0.04351003
101	0x3e1afff0	0.15136695
102	0x3de0649b	0.10956689
103	0xbc161810	-0.00916101
104	0x3d4d1087	0.05006459
105	0x3cf1ae46	0.029502045
106	0x3c63a9b4	0.013895441
107	0x3e0af01f	0.13568161
108	0xbe4f015c	-0.20215362
109	0xbbc8112d	-0.006105563
110	0xbd8ec092	-0.069703236
111	0xbd603463	-0.05473746
112	0x3e69ab18	0.22819173
113	0x3d0a45b7	0.03375789
114	0xbddf8936	-0.10914843
115	0xbcea84a9	-0.02862771
116	0x3de7a803	0.113113426
117	0x3d8637b2	0.06553592
118	0x3e1af75a	0.1513342
119	0xbe4bac98	-0.19890058
120	0xbe801496	-0.25015706
121	0xbe0a47a1	-0.13503887
122	0x3e08fde1	0.13378097
123	0xbeaf2ce3	-0.34213933
124	0x3d91ac27	0.071129136
125	0x3d8f116e	0.06985746
126	0x3d48d114	0.049027517
127	0xbdc4772d	-0.095930435
128	0xbc101fd3	-0.00879665
129	0xbc6ead3a	-0.014567668
130	0xbe88ae0b	-0.26695284
131	0x3e949553	0.29020175
132	0xbcd6eea5	-0.026236841
133	0xbe3f735a	-0.18696347
134	0xbd670bf4	-0.056407884
135	0xbde004c7	-0.10938411
136	0xbc91eda4	-0.017813511
137	0xbe5d396a	-0.21603933
138	0xbd2a1bfe	-0.0415306
139	0x3e66e30e	0.22547552
140	0xbb6fb438	-0.0036575925
141	0x3e64ba6a	0.22336736
142	0x3dfe1a9b	0.12407418
143	0x3d312a76	0.043253385
144	0xbe9d3115	-0.3070151
145	0x3e1927b8	0.14956558
146	0x3ecea262	0.40358263
147	0x3cabe345	0.020982394
148	0x3d8df6e8	0.06931859
149	0x3be312e4	0.006929742
150	0xbd3147fd	-0.043281544
151	0x3d0a9784	0.033835903
152	0xbf07eac1	-0.5309258
153	0xbdf038b0	-0.11729562
154	0xb80fb0a0	-3.425835e-05
155	0xbec2f071	-0.38074067
156	0xbcf1c11b	-0.029511025
157	0x3e069a01	0.13144685
158	0xbe4c1ac6	-0.19932088
159	0xbe34032f	-0.1757934
160	0xbe3da130	-0.1851852
161	0xbda4fccb	-0.08056029
162	0x3d2e1ae9	0.042506132
163	0xbe249ab6	-0.16074643
164	0xbe854e9e	-0.26036543
165	0xbdd5e9c4	-0.10444978
166	0xbd80b4d3	-0.062844895
167	0x3daea67e	0.085278496
168	0xbe0590c9	-0.13043512
169	0x3d8dccf2	0.06923856
170	0x3e3494c1	0.1763487
171	0xbd833b37	-0.06407779
172	0x3cc14c14	0.023595847
173	0x3daa10fb	0.0830402
174	0xbe80b8d5	-0.25141016
175	0xbd440625	-0.047857422
176	0x3caa7796	0.020808976
177	0x3e3bc562	0.18337014
178	0xbda049fe	-0.07826613
179	0x3d8cf4eb	0.06882652
180	0x3cda7e2f	0.026671497
181	0xbe4e00a5	-0.20117433
182	0x3e38aa6a	0.18033758
183	0x3d9958a2	0.074876085
184	0x3dd97120	0.1061728
185	0x3dea24b9	0.114327855
186	0x3e0fc54c	0.14040107
187	0xbda7b3a6	-0.08188562
188	0xbe422765	-0.1896034
189	0x3ed2d773	0.4118
190	0x3d3dda49	0.04635075
191	0xbdd86a76	-0.10567181
192	0x3de9e620	0.11420846
193	0x3ef2e9ee	0.474441
194	0xbd5eb391	-0.054370467
195	0x3d28134d	0.04103403
196	0xbc8a685e	-0.01689547
197	0x3d97fd19	0.074213214
198	0x3e921d7a	0.28538114
199	0x3e01f4ef	0.12691091
200	0xbd9b28f7	-0.07576173
201	0xbd85049d	-0.064950205
202	0xbdb2f74a	-0.08738573
203	0x3e0dcab0	0.1384685
204	0x3d1c2b0c	0.03812699
205	0x39d5d98a	0.00040788605
206	0xbc392805	-0.011301045
207	0x3d269e97	0.040678587
208	0x3dd95821	0.106125124
209	0x3e84ed88	0.25962472
210	0xbe07f535	-0.13277133
211	0xbe015fc7	-0.12634192
212	0xbd3efa57	-0.04662546
213	0x3e142a09	0.1446916
214	0x3e64edcd	0.22356339
215	0x3e98fe0d	0.29881325
216	0x3e65f5fb	0.22457115
217	0x3eced3ba	0.4039591
218	0xbd7bf280	-0.061510563
219	0xbd924ffa	-0.071441606
220	0xbacb1b00	-0.0015495718
221	0xbbbbb9b6	-0.0057289256
222	0xbce1aad2	-0.027547274
223	0x3eda827e	0.42677683
224	0x3dbb0937	0.09132617
225	0xbc11de94	-0.008903164
226	0x3e43b42b	0.19111697
227	0x3e02828c	0.12745112
228	0x3e402599	0.18764342
229	0xbd73b217	-0.05949601
230	0xbc91e472	-0.017809127
231	0x3ef47935	0.47748724
232	0x3c842794	0.016132154
233	0xbe263827	-0.16232358
234	0x3e170af3	0.1475027
235	0xbe2b26e1	-0.1671405
236	0xbe8bb69b	-0.27287754
237	0xbe48d9ea	-0.19614378
238	0x3e8de5c6	0.27714366
239	0x3d37d34e	0.04487925
240	0xbd5628c6	-0.05228498
241	0xbe7ea9f7	-0.24869524
242	0x3d522176	0.051301442
243	0x3e772536	0.24135289
244	0xbe20b8b0	-0.15695453
245	0xbd1c7e1d	-0.03820621
246	0xbe0f2957	-0.13980614
247	0xbe3f2086	-0.1866475
248	0x3e302f8f	0.17205642
249	0xbe33a5bf	-0.17543696
250	0xbdc1a9bc	-0.094562024
251	0xbc13b524	-0.009015355
252	0xbe735e67	-0.2376648
253	0x3d7a45fb	0.061101895
254	0xbd9a8780	-0.07545376
255	0x3dadea5c	0.08491966

layer1_1vm.0.bias f4 [64]
0	0xbe08974f	-0.1333897
1	0xbd82e305	-0.06390957
2	0x3d9723eb	0.07379898
3	0xbd235102	-0.039872177
4	0x3d6bc4cb	0.057560723
5	0xbda1365c	-0.07871696
6	0x3caee740	0.021350503
7	0x3b9a22b2	0.004703843
8	0x3d2b04de	0.04175269
9	0xbe23b1fb	-0.15985863
10	0xbcb821f7	-0.022477133
11	0x3d5ed5a2	0.054402955
12	0xbd7ca04e	-0.061676316
13	0xbd9f5b1f	-0.07781052
14	0xbe8275c2	-0.25480467
15	0x3d8fe6f0	0.0702647
16	0xbc9821bb	-0.018570771
17	0x3c854212	0.016266856
18	0x3e4342d6	0.19068465
19	0x3d812797	0.06306379
20	0xbe04a2b6	-0.12952694
21	0xbdc2a41b	-0.09503957
22	0xbe76ae31	-0.24089886
23	0x3d84587f	0.06462192
24	0x3c9e94e0	0.019358099
25	0xbe426ad3	-0.18986063
26	0x3c9e83df	0.01934999
27	0x3d262d0f	0.040570315
28	0x3e510fd6	0.20416197
29	0xbe1ffaee	-0.15623066
30	0xbd3843cb	-0.044986527
31	0xbe0368d1	-0.12832953
32	0xbd1cdaab	-0.038294476
33	0xbd9cdc3e	-0.07659195
34	0x3e252515	0.16127427
35	0x3d27cc08	0.040966064
36	0x3d45fd6e	0.048337393
37	0x3e2e6843	0.1703196
38	0xbd8e21ec	-0.06940064
39	0x3ce7bd2b	0.028288445
40	0x3d255f2a	0.04037396
41	0xbd6aa6ab	-0.057287853
42	0xbd30baac	-0.043146774
43	0xbe3448db	-0.17605917
44	0x3e24e21a	0.16101876
45	0x3cb35c12	0.021894488
46	0xbdd8b229	-0.10580856
47	0xbe321785	-0.17391784
48	0xbe4e9208	-0.20172894
49	0xbbf57869	-0.0074911606
50	0x3d96668f	0.0734378
51	0xbb44b62a	-0.0030015805
52	0x3cea85b6	0.028628211
53	0xbd2b6f2e	-0.041854076
54	0x3e0b068d	0.13576718
55	0x3cb56afc	0.02214574
56	0xbc60faf8	-0.013731711
57	0x3e21ce53	0.15801363
58	0xbc9891eb	-0.018624267
59	0x3ce4829c	0.02789431
60	0xbe0a7d3a	-0.13524333
61	0xbdcccf5e	-0.1000049
62	0x3baeec4b	0.005338227
63	0xbdbd0f6a	-0.092314556

layer1_1vm.2.weight f4 [64]
0	0x3f89af25	1.0756575
1	0x3f849e42	1.0360796
2	0x3f7c081f	0.9844989
3	0x3f8905b8	1.070487
4	0x3f95a797	1.1691769
5	0x3f515ba5	0.81780463
6	0x3f765fe4	0.9624007
7	0x3f610124	0.87892365
8	0x3f83bc55	1.0291849
9	0x3f7f9cff	0.9984893
10	0x3f90ad45	1.1302878
11	0x3f788edc	0.97092986
12	0x3f737502	0.95100415
13	0x3f5eb499	0.8699432
14	0x3f919218	1.1372709
15	0x3f660a71	0.8985968
16	0x3f9bc943	1.2170795
17	0x3f864d0c	1.0492263
18	0x3f6acd1d	0.9171923
19	0x3f81156c	1.0084662
20	0x3f965221	1.1743814
21	0x3f610c3b	0.8790929
22	0x3f864d57	1.0492352
23	0x3f633dcd	0.88766176
24	0x3f833321	1.0249978
25	0x3f7ff5a6	0.99984205
26	0x3f878fa1	1.0590707
27	0x3f678fff	0.90454096
28	0x3f81d606	1.014344
29	0x3f6cf9cc	0.9256866
30	0x3f826dcb	1.0189756
31	0x3f83cf5a	1.0297654
32	0x3f80d778	1.0065756
33	0x3f860650	1.0470676
34	0x3f8844ce	1.0645998
35	0x3f6d9ed6	0.9282049
36	0x3f786466	0.97028196
37	0x3f80bc51	1.005747
38	0x3f8961c4	1.0732961
39	0x3f931c53	1.1493019
40	0x3f640808	0.89074755
41	0x3f8105f9	1.0079948
42	0x3f853c17	1.0408963
43	0x3f9c290d	1.2200028
44	0x3f7607da	0.9610573
45	0x3f90792e	1.1286981
46	0x3f87a9d0	1.0598698
47	0x3f8afef1	1.0859052
48	0x3f9b8c0f	1.2152117
49	0x3f888176	1.0664508
50	0x3f86fa2d	1.0545098
51	0x3f757d78	0.95894575
52	0x3f76e9a9	0.9645029
53	0x3f8939e9	1.0720798
54	0x3f4f5017	0.8098158
55	0x3f68ea1d	0.9098223
56	0x3f726fcc	0.9470184
57	0x3f84f7cc	1.0388122
58	0x3f81e4dc	1.0147967
59	0x3f75145a	0.9573418
60	0x3f73a58f	0.951745
61	0x3f696723	0.91173
62	0x3f85395c	1.040813
63	0x3f7764d3	0.9663822

layer1_1vm.2.bias f4 [64]
0	0xbde61ed8	-0.11236352
1	0x3c383b48	0.0112446025
2	0x3d9f35e2	0.07773949
3	0xbd2d77f0	-0.04235071
4	0x3d3f2b59	0.0466722
5	0xbdcf5b1c	-0.101247996
6	0x3d1aa8ce	0.03775864
7	0xbe2ca87b	-0.16861145
8	0x3d1de757	0.0385507
9	0x3dc7bb90	0.097525716
10	0xbda519ef	-0.08061587
11	0x3e08e60a	0.13369003
12	0xbd17e0bf	-0.03707957
13	0xbe889593	-0.26676616
14	0x3d6a4bf6	0.05720135
15	0x3e024e5d	0.12725206
16	0x3d096d6d	0.033551622
17	0x3e8bbff4	0.27294886
18	0x3e5bf851	0.21481444
19	0xbcf41aeb	-0.029797992
20	0x3bf342f3	0.0074237525
21	0x3dc6104c	0.09671077
22	0xbd596c18	-0.0530816
23	0x3e35a991	0.17740466
24	0x3d0e2c7b	0.03471039
25	0xbe1078f3	-0.14108638
26	0xbc82e413	-0.015977895
27	0x3c6d7aad	0.01449458
28	0x3d2f08ae	0.042732887
29	0x3df22611	0.11823667
30	0x3e1f71a4	0.15570694
31	0xbd299bcd	-0.04140835
32	0xbe1ad840	-0.15121555
33	0xbcdac1da	-0.026703764
34	0x3e786e83	0.24260907
35	0x3dddedb2	0.108363524
36	0x3cb61aac	0.022229515
37	0x3c2871bb	0.010281022
38	0x3de3073b	0.110853635
39	0xbe42e824	-0.19033867
40	0xbc30d3e3	-0.010792705
41	0x3db8aba9	0.090171166
42	0xbe0bdb7c	-0.13657945
43	0xbd800920	-0.062517405
44	0xbda02604	-0.07819751
45	0xbd18293e	-0.037148707
46	0xbcf25a30	-0.02958402
47	0x3dddd70c	0.108320326
48	0xbe065ac0	-0.13120556
49	0xbc99cdea	-0.018774945
50	0x3d9384fb	0.072030984
51	0xbd36b113	-0.044602465
52	0xbe0e4be5	-0.13896139
53	0xbd0889b6	-0.033334456
54	0x3daa4c32	0.08315314
55	0xbdb2bfac	-0.08727965
56	0x3d775b46	0.06038978
57	0x3c9fdfa6	0.019515824
58	0xbd1b2fb2	-0.037887283
59	0xbd0632aa	-0.03276316
60	0xbd936c9e	-0.071984515
61	0xbe40e37d	-0.1883678
62	0xbdfc64e9	-0.123239346
63	0x3d99377e	0.074812874

layer1_1vm.2.running_mean f4 [64]
0	0xc5679f90	-3705.9727
1	0xc7832d7c	-67162.97
2	0xc8aa59e3	-348879.1
3	0xc8560f36	-219196.84
4	0x46d67c6b	27454.209
5	0xc7aacb53	-87446.65
6	0xc88d5a8c	-289492.38
7	0xc79c0896	-79889.17
8	0xc709f20a	-35314.04
9	0xc8b01655	-360626.66
10	0x47e679c5	118003.54
11	0x487fbb30	261868.75
12	0xc8b3ba93	-368084.6
13	0x471d3bb1	40251.69
14	0xc771ded7	-61918.84
15	0xc89deac1	-323414.03
16	0x476d6005	60768.02
17	0xc80ccee1	-144187.52
18	0x450d7b10	2263.6914
19	0xc790a82e	-74064.36
20	0xc7781816	-63512.086
21	0xc7b2c0f9	-91521.945
22	0xc81539b3	-152806.8
23	0x46ac434d	22049.65
24	0x475280a9	53888.66
25	0xc78451c5	-67747.54
26	0x47c6e730	101838.375
27	0x481f67c0	163231.0
28	0x479743ce	77447.61
29	0xc8193f89	-156926.14
30	0xc8ad8a20	-355409.0
31	0xc831eb11	-182188.27
32	0xc77b4e93	-64334.574
33	0xc8bec4d0	-390694.5
34	0xc649e957	-12922.335
35	0xc8170440	-154641.0
36	0x4798bbff	78199.99
37	0xc899264d	-313650.4
38	0xc7dd5214	-113316.16
39	0xc6d70348	-27521.64
40	0xc829ef89	-174014.14
41	0x48c3e8b4	401221.62
42	0xc6861f38	-17167.61
43	0x47d51ca5	109113.29
44	0xc80f7511	-146900.27
45	0x47ebcfec	120735.84
46	0x474cf98e	52473.555
47	0x475b7df0	56189.938
48	0x482a756a	174549.66
49	0xc8041dee	-135287.72
50	0x45738198	3896.0996
51	0xc7884f74	-69790.91
52	0x47ad8cfd	88857.98
53	0x4732c26f	45762.434
54	0xc4a6dc78	-1334.8896
55	0x487b9879	257633.89
56	0x47e870df	119009.74
57	0x47d44659	108684.695
58	0x46bb3aad	23965.338
59	0xc8515d1a	-214388.4
60	0x483086ea	180763.66
61	0x4809e744	141213.06
62	0xc83d7a98	-194026.38
63	0x48862b4e	274778.44

layer1_1vm.2.running_var f4 [64]
0	0x4b8d8494	1.8549032e+07
1	0x4e9ef9a4	1.3335803e+09
2	0x50ecbe1e	3.177506e+10
3	0x5029da3c	1.1398607e+10
4	0x4d4ba6f5	2.1354478e+08
5	0x4ef3f1ca	2.0463547e+09
6	0x50b14149	2.3790766e+10
7	0x4ebcff79	1.5854296e+09
8	0x4d977324	3.176132e+08
9	0x50e81dfa	3.115423e+10
10	0x4f439189	3.281095e+09
11	0x5086e7a6	1.8106626e+10
12	0x510e2c35	3.816419e+10
13	0x4dd07cf8	4.3723136e+08
14	0x4e764a5d	1.03301715e+09
15	0x50c423fe	2.6325545e+10
16	0x4e5e9eb0	9.337354e+08
17	0x4f9c548a	5.245572e+09
18	0x4b25ab36	1.085727e+07
19	0x4eaf6958	1.4714583e+09
20	0x4e81c6d2	1.0886454e+09
21	0x4f004ed8	2.1526508e+09
22	0x4fc83550	6.717874e+09
23	0x4cf52366	1.2852306e+08
24	0x4e3db28d	7.9564883e+08
25	0x4e8356a9	1.1017473e+09
26	0x4f1a5bb6	2.5897016e+09
27	0x4fc7642f	6.690463e+09
28	0x4eaf7865	1.4719515e+09
29	0x4fc347ba	6.5525156e+09
30	0x50fa94fa	3.3632539e+10
31	0x5000449a	8.607918e+09
32	0x4e7a604e	1.05015386e+09
33	0x51017502	3.4750865e+10
34	0x4c46d869	5.2126116e+07
35	0x4fb2e9ce	6.003334e+09
36	0x4ec4c2ca	1.65055e+09
37	0x50cbae81	2.733769e+10
38	0x4f3b8c83	3.146548e+09
39	0x4d3dc9b1	1.9900699e+08
40	0x4fe44bdc	7.6603535e+09
41	0x510780d2	3.6373864e+10
42	0x4ce83084	1.2173418e+08
43	0x4f33133b	3.004382e+09
44	0x4fa07a02	5.384701e+09
45	0x4f6470f0	3.8326067e+09
46	0x4e2bfce0	7.213691e+08
47	0x4e3489dc	7.572334e+08
48	0x4fcf1b69	6.94936e+09
49	0x4f879260	4.549034e+09
50	0x4b44145c	1.2850268e+07
51	0x4e98fd1b	1.2833622e+09
52	0x4ee680be	1.9335985e+09
53	0x4dfb1fd9	5.2664605e+08
54	0x4b0493a7	8.688551e+06
55	0x507424aa	1.6384174e+10
56	0x4f569c09	3.6005501e+09
57	0x4f2c2404	2.8880415e+09
58	0x4d1e576a	1.6603306e+08
59	0x501c1f7f	1.0477239e+10
60	0x4ff65bf7	8.2664443e+09
61	0x4f95c89a	5.0259036e+09
62	0x500d7913	9.494089e+09
63	0x508f28c2	1.9214504e+10

layer1_2vm.0.weight f4 [32, 64]
0	0xbd5f9af5	-0.054591138
1	0x3db462dc	0.088079184
2	0x3e43e699	0.19130935
3	0xbda3d447	-0.07999473
4	0x3e74956c	0.23885125
5	0x3cff29e5	0.031147907
6	0x3e6ddfb6	0.2322987
7	0xbdbcd5c6	-0.092204615
8	0xbb46eddd	-0.003035418
9	0x3e36e583	0.1786099
10	0x3e090f2a	0.13384691
11	0x3d2ed9a8	0.042688042
12	0x3d267e7d	0.040647972
13	0xbd02ff08	-0.031981498
14	0xbc2ca826	-0.010538137
15	0xbe508ec8	-0.20366967
16	0x3dcf15d3	0.101115845
17	0xbdf9bd60	-0.121943235
18	0x3ca50308	0.020143047
19	0x3db7f204	0.08981708
20	0xbe96d9e4	-0.29463112
21	0xbe3adfd2	-0.18249443
22	0xbe229c9f	-0.15880059
23	0x3e190272	0.14942339
24	0x3e2bc94b	0.16776006
25	0x3d5f6fef	0.054550108
26	0x3dd4b4ca	0.10386045
27	0x3e2b87da	0.16751042
28	0xbe24c756	-0.16091666
29	0x3b308cb2	0.002693933
30	0x3e80206c	0.25024736
31	0xbed7742c	-0.4208082
32	0xbed9cd74	-0.4253956
33	0x3dce5fbe	0.10076855
34	0x3dbcf6dc	0.09226772
35	0xbda37fc3	-0.07983353
36	0xbd947da9	-0.0725053
37	0x3d2e1952	0.042504616
38	0xbd5ca916	-0.05387219
39	0xbe86359f	-0.26212785
40	0x3da88eb8	0.082303464
41	0xbdf075fa	-0.11741252
42	0xbda979d2	-0.082751885
43	0x3de8fdfa	0.11376567
44	0xbe69014d	-0.22754402
45	0xbd975ebd	-0.07391117
46	0xbe1767f9	-0.14785756
47	0xbe40e8a6	-0.18838748
48	0xbd96212f	-0.07330548
49	0x3e42936c	0.1900155
50	0xbe256f1d	-0.16155668
51	0xbea93427	-0.33047602
52	0x3e508aa2	0.20365384
53	0x3e13da98	0.14438856
54	0xbbfecd5e	-0.0077759465
55	0x3c920318	0.01782374
56	0xbe0ce878	-0.13760555
57	0x3d1f2192	0.038850375
58	0xbd2eddde	-0.042692058
59	0xbed26bfd	-0.41098014
60	0xbc11feb1	-0.008910821
61	0x3d424119	0.047425363
62	0xbea9d1e8	-0.33167958
63	0xbe77df2d	-0.24206229
64	0x3de24a6d	0.11049352
65	0x3ea1b278	0.31581473
66	0x3e520a49	0.20511736
67	0xbc745886	-0.014913684
68	0x3ea21fd7	0.31664917
69	0x3d953034	0.07284585
70	0xbef1fc6b	-0.47262892
71	0xbd5e2cf5	-0.054242093
72	0x3dbb661d	0.09150336
73	0xbed3750f	-0.41300246
74	0x3e554108	0.20825589
75	0xbae0c525	-0.0017148597
76	0xbda87eda	-0.0822732
77	0xbdfc07e1	-0.1230619
78	0xbe343370	-0.17597747
79	0xbed320b1	-0.4123588
80	0xbe6b385f	-0.22970723
81	0xbdc7eb4e	-0.09761678
82	0x3f083a43	0.532139
83	0x3f0ec372	0.55766976
84	0xbe54918e	-0.2075865
85	0xbe9dcaa4	-0.30818665
86	0xbe120642	-0.142602
87	0xbdb7d9c9	-0.08977086
88	0x3d9ad688	0.0756045
89	0xbd4e36cd	-0.05034523
90	0x3dd52027	0.10406523
91	0xbd34096a	-0.04395429
92	0x3e3f40a7	0.18677007
93	0x3dc0c868	0.094132245
94	0x3e1f7a1b	0.15573923
95	0x3d5d559a	0.054036714
96	0xbdd40bff	-0.103538506
97	0xbea36b99	-0.31918028
98	0xbe81542c	-0.2525953
99	0xbe70911a	-0.23492852
100	0xbc952e59	-0.018210577
101	0xbda56b76	-0.08077137
102	0xbd1d7ae4	-0.038447276
103	0xbeaf88fd	-0.342842
104	0xbe6484b9	-0.22316255
105	0x3db887d2	0.09010281
106	0xbd6cce9d	-0.05781423
107	0xbe3bef2e	-0.18352959
108	0x3cd4b95d	0.025967294
109	0xbddff073	-0.10934534
110	0xbe05e594	-0.13075858
111	0x3c5556e6	0.0130212065
112	0xbe622092	-0.22082737
113	0xbdafb282	-0.085789695
114	0xbd7ece39	-0.062208388
115	0x3d96c7f0	0.07362354
116	0xbe222c2d	-0.15837164
117	0xbe1591e6	-0.14606437
118	0x3d25db6f	0.04049247
119	0x3e64203e	0.22277924
120	0x3cadd572	0.021219943
121	0xbe2037d9	-0.15646304
122	0x3e9649d1	0.29353192
123	0x3e8e0b35	0.27742925
124	0xbe30a73f	-0.172513
125	0xbdbe249d	-0.09284327
126	0x3d65a9bc	0.056070074
127	0xbd0668bb	-0.032814723
128	0xbe94e4e8	-0.29080892
129	0xbe0ac4fa	-0.13551703
130	0xbd942fe0	-0.07235694
131	0x3d6fdff6	0.058563195
132	0x3e5afaa8	0.2138468
133	0x3ebababb	0.3647059
134	0xbcdcc707	-0.026950372
135	0xbf059cc5	-0.52192336
136	0x3e0aaef0	0.13543296
137	0xbe3996a6	-0.18123874
138	0x3e1d3c65	0.1535507
139	0xbe84a02e	-0.25903457
140	0xbf04731c	-0.5173814
141	0x3e74ea70	0.23917556
142	0x3e7522c3	0.23939042
143	0x3e5fe17a	0.21863356
144	0x3e1aa4c2	0.15101913
145	0x3e8f383c	0.2797259
146	0x3d3558f6	0.044274293
147	0xbe857900	-0.26068878
148	0xbe51de3a	-0.20494929
149	0x3df55593	0.119792126
150	0xbe23f766	-0.16012344
151	0x3e2c658c	0.16835612
152	0xbe653307	-0.22382747
153	0x3ecee256	0.40407056
154	0xbec492c1	-0.38393214
155	0xbda82b4d	-0.08211384
156	0x3e66cb69	0.22538532
157	0xbde7b394	-0.11313549
158	0xbe30fa29	-0.17282929
159	0xbd155a1e	-0.036462896
160	0x3da910e5	0.082551755
161	0xbda76bbc	-0.081748456
162	0x3db8a64a	0.09016092
163	0x3d4f68b2	0.050636955
164	0x3e62295a	0.22086087
165	0xbe58fe08	-0.21190655
166	0x3e3ace47	0.18242751
167	0x3e6723f0	0.22572303
168	0x3d6dd5c3	0.058065187
169	0xbea1bdd4	-0.3159014
170	0x3e1e1c97	0.15440594
171	0xbd0b0698	-0.033941835
172	0xbd9f7298	-0.07785529
173	0xbe28a956	-0.16470847
174	0x3e9a9caa	0.3019765
175	0xbe306470	-0.17225814
176	0x3b0a52ec	0.0021106554
177	0xbe5142fa	-0.20435706
178	0x3d1ba450	0.037998497
179	0xbd9555a3	-0.072917245
180	0xbd8cb90d	-0.06871233
181	0x3e69e2d2	0.22840431
182	0xbc3ba866	-0.011453724
183	0xbe228479	-0.15870847
184	0x3ef43b8f	0.4770169
185	0xbe981ffd	-0.29711905
186	0x3dd24e55	0.10268847
187	0x3c80ab4e	0.015706684
188	0x3d101f6c	0.035186216
189	0x3e08054d	0.13283272
190	0xbe56ad19	-0.20964469
191	0xbd88eacc	-0.06685409
192	0x3d47097b	0.048593026
193	0xbd06c5a5	-0.032903332
194	0xbe3f12b0	-0.18659472
195	0xbc03bb97	-0.00804033
196	0x3dd5244f	0.10407316
197	0xbe13e006	-0.14440927
198	0x3ce077c9	0.027400868
199	0xbe8c934b	-0.27456126
200	0xbe047484	-0.12935072
201	0xbd253333	-0.04033203
202	0x3dc512a5	0.09622697
203	0xbe790127	-0.24316846
204	0x3d9d6ce7	0.07686787
205	0xbd6e9840	-0.058250666
206	0xbec821cb	-0.39088282
207	0xbd51fb0d	-0.05126481
208	0x3dde02f3	0.10840406
209	0x3d53a567	0.05167141
210	0xbe04f9a6	-0.12985858
211	0xbdd2640c	-0.10272989
212	0x3eb40abc	0.3516444
213	0x3dd24f6d	0.102690555
214	0xbde1eadb	-0.11031123
215	0xbd6db41e	-0.0580331
216	0x3dc2e683	0.09516623
217	0xbea479ae	-0.32124084
218	0x3e4f83d9	0.2026514
219	0xbe813289	-0.25233868
220	0xbddc5387	-0.10758119
221	0x3bbcad72	0.005757981
222	0x3e4bfcfc	0.19920725
223	0xbe86da84	-0.2633859
224	0xbc0671ce	-0.008205844
225	0x3c203e4c	0.009780478
226	0xbd9313fc	-0.07181546
227	0x3db5cfdd	0.088775374
228	0x3cc8486a	0.024448592
229	0x3d987c9e	0.07445644
230	0xbe2d6e0f	-0.16936515
231	0x3d3f3a0e	0.046686225
232	0xbca5c8ba	-0.020237315
233	0xbd9ac073	-0.07556238
234	0x3e8a5237	0.2701585
235	0x3d80e632	0.06293906
236	0x3e8fdd1b	0.28098378
237	0x3e465f2c	0.19372243
238	0x3e667ed5	0.2250932
239	0xbdef262e	-0.11677204
240	0x3cebde7b	0.02879261
241	0xbe201e3d	-0.15636535
242	0x3e845ba8	0.25851178
243	0xbdde6a12	-0.10860075
244	0xbe3df1d2	-0.18549278
245	0x3df788aa	0.120866135
246	0x3ea85eb7	0.32884762
247	0x3ddda1ae	0.108218536
248	0x3e8e527d	0.2779731
249	0x3c9c9bfd	0.01911735
250	0xbe54606b	-0.20739906
251	0xbe802998	-0.25031734
252	0xbd7ba0f6	-0.0614328
253	0xbdc03f9f	-0.09387135
254	0xbde4e954	-0.11177316
255	0xbd30fed0	-0.043211758

layer1_2vm.0.bias f4 [32]
0	0xbd25b794	-0.040458277
1	0xbea4b3e6	-0.32168502
2	0xbc9ecad7	-0.019383831
3	0xbdaa2461	-0.0830772
4	0x3dff15ac	0.124553055
5	0xbd8c0e33	-0.06838646
6	0x3cb36b06	0.021901619
7	0xbd83a693	-0.06428256
8	0xbd3739f6	-0.04473301
9	0xbb75b53b	-0.0037492055
10	0x3cc4391b	0.023953011
11	0xbe3d3dfb	-0.18480675
12	0x3d8d1c00	0.06890106
13	0xbd557ef9	-0.052123044
14	0xbdd369ce	-0.10322915
15	0x3e78e243	0.24305062
16	0xbdccd4af	-0.10001504
17	0xbe1b2f3e	-0.1515474
18	0x3e0c5cb3	0.13707237
19	0xbd5d2c89	-0.05399755
20	0x3c4dcad4	0.012560565
21	0xbe05e7ba	-0.13076678
22	0xbe02fbec	-0.12791413
23	0x3d6d2c2d	0.057903457
24	0xbe28e658	-0.16494119
25	0xbca9fc55	-0.020750204
26	0xbe6b972a	-0.23006883
27	0x3b8b9d5d	0.0042607025
28	0x3d4927b4	0.04911013
29	0x3cacc630	0.021090597
30	0x3e2b55da	0.16731969
31	0xbde1b65f	-0.11021113

layer1_2vm.2.weight f4 [32]
0	0x3f61604e	0.88037574
1	0x3f88a61d	1.0675694
2	0x3f702e48	0.9382062
3	0x3f6247bb	0.883907
4	0x3f745bd0	0.95452595
5	0x3f47c80b	0.78039616
6	0x3f86a25c	1.0518298
7	0x3f715dbe	0.94283664
8	0x3f69fb02	0.9139863
9	0x3f4f991b	0.81092995
10	0x3f813d5b	1.0096849
11	0x3f66c813	0.9014904
12	0x3f638245	0.8887065
13	0x3f502666	0.8130859
14	0x3f8508df	1.0393332
15	0x3f75262d	0.95761377
16	0x3f81313f	1.0093154
17	0x3f86893b	1.051063
18	0x3f75688d	0.95862657
19	0x3f96a933	1.1770386
20	0x3f856dd3	1.0424141
21	0x3f69f7cc	0.91393733
22	0x3f8c43e2	1.0958216
23	0x3f646b50	0.89226246
24	0x3f808ede	1.00436
25	0x3f60a24a	0.87747633
26	0x3f835c8d	1.0262619
27	0x3f72bbbe	0.9481772
28	0x3f7211a5	0.94558173
29	0x3f630379	0.88677174
30	0x3f4c9a02	0.799225
31	0x3f8764fb	1.0577692

layer1_2vm.2.bias f4 [32]
0	0xbdb4b631	-0.08823813
1	0x3d04c705	0.032416362
2	0x3d07a445	0.033115644
3	0x3e63938e	0.22224256
4	0xbc5f6019	-0.013633751
5	0xbe4b61e0	-0.19861555
6	0x3d3a137e	0.045428745
7	0xbd975c8c	-0.07390699
8	0xbd8d9b02	-0.06914331
9	0x3c2c163e	0.01050335
10	0xbd56ae8d	-0.05241256
11	0xbda05501	-0.07828713
12	0xbe1443e3	-0.14479022
13	0xbdf6b039	-0.120453306
14	0xbce1661a	-0.027514506
15	0xbdd3c697	-0.103406124
16	0xbd8a4a55	-0.06752459
17	0x3dea4b8f	0.11440193
18	0xbd5c5efb	-0.053801518
19	0xbcbedf42	-0.023299817
20	0xbc928f40	-0.017890573
21	0xbe637cd7	-0.22215591
22	0xb89539ed	-7.115663e-05
23	0x3d87c952	0.06630196
24	0x3d3085ea	0.04309646
25	0x3bb64f16	0.005563627
26	0x3cd3b103	0.025841242
27	0xbcf8e2d1	-0.030381592
28	0xbd9f828f	-0.07788574
29	0x3cffbe4f	0.031218676
30	0x3e236725	0.15957315
31	0xbc903e5e	-0.017607864

layer1_2vm.2.running_mean f4 [32]
0	0xbf50ebca	-0.81609786
1	0xbf833817	-1.0251492
2	0xbe490469	-0.19630589
3	0xbe748858	-0.23880136
4	0xbf1d5262	-0.6145383
5	0xbea2a05c	-0.3176297
6	0xbf1b9953	-0.6078083
7	0xbf069c86	-0.52582586
8	0x3ec88c4b	0.39169535
9	0xbec96d3b	-0.3934115
10	0x3eecb3d7	0.46230957
11	0x3f5a8ed7	0.85374206
12	0xbf10f56b	-0.5662448
13	0xbd5faac2	-0.054606207
14	0xbf61ac3b	-0.8815343
15	0xbeffcb44	-0.49959767
16	0xbef29d85	-0.47385803
17	0x3e4f66ad	0.20254011
18	0x3f1bedba	0.60909617
19	0x3e4f1f8c	0.20226878
20	0xbf774ca3	-0.96601313
21	0x3eb16899	0.34650114
22	0xbf67e423	-0.90582484
23	0x3bc97acb	0.0061486713
24	0xbdfec5cd	-0.12440071
25	0x3f3bf6b7	0.7342333
26	0xbe4167f6	-0.18887314
27	0x3f03fbbf	0.5155601
28	0x3f0f3bd2	0.55950654
29	0x3f535fe2	0.8256818
30	0x3f01fd51	0.50777155
31	0xbf0a8e64	-0.5412352

layer1_2vm.2.running_var f4 [32]
0	0x3fa1a702	1.2629092
1	0x3ffd7916	1.9802577
2	0x3f9e7fc5	1.2382742
3	0x3f638811	0.88879496
4	0x3f3ce9c5	0.73794204
5	0x3f87bb3d	1.0604016
6	0x3f89b722	1.0759013
7	0x3f9666cc	1.1750121
8	0x3f87028a	1.054765
9	0x3f476f15	0.7790387
10	0x3f741a52	0.9535266
11	0x3f83e184	1.0303197
12	0x3f6db91b	0.92860574
13	0x3fb2ba13	1.3963035
14	0x3fc9994a	1.5749905
15	0x3fdb5c93	1.7137626
16	0x3f583a5b	0.84464043
17	0x3fa357d2	1.2761176
18	0x3f9fa2f7	1.2471608
19	0x3f880309	1.0625926
20	0x3fc4a2d1	1.5362188
21	0x3fc767d6	1.5578563
22	0x3f9066fd	1.128143
23	0x3f8272ba	1.0191262
24	0x3f727d65	0.94722587
25	0x3f9d09ea	1.226865
26	0x3fa174b5	1.2613741
27	0x3f8f4ff4	1.1196275
28	0x3fc0d65a	1.5065415
29	0x3fdf38dc	1.7439227
30	0x3f61d876	0.8822092
31	0x3f745eb0	0.9545698

layer2.0.weight f4 [32, 64]
0	0xbd588c46	-0.05286815
1	0xbda8c651	-0.08240951
2	0xbe5fa556	-0.21840414
3	0x3eed551b	0.46353993
4	0x3e17afec	0.14813203
5	0x3d1ec18d	0.038758803
6	0x3e1f66b5	0.15566523
7	0x3e8d169c	0.27556312
8	0x3e1527c1	0.14565946
9	0xbe3240bd	-0.17407508
10	0x3e8642d7	0.2622287
11	0x3c3c38d0	0.0114881545
12	0xbb27302a	-0.0025510886
13	0x3e14be82	0.14525798
14	0xbcf8de9f	-0.030379592
15	0x3d509c09	0.050930057
16	0x3ec1d549	0.37858036
17	0xbe88be75	-0.26707807
18	0xbcb9a9da	-0.022664
19	0xbe3d1f9a	-0.18469086
20	0x3c43c2f7	0.011948339
21	0xbd68d533	-0.056843948
22	0x3d824fe0	0.06362891
23	0x3d7f6c21	0.06235898
24	0x3e83087c	0.2559241
25	0x3db04d4b	0.086084925
26	0xbbd8e22f	-0.00661876
27	0x3e11c219	0.14234199
28	0xbd714163	-0.05890025
29	0xbe33e4f4	-0.17567807
30	0x3e029e6a	0.12755743
31	0x3dd7687b	0.10517975
32	0xbcda9321	-0.026681485
33	0x3ed11592	0.4083677
34	0x3e39d71e	0.18148467
35	0x3e05b579	0.13057508
36	0x3e52a9bd	0.20572563
37	0xbb84f350	-0.0040573254
38	0xbd7c83d9	-0.061649177
39	0x3e19d582	0.15022853
40	0xbcbefbd7	-0.023313446
41	0xbe194e56	-0.14971289
42	0xbdc9520a	-0.09830101
43	0x3d6d0346	0.05786445
44	0xbe3e9767	-0.18612443
45	0x3cb2c564	0.021822639
46	0x3ed57873	0.41693458
47	0xbe2997ef	-0.16561864
48	0x3d23a77d	0.03995465
49	0xbe774e16	-0.24150881
50	0x3e6e66da	0.23281422
51	0x3c911417	0.017709775
52	0x3e06fb38	0.1318177
53	0x3dda7372	0.10666551
54	0x3f0d130e	0.551072
55	0xbe92b98a	-0.2865718
56	0xbe0b3cc3	-0.13597398
57	0xbe0e7bf9	-0.1391448
58	0xbd08d6f0	-0.033408105
59	0x3e07b206	0.13251504
60	0xbea25113	-0.3170248
61	0xbc88141d	-0.016611153
62	0x3e8ff052	0.28113037
63	0xbebee6bd	-0.37285414
64	0x3deffb5a	0.117178634
65	0x3cd8e197	0.026474757
66	0x3cf5190f	0.029919175
67	0x3e0279b4	0.12741739
68	0x3e61afa4	0.22039658
69	0xb945c0a8	-0.00018859154
70	0xbd66b4cd	-0.05632477
71	0x3d268f7f	0.040664192
72	0xbe7556a8	-0.23958838
73	0x3c1fd95f	0.009756415
74	0x3e25239c	0.16126865
75	0xbddf9943	-0.10917904
76	0x3de36d59	0.11104841
77	0x3e293fa2	0.1652818
78	0x3ea9b6d2	0.33147293
79	0x3e409956	0.18808493
80	0x3eb7d329	0.3590329
81	0xbdc71824	-0.09721401
82	0xbd464f21	-0.048415307
83	0x3d558761	0.05213106
84	0xbe6964ba	-0.2279233
85	0x3e38ee9e	0.18059775
86	0xbd960912	-0.07325949
87	0x3e8f7d71	0.28025392
88	0x3bf53588	0.007483188
89	0x3d5de62b	0.054174583
90	0xbe41b1d6	-0.18915495
91	0xbde95dca	-0.11394842
92	0x3c26cb75	0.010180344
93	0xbe1c6deb	-0.15276305
94	0x3e70fd99	0.2353424
95	0xbdf52161	-0.11969257
96	0x3c6b5183	0.014362696
97	0xbe42a5d6	-0.19008574
98	0xbd3bdf97	-0.04586753
99	0xbdfd89f3	-0.12379827
100	0xbc8e9c6b	-0.01740857
101	0x3dbeb711	0.09312261
102	0xbc0a33b5	-0.0084351795
103	0xbd921e72	-0.07134713
104	0xbcfb689d	-0.030689532
105	0x3edad2c2	0.4273892
106	0xbe8c4d06	-0.27402514
107	0xbdd529b4	-0.10408345
108	0x3ec4b854	0.3842188
109	0xbd509b61	-0.05092943
110	0x3c5041bb	0.012710984
111	0xbea5021b	-0.3222817
112	0xbe6d1f95	-0.23156579
113	0x3c6f0fba	0.014591152
114	0x3efbe171	0.49195436
115	0x3dc2778a	0.094954565
116	0xbe82e328	-0.2556393
117	0xbda4b4f8	-0.080423295
118	0xbd6e3688	-0.058157474
119	0xbe0a730d	-0.13520451
120	0xbd691582	-0.056905277
121	0xbe1d018b	-0.1533262
122	0xbdda3af0	-0.10655773
123	0xbd922834	-0.071365744
124	0xbc8f3efd	-0.01748609
125	0xbe39cf96	-0.18145594
126	0x3cd92b24	0.026509829
127	0x3e91b6f6	0.284599
128	0xbd1b4410	-0.037906706
129	0x3e998dca	0.2999099
130	0xbe1fbbee	-0.15599033
131	0xbe62b602	-0.22139743
132	0x3d2fc54b	0.042912763
133	0x3dc37385	0.09543518
134	0x3d7694d4	0.060200527
135	0x3e2d1b4a	0.16904941
136	0x3daf4ba9	0.08559353
137	0x3c742fa6	0.014903938
138	0x3da84967	0.082171254
139	0xbed0cf53	-0.40783176
140	0x3e2771b7	0.16351973
141	0xbe19e52c	-0.15028828
142	0xbd66f0f7	-0.056382146
143	0xbdd115c6	-0.10209231
144	0xbd8c10fb	-0.06839176
145	0x3e8e98ee	0.2785105
146	0xbdfce47c	-0.123482674
147	0x3cb7d2ac	0.022439323
148	0x3e23470c	0.15945071
149	0x3e78ce57	0.24297462
150	0xbe390fc6	-0.18072423
151	0x3b450f5e	0.0030068974
152	0x3d86c699	0.06580848
153	0xbe82320e	-0.25428814
154	0xbccbeac9	-0.024892228
155	0xbdd197ff	-0.10234069
156	0x3e63172a	0.22176805
157	0x3e9b5989	0.30341747
158	0x3d99faaa	0.075185135
159	0xbe239547	-0.15974914
160	0x3e653923	0.22385077
161	0x3ec7bee5	0.39012828
162	0x3e65a373	0.22425632
163	0xbdcb5e4d	-0.09930096
164	0x3e0b663b	0.13613217
165	0xbee3ec49	-0.4451621
166	0xbe919799	-0.28435972
167	0x3e20ca0e	0.15702078
168	0x3d84d23f	0.06485414
169	0x3e183d3c	0.14867109
170	0xbe42d91b	-0.19028132
171	0xbdd6fc98	-0.10497397
172	0x3e79c80e	0.24392721
173	0x3eaa69b7	0.3328378
174	0x3d22bbca	0.03972987
175	0xbd512f02	-0.05107022
176	0xbe167fb6	-0.14697155
177	0x3d6bd7d1	0.057578865
178	0xbe6e21bb	-0.23255055
179	0xbd7bdb64	-0.061488524
180	0x3d56adc1	0.0524118
181	0x3cfbe8c8	0.030750647
182	0xbe676f18	-0.22600973
183	0x3db14236	0.08655207
184	0xbe134112	-0.14380291
185	0x3ce3cf2c	0.027808748
186	0x3e696b3c	0.22794813
187	0x3e4c451c	0.19948238
188	0xbe5ed96c	-0.21762627
189	0x3ebedf35	0.37279668
190	0xbdb63caa	-0.088982895
191	0x3e7e64fe	0.24843213
192	0xbda7ba2d	-0.08189807
193	0xbc9caf78	-0.019126639
194	0x3cce2ab2	0.025166843
195	0xbd9f7d6f	-0.077875964
196	0x3d5bd43c	0.0536692
197	0x3e7b851a	0.24562493
198	0xbec8e333	-0.3923584
199	0xbe2096ae	-0.1568248
200	0xbe84b171	-0.25916627
201	0xbc80074d	-0.015628481
202	0xbe6ee20f	-0.23328422
203	0xbd7a9fc9	-0.06118754
204	0x3cfe0409	0.031007783
205	0xbe4f6ef2	-0.20257166
206	0x3e4e9223	0.20172934
207	0x3d1cb1ab	0.038255375
208	0x3e0cc3d9	0.13746585
209	0x3eb16839	0.34649828
210	0x3e7d1b9b	0.24717562
211	0x3e2aec41	0.16691686
212	0xbcddcdd9	-0.027075695
213	0x3e073447	0.13203536
214	0x3e1486d4	0.14504558
215	0x3c87f313	0.016595399
216	0xbe38a7d6	-0.18032774
217	0xbd663006	-0.056198142
218	0x3d4457bc	0.047935233
219	0x3c8f3ea2	0.01748592
220	0xbea5534d	-0.32290116
221	0x3e0602ea	0.13087049
222	0x3dedecbe	0.116174206
223	0x3d93f8a5	0.072251596
224	0x3db26aae	0.08711754
225	0x3ea5b541	0.32364848
226	0xbe7ed2b9	-0.24885072
227	0x3d8a02a4	0.06738785
228	0x3ce3e98c	0.027821325
229	0xbe088f7c	-0.13335985
230	0xbd3b479e	-0.045722596
231	0x3d35f9c2	0.04442764
232	0x3d7c7172	0.061631627
233	0xbd756d9e	-0.059918992
234	0x3d308ead	0.043104816
235	0x3db93e77	0.09045117
236	0xbe2f8fdc	-0.17144722
237	0x3eb108a9	0.3457692
238	0x3e093291	0.13398196
239	0xbe054cc9	-0.13017572
240	0xbe1db9ca	-0.15402904
241	0xbb7e665a	-0.003881833
242	0x3db2147d	0.08695314
243	0xbd81b0eb	-0.063325725
244	0xbd43f68d	-0.04784255
245	0x3d10f2a5	0.035387654
246	0x3e580640	0.21096134
247	0xbdf1c892	-0.11805834
248	0x3e17dac9	0.14829554
249	0xbe206336	-0.15662846
250	0xbb226963	-0.0024782054
251	0x3d155597	0.036458578
252	0x3e88cb7d	0.2671775
253	0xbd54809f	-0.051880475
254	0x3e912ded	0.2835535
255	0x3e5fbe29	0.21849884

layer2.0.bias f4 [32]
0	0x3d21f009	0.039535556
1	0xbd822953	-0.06355538
2	0xbca834a4	-0.020532914
3	0x3d00ac09	0.031414066
4	0xbda2d7a3	-0.07951286
5	0x3d7e8b8d	0.062144805
6	0xbdab5dfe	-0.08367537
7	0x3d861a62	0.06548001
8	0xbe1075aa	-0.14107385
9	0xbe3410a7	-0.17584477
10	0xbdda5c5a	-0.10662146
11	0x3dbe2277	0.092839174
12	0xbde8b84a	-0.11363275
13	0x3e0a5a3a	0.13510981
14	0xbd95e31e	-0.0731871
15	0xbdb86834	-0.0900425
16	0xbdc5a75e	-0.096510634
17	0x3d0e4f19	0.034743402
18	0x3c9c8ca1	0.019110026
19	0x3deef82a	0.11668427
20	0xbdaf1d48	-0.08550507
21	0x3e13a3de	0.14417979
22	0x3d615ead	0.05502193
23	0xbdb004fb	-0.085947
24	0xbe011003	-0.12603764
25	0x3d39454e	0.04523211
26	0xbd6ce9f0	-0.057840288
27	0x3e59421a	0.21216622
28	0xbd86d865	-0.06584243
29	0x3dc35424	0.09537533
30	0x3e2f54ec	0.17122239
31	0xbcbbada3	-0.022909945

layer2.2.weight f4 [32]
0	0x3f7fa694	0.99863553
1	0x3f484a59	0.78238446
2	0x3f87bed2	1.0605109
3	0x3f6daa09	0.9283758
4	0x3f7774fd	0.96662885
5	0x3f686603	0.9078066
6	0x3f9025c5	1.1261526
7	0x3f812b15	1.0091273
8	0x3f6dfe26	0.92965925
9	0x3f57cf0b	0.843003
10	0x3f727356	0.9470724
11	0x3f37e5dc	0.7183511
12	0x3f4444ac	0.76667285
13	0x3f8b6c07	1.0892342
14	0x3f836b7c	1.0267177
15	0x3f8c6a42	1.0969927
16	0x3f32740c	0.69708323
17	0x3f7e5c78	0.99359846
18	0x3f464dac	0.7746227
19	0x3f53ffe4	0.82812333
20	0x3f7d865f	0.9903316
21	0x3f8718a9	1.0554401
22	0x3f7c2b3b	0.98503464
23	0x3f7859e5	0.9701217
24	0x3f8bbfff	1.0917968
25	0x3f8002e7	1.0000886
26	0x3f6d85a5	0.9278205
27	0x3f82a3cc	1.0206237
28	0x3f838888	1.0276041
29	0x3f633c87	0.8876423
30	0x3f8816c8	1.0631952
31	0x3f813c3e	1.009651

layer2.2.bias f4 [32]
0	0x3e81a93d	0.2532443
1	0x3d7f2693	0.062292647
2	0x3ea451c8	0.32093644
3	0xbd9963e7	-0.07489758
4	0x3c1aee99	0.0094563
5	0x3cb16352	0.021653805
6	0xbdf0e86e	-0.117630824
7	0xbe2bd44d	-0.16780205
8	0x3d7f78e6	0.062371157
9	0x3cbee0d5	0.023300568
10	0x3dc4c3a7	0.0960763
11	0xbecc8d93	-0.39951763
12	0xbea71c61	-0.3263884
13	0x3dfc3a95	0.12315861
14	0x3cd0fc8e	0.025511052
15	0xbdaf87ef	-0.08570849
16	0x3dfb047f	0.12256717
17	0xbe25bd88	-0.16185582
18	0x3d2c8e6e	0.04212802
19	0x3eb04975	0.34431043
20	0x3dc0395c	0.093859404
21	0x3e2604e6	0.16212806
22	0xbbac9f81	-0.005268038
23	0xbd960478	-0.07325071
24	0x3e145b91	0.14488055
25	0xbe423e96	-0.18969187
26	0xbdb33d0c	-0.08751878
27	0x3eb88179	0.3603628
28	0x3e9c7d59	0.30564383
29	0x3db7c6d6	0.08973472
30	0x3e4e177e	0.20126149
31	0xbdbe6f39	-0.09298558

layer2.2.running_mean f4 [32]
0	0x3f9e280e	1.2355974
1	0x3e6bcb17	0.23026691
2	0x3f051830	0.5199003
3	0x3ef8a55a	0.48563653
4	0xbf334b24	-0.7003653
5	0x3d8b0ac1	0.067891605
6	0xbef1aede	-0.47203726
7	0x3f01c3b6	0.50689256
8	0x3f212dfa	0.6296078
9	0x3e974b36	0.2954957
10	0x3eee4413	0.46536312
11	0xbf9166f1	-1.135954
12	0x3e0ff0c0	0.14056683
13	0x3d8e3a6f	0.06944739
14	0x3e7e6d98	0.24846494
15	0xbf5515b3	-0.83236235
16	0x3f4a647c	0.79059577
17	0x3fc06479	1.5030662
18	0x3eb84da0	0.35996723
19	0x3f9360e0	1.1513939
20	0xbe2cbe88	-0.16869557
21	0xbf911b00	-1.1336365
22	0x3c4cda8c	0.0125032775
23	0xbed8f903	-0.4237748
24	0xbf201aff	-0.6254119
25	0x3e81e5c0	0.25370598
26	0xbeb2493a	-0.34821492
27	0xbef4f8bf	-0.47846028
28	0x3c15c588	0.009141333
29	0xbd944dad	-0.07241378
30	0xbe62b808	-0.22140515
31	0xbf2eca80	-0.6827774

layer2.2.running_var f4 [32]
0	0x3fbf0958	1.4924726
1	0x3f488958	0.7833457
2	0x3f92272d	1.1418205
3	0x3f55e638	0.8355441
4	0x3f4f279d	0.8091982
5	0x3f0b55e3	0.5442793
6	0x3fc6a7bc	1.5519938
7	0x3fadb72c	1.3571525
8	0x3f86e08c	1.0537276
9	0x3f2f3eaf	0.6845502
10	0x3f21b247	0.63162655
11	0x3fa8b524	1.318028
12	0x3f897936	1.0740116
13	0x3f19d601	0.6009217
14	0x3edf01da	0.435561
15	0x3f518c14	0.8185437
16	0x3fe3b203	1.77887
17	0x3fa8a6d6	1.3175914
18	0x3f5ee906	0.87074316
19	0x3f8e0d1f	1.1097754
20	0x3f308440	0.689518
21	0x40058d32	2.0867429
22	0x3eb0a2db	0.3449925
23	0x3f476a93	0.77896994
24	0x3f640a63	0.8907835
25	0x3f3d1def	0.738738
26	0x3f0dc173	0.55373305
27	0x3f7cb50e	0.9871377
28	0x3f794cd2	0.97382843
29	0x3f0d33dc	0.55157256
30	0x3ea85ff0	0.32885695
31	0x3f50cb5e	0.81560314

fc_advantage.0.weight f4 [20, 32]
0	0xbe849d6a	-0.25901347
1	0xbcf1cb5d	-0.029515916
2	0x3f01ca43	0.5069925
3	0x3d8a8056	0.067627594
4	0xbe4a0e96	-0.19732127
5	0xbc5e52d5	-0.013569553
6	0xbe1e65d7	-0.15468536
7	0xbe3f1d6e	-0.1866357
8	0xbe0b41d7	-0.13599335
9	0x3cdb545f	0.02677363
10	0xbd9f8088	-0.07788187
11	0x3d90a943	0.07063534
12	0xbeaa6ea1	-0.33287528
13	0x3d8979ee	0.06712709
14	0x3e4a9c22	0.19786122
15	0xbc588a4a	-0.013216564
16	0xbe5db2cd	-0.21650238
17	0x3e448c37	0.19194113
18	0xbe293a13	-0.1652606
19	0xbe6d77d0	-0.23190236
20	0x3c426134	0.011863995
21	0xbd6c121a	-0.05763445
22	0xbec9558b	-0.39323077
23	0xbd89aaad	-0.06722007
24	0x3d0ecf94	0.03486593
25	0xbe5588ce	-0.20852968
26	0xbc8f7c39	-0.017515289
27	0x3e933029	0.2874768
28	0x3cbd2ece	0.023093607
29	0xbdbe6fdd	-0.0929868
30	0xbe468995	-0.19388421
31	0xbe814804	-0.25250256
32	0xbd02a185	-0.03189232
33	0xbe76c982	-0.24100307
34	0xbece2a66	-0.40266722
35	0xbe96831d	-0.29396906
36	0x3db54cb9	0.08852524
37	0xbec949f9	-0.3931425
38	0xbe677a81	-0.22605325
39	0xbec7e2d7	-0.39040253
40	0x3e0c0e02	0.13677219
41	0x3da819ff	0.08208083
42	0x3d9058b5	0.070481695
43	0x3ea80df9	0.3282316
44	0x3d437226	0.047716282
45	0xbe4d39b3	-0.20041542
46	0x3ca4f8ca	0.020138163
47	0xbe4090b3	-0.18805198
48	0xbe37061b	-0.17873423
49	0xbeea9cd0	-0.45822763
50	0xbe8bfc73	-0.2734104
51	0xbe776a12	-0.24161556
52	0x3d97c7bc	0.07411143
53	0xbeefd154	-0.46839392
54	0x3e283740	0.16427326
55	0x3e3f6685	0.18691452
56	0xbe7348b3	-0.23758201
57	0xbe81d843	-0.25360307
58	0xbe85fd69	-0.261699
59	0x3db5ce63	0.08877256
60	0x3e9d9d1a	0.3078392
61	0x3d4a0e99	0.049330328
62	0x3e330b69	0.17484821
63	0xbe3203b6	-0.17384228
64	0x3b924da6	0.004464823
65	0xbd7cd6ac	-0.061728165
66	0xbeffe597	-0.4997985
67	0xbd9d180e	-0.07670604
68	0xbdb10dc9	-0.086452074
69	0x3e61021a	0.21973458
70	0xbdc01545	-0.09379057
71	0x3d617d4f	0.055051144
72	0xbe171fc0	-0.14758205
73	0xbe87ded7	-0.265372
74	0xbe403c18	-0.18772924
75	0xbecc45ef	-0.39897105
76	0x3e1764f0	0.14784598
77	0xbe509b4e	-0.20371744
78	0xbb0bfb3b	-0.0021359462
79	0x3ce362f7	0.027757151
80	0xbe566961	-0.20938636
81	0xbd442762	-0.04788912
82	0x3eee7994	0.46577132
83	0x3d69c0ee	0.057068758
84	0xbd6e8a0a	-0.058237113
85	0xbe60b835	-0.2194527
86	0xbddc4365	-0.10755042
87	0xbe41ef05	-0.18938835
88	0xbe20f2bc	-0.15717596
89	0xbe2b7b36	-0.1674622
90	0x3db9c0ec	0.0907
91	0x3e459ada	0.19297352
92	0x3ef4eca8	0.47836804
93	0xbdde9138	-0.10867542
94	0x3e9ce781	0.30645373
95	0x3da20eff	0.079130165
96	0xbea2c8a7	-0.3179371
97	0xbe46af53	-0.19402818
98	0xbe717002	-0.23577884
99	0xbebd263c	-0.36943233
100	0xbb92275c	-0.0044602584
101	0x3d66e8f2	0.056374498
102	0xbe404770	-0.18777251
103	0xbe62a56e	-0.22133419
104	0x3e52922c	0.20563573
105	0x3e6b8faf	0.2300403
106	0x3f06500d	0.524659
107	0xbd0308f1	-0.03199095
108	0xbeb32c8e	-0.3499493
109	0x3df3fcd2	0.11913456
110	0xbe72bae8	-0.23704112
111	0x3dc96ec9	0.09835584
112	0x3db317bf	0.087447636
113	0xbebe64db	-0.37186322
114	0x3e35545f	0.17707966
115	0xbd2c7203	-0.042100918
116	0x3eb6993b	0.3566378
117	0x3e2422e6	0.16028938
118	0xbda1ebde	-0.07906316
119	0x3d83aabc	0.064290494
120	0xbea281ed	-0.3173975
121	0x3e1cbb04	0.15305716
122	0xbe83efc7	-0.25768873
123	0x3ee4266e	0.4456057
124	0xbd01d9de	-0.031701915
125	0xbeb3e2ec	-0.35134065
126	0x3e07481b	0.132111
127	0xbeb154f0	-0.34635115
128	0xbdc76e54	-0.0973784
129	0xbe90913b	-0.28235802
130	0x3b6c7d5c	0.0036085462
131	0x3ebdbcb5	0.37058035
132	0x3e5f9361	0.21833564
133	0xbeadb8ed	-0.3393015
134	0xbf0efba8	-0.55852747
135	0x3db55cd3	0.088555954
136	0xbdf847e3	-0.12123086
137	0x3e9da1b4	0.30787432
138	0x3d814ff2	0.063140765
139	0x3d76933b	0.060199004
140	0x3e8b3866	0.27191466
141	0x3dd232ff	0.10263633
142	0xbd2a8008	-0.041626006
143	0xbeebd5cb	-0.4606155
144	0x3e74a6be	0.23891732
145	0xbdc7812e	-0.09741436
146	0xbe8a84aa	-0.2705434
147	0x3ead182f	0.33807513
148	0xbddac698	-0.1068241
149	0x3d5db43d	0.054126967
150	0xbe9c8999	-0.3057373
151	0xbe955f5c	-0.29174316
152	0x3ea61053	0.3243433
153	0x3e4a7e5f	0.19774769
154	0x3e1b862a	0.15187898
155	0xbef04655	-0.4692866
156	0xbe5e5253	-0.21711092
157	0x3e196a7e	0.1498203
158	0xbd879ac2	-0.066213146
159	0x3d344263	0.044008624
160	0xbccbf7e0	-0.02489847
161	0x3e4c817f	0.19971274
162	0xbea1a139	-0.31568316
163	0xbe8bd840	-0.27313423
164	0x3ee142b8	0.43996215
165	0xbe9e6b3c	-0.30941188
166	0x3dcccabf	0.09999608
167	0x3eea6f8e	0.45788234
168	0xbe26b474	-0.16279775
169	0xbd95c762	-0.0731342
170	0xbd83eea6	-0.06442003
171	0x3ee05e76	0.43822068
172	0x3e97bd1d	0.2963647
173	0x3c999ab4	0.018750526
174	0xbe8023e6	-0.25027388
175	0x3b45bc75	0.0030172144
176	0x3e37c607	0.17946635
177	0xbdc8cb2b	-0.09804376
178	0xbe947d3e	-0.29001802
179	0x3ed0332a	0.40664035
180	0xbe986cf6	-0.2977063
181	0xbebf1a93	-0.37324962
182	0xbe05374e	-0.13009378
183	0x3dc311db	0.0952489
184	0x3e61a597	0.22035824
185	0x3e6d2262	0.23157647
186	0x3d788d5a	0.06068168
187	0xbe05cffb	-0.1306762
188	0xbdaeabc4	-0.085288554
189	0xbdafad5b	-0.08577987
190	0x3db59606	0.08866505
191	0xbde27105	-0.11056713
192	0x3eae9660	0.34099102
193	0x3c356bf0	0.011073098
194	0xbe0cfe03	-0.13768773
195	0x3d1b44cf	0.037907418
196	0xbe8951a3	-0.26820096
197	0x3e8232b9	0.25429323
198	0x3d10d6b2	0.035361
199	0x3e9ce5ca	0.30644065
200	0xbeb88d22	-0.36045176
201	0x3ecb960c	0.39762914
202	0xbecd9bec	-0.4015802
203	0x3e24948c	0.16072291
204	0xbe7e0d62	-0.24809793
205	0xbe2b2f6f	-0.16717313
206	0xbec78ce5	-0.38974681
207	0xbe443c6d	-0.19163676
208	0xbe78f376	-0.24311623
209	0xbea55175	-0.3228871
210	0x3d3fa14c	0.046784684
211	0x3d9bde1c	0.076107234
212	0xbedcde74	-0.43138468
213	0x3df8aeaf	0.12142693
214	0x3e37527c	0.17902559
215	0x3d4fb2f8	0.050707787
216	0x3d1d52aa	0.038408913
217	0x3eb44720	0.35210514
218	0x3cf04eb3	0.029334402
219	0x3be1425d	0.006874366
220	0xbe557452	-0.20845154
221	0xbe5ce0db	-0.2157015
222	0xbefbb89d	-0.49164286
223	0xbda138f4	-0.07872191
224	0xbdb5cf9a	-0.088774875
225	0xbda1e98a	-0.07905872
226	0x3ce887c4	0.02838505
227	0x3bf2ff5e	0.007415696
228	0x3e3cd08d	0.18438931
229	0xbe1328de	-0.14371058
230	0x3e2653df	0.16242932
231	0x3ded6422	0.115913644
232	0x3d5d2a20	0.05399525
233	0xbe3ff49f	-0.1874566
234	0xbe58820a	-0.21143356
235	0xbe6600a9	-0.2246119
236	0xbf04d15b	-0.5188195
237	0x3e39a29c	0.18128437
238	0x3e8498bf	0.25897786
239	0x3eac244e	0.33621448
240	0x3e30adce	0.17253801
241	0xbd84b5d4	-0.064799935
242	0xbeae2c0a	-0.34017974
243	0x3ed28130	0.41114187
244	0x3dc881a7	0.09790354
245	0xbe541b03	-0.20713429
246	0x3e330185	0.17481048
247	0xbdeeeab7	-0.11665862
248	0xbe1b73b6	-0.15180859
249	0x3ddb8b9c	0.10719988
250	0x3e0409f1	0.12894417
251	0x3d86e0e6	0.06585865
252	0x3eb4a910	0.35285234
253	0xbdbd5fef	-0.092468135
254	0xbd2f0147	-0.042725828
255	0x3cac7888	0.021053568

fc_advantage.0.bias f4 [20]
0	0xbe433047	-0.19061385
1	0x3d2a9bfc	0.041652665
2	0x3d71b229	0.059007797
3	0x3c60b917	0.013716004
4	0xbdfd9cfb	-0.12383457
5	0xbd3bba70	-0.045832098
6	0xbd8cb21a	-0.06869908
7	0xbd2fe07c	-0.042938694
8	0xbc8b83e4	-0.017030664
9	0xbd293c20	-0.041317105
10	0x3d8e366a	0.069439724
11	0xbd5b3fdc	-0.053527698
12	0xbd5e7160	-0.05430734
13	0xbd6149a3	-0.055001866
14	0x3db20643	0.086926006
15	0x3e517608	0.20455182
16	0x3e11c4fa	0.14235297
17	0x3d33fd6b	0.04394285
18	0xbc158bc0	-0.009127557
19	0x3d7d1de0	0.06179607
