models/clients/client-5/sub_model.pkl (torch, 42501 bytes, 27 tensors)

layer1_task.0.weight f4 [32, 3]
0.22031213 0.147027 -0.4276896 -0.05756558 -0.091400616 0.062440764 -0.35224187 -0.11914033
0.29844746 -0.105416045 0.17999509 0.2772612 -0.100805186 -0.18151633 0.06255093 0.26753056
0.09705925 -0.10107453 -0.27991956 -0.4147778 0.15695617 -0.26866502 -0.08587217 0.028216904
-0.111262634 0.33942866 0.065010116 0.19555534 -0.16867875 -0.23365904 0.06702251 0.10855852
0.19166581 -0.05714509 0.67506784 -0.10541043 -0.24875167 -0.34363317 0.078976154 -0.22734915
0.29550558 0.014938758 -0.26540112 -0.4797172 -0.4217844 0.15525208 0.15521368 0.3598116
0.11399985 0.38561344 0.5202962 -0.08533077 -0.072868615 -0.34128967 -3.3723918e-06 -0.042148724
0.031534724 -0.05685901 -0.21562006 -0.049661685 -0.59429145 -0.023645118 0.046275526 0.23683387
-0.3025252 0.10019505 0.18270347 0.09640738 0.13139246 -0.17296177 0.001613314 0.09638493
-0.14824112 0.074975155 -0.19202301 0.3871773 0.106067754 -0.22386622 0.34218243 0.07966847
0.009033454 0.04721129 -0.22023343 -0.03933966 -0.30665955 -0.012475139 -0.096930645 0.36535648
-0.27211174 0.07452171 0.15188488 -0.14602497 -0.20552912 -0.038627375 -0.4623142 0.36103153
00000000: 8199 613e 3f8e 163e 22fa dabe e3c9 6bbd
00000010: 3f30 bbbd e3c1 7f3d 0c59 b4be d8ff f3bd
00000020: 1bce 983e 5ee4 d7bd a250 383e 2ef5 8d3e
00000030: f372 cebd 6bdf 39be b41a 803d c4f9 883e
00000040: 00c7 c63d 2a00 cfbd 9e51 8fbe c15d d4be
00000050: 1eb9 203e 768e 89be c0dd afbd 2327 e73c
00000060: aadd e3bd 98c9 ad3e 0624 853d a93f 483e
00000070: 1fba 2cbe 5144 6fbe 1943 893d ee53 de3d
00000080: 0b44 443e f810 6abd 3fd1 2c3f 6ce1 d7bd
00000090: c2b8 7ebe b0f0 afbe 40be a13d 37ce 68be
000000a0: 824c 973e b1c1 743c a8e2 87be 7e9d f5be
000000b0: 20f4 d7be 67fa 1e3e 56f0 1e3e 3a39 b83e
000000c0: c178 e93d 206f c53e 2232 053f e6c1 aebd
000000d0: 243c 95bd 85bd aebe 4051 62b6 24a4 2cbd
000000e0: 8e2a 013d fee4 68bd 81cb 5cbe 0d6a 4bbd
000000f0: 7c23 18bf 68b3 c1bc 688b 3d3d 9484 723e
00000100: 95e4 9abe 1033 cd3d 9e16 3b3e 3c71 c53d
00000110: bf8b 063e e41c 31be d675 d33a 7665 c53d
00000120: 85cc 17be 938c 993d aea1 44be 1a3c c63e
00000130: 0d3a d93d 303d 65be 8932 af3e 3929 a33d
00000140: 0d01 143c a060 413d df84 61be a022 21bd
00000150: 7b02 9dbe 8764 4cbc 9383 c6bd 0110 bb3e
00000160: 3b52 8bbe d79e 983d b687 1b3e 9287 15be
00000170: 3a76 52be bd37 1ebd 72b4 ecbe 20d9 b83e

layer1_task.0.bias f4 [32]
0.026562657 0.1545494 0.16166185 -0.013166146 0.18761814 0.10199 -0.032166928 -0.06588264
-0.05092493 0.08495302 -0.07360513 0.1559795 -0.0814463 -0.24305485 0.123885475 -0.17453092
0.033958696 -0.047838476 -0.17755109 -0.06156609 0.055018686 -0.003348093 -0.10509371 0.13793755
-0.0014861953 -0.078322135 0.11502578 -0.011660837 -0.023528073 -0.09150712 0.054691724 -0.03074095
00000000: ee99 d93c 3342 1e3e af8a 253e d2b6 57bc
00000010: f81e 403e 22e0 d03d 78c1 03bd 7aed 86bd
00000020: a996 50bd d9fb ad3d 49be 96bd 17b9 1f3e
00000030: 51cd a6bd 5fe3 78be abb7 fd3d 3cb8 32be
00000040: 4618 0b3d 47f2 43bd f4cf 35be b92c 7cbd
00000050: 465b 613d ae6b 5bbb 5f3b d7bd 803f 0d3e
00000060: 70cc c2ba 5b67 a0bd a392 eb3d 180d 3fbc
00000070: f2bd c0bc 1668 bbbd 6e04 603d 72d4 fbbc

layer1_task.2.weight f4 [32]
1.1180595 0.93996793 1.1392909 1.1483243 0.9216345 1.2380939 1.0368264 1.0152396
1.2351391 1.0362152 1.0051321 0.84650767 0.77082324 1.0448744 1.0765377 1.1495775
1.155655 1.1592878 0.8715649 0.89100075 1.2779918 0.98604906 0.85744834 1.2035874
1.120115 0.8915066 1.0393789 1.0552968 0.84702307 1.0030864 0.9174258 1.0808344
00000000: 931c 8f3f bda1 703f 49d4 913f 4afc 923f
00000010: 3df0 6b3f dc79 9e3f bab6 843f 5ff3 813f
00000020: 0a19 9e3f b3a2 843f 2ba8 803f bab4 583f
00000030: ac54 453f 72be 853f fdcb 893f 5b25 933f
00000040: 81ec 933f 8b63 943f e11e 5f3f a018 643f
00000050: 3c95 a33f b66d 7c3f bc81 5b3f 270f 9a3f
00000060: ee5f 8f3f c739 643f 5e0a 853f f713 873f
00000070: 81d6 583f 2365 803f 6bdc 6a3f c858 8a3f

layer1_task.2.bias f4 [32]
-0.038504105 -0.03599469 -0.060206365 0.15713014 0.12559207 0.09349074 -0.031342234 0.08416194
-0.040306468 0.06722826 -0.17662898 -0.06637234 -0.16184483 -0.0063517434 0.18443738 -0.07658206
0.051769033 0.0390513 0.11848758 -0.20389627 -0.0012630391 -0.04708666 -0.024386773 -0.0017450111
0.04542904 -0.015344588 0.08055916 0.0030095917 -0.21550345 -0.058294877 -0.09611181 0.012230981
00000000: 7bb6 1dbd 2b6f 13bd f39a 76bd b9e6 203e
00000010: 359b 003e 1378 bf3d b760 00bd 185d ac3d
00000020: 6518 25bd f8ae 893d 3ade 34be 39ee 87bd
00000030: a7ba 25be 4922 d0bb 27dd 3c3e 0ed7 9cbd
00000040: c40b 543d 42f4 1f3d 9ea9 f23d 2fca 50be
00000050: 8f8c a5ba f1dd 40bd c5c6 c7bc dbb8 e4ba
00000060: cd13 3a3d de67 7bbc 33fc a43d 923c 453b
00000070: f0ac 5cbe 9cc6 6ebd 45d6 c4bd 7464 483c

layer1_task.2.running_mean f4 [32]
14050.719 -4195.8257 -23009.838 -7374.1357 -6684.6533 18045.762 -18718.414 -17745.562
-7556.399 13188.713 3988.7063 -4023.307 -15822.043 -14974.9375 -17359.766 10299.736
7537.081 -5296.3555 238.80142 -3490.521 -39866.254 15441.165 11907.8545 -11567.56
-9561.51 26387.328 23457.482 3305.7312 -19668.154 23987.773 9491.602 -2154.6084
00000000: e08a 5b46 9b1e 83c5 adc3 b3c6 1671 e6c5
00000010: 3ae5 d0c5 86fb 8c46 d43c 92c6 20a3 8ac6
00000020: 3123 ecc5 da12 4e46 4d4b 7945 e974 7bc5
00000030: 2c38 77c6 c0fb 69c6 889f 87c6 f2ee 2046
00000040: a688 eb45 d882 a5c5 2acd 6e43 5628 5ac5
00000050: 41ba 1bc7 a944 7146 6b0f 3a46 3dbe 34c6
00000060: 0a66 15c6 a826 ce46 f742 b746 b39b 4e45
00000070: 4fa8 99c6 8c67 bb46 684e 1446 bca9 06c5

layer1_task.2.running_var f4 [32]
1.5677326e+08 1.2947289e+07 4.1552486e+08 4.2479596e+07 3.4142936e+07 2.4536483e+08 2.5759397e+08 2.3751965e+08
4.1788948e+07 1.30169416e+08 1.2305577e+07 1.2150013e+07 1.9344922e+08 1.703238e+08 2.3547571e+08 8.477989e+07
4.4318012e+07 2.1686602e+07 65566.97 9.345494e+06 1.1955967e+09 1.9143074e+08 1.13287976e+08 9.697564e+07
7.229003e+07 5.221646e+08 3.9632787e+08 7.9557995e+06 3.1173885e+08 4.4932125e+08 7.06829e+07 3.7579508e+06
00000000: b982 154d 598f 454b 4023 c64d fb0b 224c
00000010: b63e 024c 86ff 694d 27a9 754d 3284 624d
00000020: 8569 1f4c 4947 f84c a9c4 3b4b fd64 394b
00000030: d07c 384d f66e 224d 3091 604d 6eb4 a14c
00000040: 4f0f 294c a574 a54b 7c0f 8047 d699 0e4b
00000050: b786 8e4e 0590 364d 6514 d84c 63f7 b84c
00000060: dee1 894c ccfc f84d defb bc4d afca f24a
00000070: 0fa6 944d c940 d64d 22d1 864c fb5d 654a

layer1_1vm.0.weight f4 [64, 40]
-0.13236259 0.044354215 -0.05751078 -0.0052664205 0.26871416 0.026742853 0.0396863 -0.061974175
-0.08150133 -0.09265206 0.048078135 -0.16951853 -0.21538089 -0.103247374 -0.42440295 0.10043567
-0.10508542 0.08757814 -0.058553755 -0.23361342 0.31177813 -0.021008566 0.05522632 0.021375623
-0.109605916 0.02376976 0.16476691 -0.17011948 0.08233718 -0.31972936 -0.3372916 -0.04502118
0.0728859 0.003462504 0.21028422 0.09000924 0.11154161 -0.21481785 0.06791387 0.14644861
0.036256768 -0.32607907 0.090777375 0.24424836 0.021476436 0.20659299 -0.010658558 0.25415218
-0.20551063 -0.089253984 -0.26368627 0.021634901 0.09071173 0.042252623 -0.057231437 -0.1380083
0.36535278 0.058565702 0.003430271 0.057491027 0.010411714 -0.052184194 -0.088101365 0.16293888
-0.2925678 -0.14023045 0.06030178 0.33847818 0.15798971 -0.25948188 0.16871686 -0.003711271
-0.022412684 -0.045737054 -0.07568073 0.010283026 -0.3933682 0.27142006 0.20140593 -0.02689493
0.13298883 -0.32406792 -0.20203082 0.08475755 -0.22048733 0.086374424 0.19913933 -0.13836077
-0.17132524 -0.39974567 0.019241067 0.08186468 -0.11086712 -0.08805235 0.2806361 0.12462302
0.06509143 0.14235154 -0.1227284 -0.0543779 0.06628006 -0.13233408 0.1469829 0.044516146
0.026645355 0.1019945 -0.014453351 0.021749081 -0.25941882 0.14917512 -0.24184598 0.064180955
-0.18727219 0.07194653 -0.0739563 -0.02224748 -0.056641042 0.09032553 -0.060927153 -0.38716987
-0.09816512 0.04568773 0.14026713 -0.14476149 -0.19250785 -0.039137628 -0.10303974 -0.113313034
-0.26102975 0.09548893 -0.028157363 0.09645366 -0.052482124 0.18864018 -0.16163523 -0.14962679
-0.07160144 0.011699077 -0.12173114 0.14088616 -0.10954321 0.19291861 0.041722387 0.17779338
-0.30497974 0.02174176 0.1574641 -0.037493322 0.12203041 0.23407681 -0.10670547 0.004452287
-0.29923674 0.062712006 -0.10041929 -0.13410564 0.38761222 0.3118291 -0.21523894 0.06759153
-0.04383219 -0.07318475 -0.03596132 -0.30742595 -0.33360985 -0.0021425597 -0.079285406 -0.0697883
0.2894563 0.032939684 0.15341176 -0.1615731 0.13157116 -0.044608995 -0.096992284 -0.009089157
-0.12936844 -0.038799368 0.17267303 0.33260962 0.024402676 -0.10515605 0.0075892177 0.09155941
0.14340447 -0.07563047 -0.10592185 -0.06052892 -0.1053104 -0.015168376 -0.056106053 0.22131889
0.14600939 0.30481339 -0.03159092 -0.028897481 -0.25704715 -0.025678935 0.21138877 0.09238823
-0.29244095 -0.1481286 -0.1638231 -0.05898429 -0.09098015 0.050966676 -0.0054960684 0.03894397
0.08958671 0.12956196 -0.1637373 -0.28518996 -0.03152169 0.040297832 0.065960236 0.06272353
0.31638256 0.05106441 0.07666696 -0.25460336 -0.23781441 0.11761381 -0.17719838 0.35319713
0.10658164 -0.24064274 -0.13773245 0.06495283 0.26759875 0.064246655 0.09514228 0.07028386
-0.19270688 -0.24972562 0.0803485 -0.20112889 0.17563877 0.07907865 0.26176307 0.21453984
-0.24289705 -0.23638463 -0.142925 -0.04402435 0.06509938 -0.16686666 -0.16791518 0.038196146
0.0059996066 0.026658151 -0.070443556 -0.058481842 -0.29429078 -0.17155825 -0.024797395 0.22962175
00000000: 0f8a 07be c4ac 353d 6c90 6bbd f091 acbb
00000010: e794 893e d413 db3c 1a8e 223d a2d8 7dbd
00000020: 2bea a6bd 5dc0 bdbd 94ed 443d 4496 2dbe
00000030: cf8c 5cbe 5c73 d3bd 584b d9be 37b1 cd3d
00000040: 0637 d7bd 2b5c b33d 10d6 6fbd 5b38 6fbe
00000050: 62a1 9f3e 281a acbc fe34 623d ee1b af3c
00000060: 1179 e0bd cdb8 c23c a8b8 283e cd33 2ebe
00000070: 65a0 a83d 91b3 a3be 7cb1 acbe 2168 38bd
00000080: 3445 953d 2deb 623b bf54 573e c456 b83d
00000090: ed6f e43d 36f9 5bbe 6d16 8b3d a0f6 153e
000000a0: fa81 143d d6f3 a6be 7de9 b93d 3e1c 7a3e
000000b0: 5aef af3c 1d8d 533e 3ca1 2ebc 3c20 823e
000000c0: 6171 52be cbca b6bd e301 87be ad3b b13c
000000d0: 12c7 b93d 1611 2d3d 836b 6abd 0c52 0dbe
000000e0: 850f bb3e 97e2 6f3d 66ce 603b b67b 6b3d
000000f0: e595 2a3c 18bf 55bd 7d6e b4bd 73d9 263e
00000100: 72cb 95be 9298 0fbe 00ff 763d 034d ad3e
00000110: 0ec8 213e cfda 84be 1dc4 2c3e cc38 73bb
00000120: ce9a b7bc c756 3bbd 80fe 9abd 237a 283c
00000130: 8f67 c9be 92f7 8a3e 5b3d 4e3e c252 dcbc
00000140: 392e 083e 3bec a5be 2be1 4ebe 5e95 ad3d
00000150: 6ec7 61be 13e5 b03d 2eeb 4b3e 72ae 0dbe
00000160: e26f 2fbe 77ab ccbe 719f 9d3c aba8 a73d
00000170: 4d0e e3bd ca54 b4bd 89af 8f3e 5b3a ff3d
00000180: a84e 853d 9ac4 113e 0759 fbbd 5cbb 5ebd
00000190: d7bd 873d 9682 07be af82 163e 9056 363d
000001a0: 5c47 da3c 7ee2 d03d bfcd 6cbc 212b b23c
000001b0: 8bd2 84be 5dc1 183e 79a6 77be 4e71 833d
000001c0: 48c4 3fbe b458 933d 6776 97bd 5940 b6bc
000001d0: 7000 68bd 97fc b83d c08e 79bd 213b c6be
000001e0: cb0a c9bd 0f23 3b3d 30a2 0f3e 5b3c 14be
000001f0: c720 45be c74e 20bd 8006 d3bd aa10 e8bd
00000200: b1a5 85be b38f c33d 45aa e6bc 7f89 c53d
00000210: 7ff7 56bd e42a 413e b583 25be c437 19be
00000220: c7a3 92bd 7cad 3f3c 2d4e f9bd 7644 103e
00000230: 3158 e0bd 758c 453e 18e5 2a3d 780f 363e
00000240: 4e26 9cbe c71b b23c 453e 213e 9992 19bd
00000250: 14eb f93d d5b1 6f3e 6688 dabd 7ee4 913b
00000260: 8f35 99be 276f 803d a1a8 cdbd fd52 09be
00000270: 1c75 c63e 10a8 9f3e 9967 5cbe 6e6d 8a3d
00000280: 6289 33bd e3e1 95bd 2d4c 13bd ef66 9dbe
00000290: e9ce aabe 306a 0cbb 6360 a2bd 2bed 8ebd
000002a0: 9e33 943e c3eb 063d f917 1d3e 6b73 25be
000002b0: 97ba 063e ecb7 36bd e4a3 c6bd b0ea 14bc
000002c0: 2979 04be 16ec 1ebd 33d1 303e cf4b aa3e
000002d0: 1fe8 c73c 0e5c d7bd f9ae f83b 8083 bb3d
000002e0: 9fd8 123e 26e4 9abd 8eed d8bd 2ced 77bd
000002f0: fbac d7bd c884 78bc 76cf 65bd 6ba1 623e
00000300: 7c83 153e 8010 9c3e 7b65 01bd 69ba ecbc
00000310: af9b 83be a15c d2bc 4c76 583e 0a36 bd3d
00000320: d2ba 95be 06af 17be 3ec1 27be 8399 71bd
00000330: cd53 babd 6fc2 503d 5d18 b4bb b683 1f3d
00000340: 3d79 b73d e4ab 043e c0aa 27be 6b04 92be
00000350: e31c 01bd 570f 253d 2916 873d 3275 803d
00000360: e5fc a13e ea28 513d 9103 9d3d 5f5b 82be
00000370: 9f85 73be 82df f03d 7e73 35be 41d6 b43e
00000380: 7a47 da3d 0d6b 76be bc09 0dbe fd05 853d
00000390: b402 893e c093 833d f5d9 c23d fcf0 8f3d
000003a0: f454 45be 13b8 7fbe c18d a43d bbf4 4dbe
000003b0: a6da 333e fdf3 a13d cf05 863e 55b0 5b3e
000003c0: 01ba 78be d00e 72be ee5a 12be e052 34bd
000003d0: d352 853d 18df 2abe f5f1 2bbe 9073 1c3d
000003e0: 5998 c43b 3262 da3c b644 90bd a88a 6fbd
000003f0: 48ad 96be f7ac 2fbe e823 cbbc f721 6b3e

layer1_1vm.0.bias f4 [64]
0.17679897 0.016688677 0.02702037 0.11013365 0.035083186 -0.05890276 0.2266854 -0.07878259
0.067346476 -0.13189127 -0.016063234 -0.048392314 0.06854136 0.04379417 -0.11416841 0.10400354
-0.19439317 -0.08169165 0.011420899 0.006961703 -0.060442638 -0.034089785 0.13581248 -0.10328309
-0.17344832 0.044660706 0.00012919016 -0.060380083 0.00853009 -0.03381998 0.09777381 0.076015264
-0.06951203 -0.23616682 -0.11537483 0.05028627 0.08442685 0.026996616 0.036985736 -0.18932636
0.036449574 0.07952245 -0.032170564 -0.19025947 0.08953532 -0.08470165 0.14339755 -0.14135325
-0.015172218 -0.13969633 -0.07539962 0.3207051 0.15984449 0.009159684 0.26882437 -0.05023413
0.11997904 0.027928393 0.007836979 0.065214224 -0.10734439 -0.05692234 0.042436987 -0.008526621
00000000: ca0a 353e b1b6 883c d359 dd3c c08d e13d
00000010: 63b3 0f3d 0544 71bd 3820 683e c458 a1bd
00000020: f3ec 893d 810e 07be 0b97 83bc 0537 46bd
00000030: 6a5f 8c3d 8461 333d 21d1 e9bd cfff d43d
00000040: 010f 47be f44d a7bd b91e 3b3c ff1e e43b
00000050: b392 77bd bba1 0bbd 6d12 0b3e 1686 d3bd
00000060: 709c 31be 25ee 363d 3877 0739 1b51 77bd
00000070: cac1 0b3c d286 0abd a33d c83d e4ad 9b3d
00000080: 535c 8ebd b7d5 71be a449 ecbd faf8 4d3d
00000090: fce7 ac3d 0228 dd3c 5b7e 173d c5de 41be
000000a0: 264c 153d abdc a23d 48c5 03bd 61d3 42be
000000b0: 4b5e b73d 0f78 adbd cfd6 123e e8be 10be
000000c0: e594 78bc 8e0c 0fbe 1e6b 9abd 7533 a43e
000000d0: 46ae 233e 8012 163c 59a3 893e 4ec2 4dbd
000000e0: 92b7 f53d 16ca e43c ac66 003c 098f 853d
000000f0: 60d7 dbbd 6627 69bd 68d2 2d3d 3eb3 0bbc

layer1_1vm.2.weight f4 [64]
1.187451 1.0676833 0.9886528 0.8866593 0.8405666 1.0360163 1.1619191 1.0940882
0.90049267 1.0096891 1.0106392 0.99422103 0.9684504 1.0453502 1.0054978 1.0844817
0.89349794 1.2249732 1.1967082 1.005202 0.84150463 1.1138664 0.8885977 1.2347263
0.9872651 1.0629597 1.2035501 1.0542319 1.0997949 0.9585161 0.98003364 0.95461625
1.0017314 0.9265248 1.1091108 0.92477924 1.0533626 0.86942136 1.1347104 1.025298
0.9347448 1.0075009 0.95869887 1.1421899 0.91183406 0.9363243 0.9912897 1.2568759
1.0972545 1.1424642 1.0144957 1.0271977 0.79608387 0.9577071 1.1027155 0.94992554
0.9200948 0.9566308 1.0552335 0.918687 0.94467825 1.0138545 1.0325093 0.84425783
00000000: 65fe 973f d9a9 883f 5a18 7d3f 1bfc 623f
00000010: 5f2f 573f 2f9c 843f c4b9 943f 150b 8c3f
00000020: b086 663f 7e3d 813f a05c 813f 4585 7e3f
00000030: 5eec 773f 09ce 853f 27b4 803f 4cd0 8a3f
00000040: 48bc 643f eccb 9c3f bc2d 993f 76aa 803f
00000050: d96c 573f 2d93 8e3f 247b 633f 830b 9e3f
00000060: 68bd 7c3f 100f 883f ee0d 9a3f 12f1 863f
00000070: 14c6 8c3f 5061 753f 7ce3 7a3f bb61 743f
00000080: bc38 803f bb30 6d3f 58f7 8d3f 55be 6c3f
00000090: 96d4 863f 6692 5e3f 313e 913f f73c 833f
000000a0: 6f4b 6f3f caf5 803f 4a6d 753f 4733 923f
000000b0: f56d 693f f3b2 6f3f 29c5 7d3f 4fe1 a03f
000000c0: d672 8c3f 443c 923f ffda 813f 377b 833f
000000d0: 27cc 4b3f 4b2c 753f c825 8d3f 522e 733f
000000e0: 558b 6b3f c2e5 743f e411 873f 122f 6b3f
000000f0: 6fd6 713f fcc5 813f 4429 843f 4821 583f

layer1_1vm.2.bias f4 [64]
-0.15481979 0.036772482 -0.07359229 -0.05075455 0.022728672 0.09597979 -0.07963896 0.15982762
-0.23292598 -0.06812828 0.094826005 0.17903432 -0.02851129 -0.065631844 -0.102980636 0.21419466
-0.13337375 0.0067032063 0.059996683 -0.22902867 0.14387229 -0.008321042 -0.107216336 0.21794885
-0.13111395 -0.20374613 -0.12401345 -0.057430137 -0.060946096 -0.03050981 0.16419281 0.13489491
0.16461678 0.059653904 -0.21034543 0.050225414 -0.0442647 0.21302229 -0.15697123 0.053620957
-0.13281862 -0.064628474 0.025904344 -0.024247793 0.032705985 0.095013 0.12262205 -0.0030067924
0.03942694 0.1290432 -0.05062272 -0.04583145 -0.24243249 0.012728405 -0.01799935 -0.08093796
0.10791712 -0.026641425 0.07638095 -0.111479364 0.13439061 0.0025962945 -0.009435592 0.029223023
00000000: 1489 1ebe be9e 163d 8eb7 96bd 01e4 4fbd
00000010: 7b31 ba3c 0d91 c43d c019 a3bd daa9 233e
00000020: 2684 6ebe d786 8bbd 2334 c23d c654 373e
00000030: 8290 e9bc fd69 86bd 83e7 d2bd d855 5b3e
00000040: 2193 08be 92a6 db3b 15bf 753d 7e86 6abe
00000050: 4253 133e fb54 08bc 3d94 dbbd fc2d 5f3e
00000060: bc42 06be d3a2 50be c4fa fdbd dd3b 6bbd
00000070: 9da2 79bd b6ef f9bc 2922 283e e421 0a3e
00000080: 4d91 283e a757 743d cb64 57be 2ab9 4d3d
00000090: e74e 35bd 8422 5a3e 11bd 20be a6a1 5b3d
000000a0: 9b01 08be ef5b 84bd 5935 d43c 4fa3 c6bc
000000b0: b6f6 053d 2d96 c23d 4521 fb3d 9b0d 45bb
000000c0: 257e 213d e723 043e c559 4fbd c2b9 3bbd
000000d0: 3940 78be cd8a 503c 5f73 93bc cdc2 a5bd
000000e0: a703 dd3d 1e3f dabc 9e6d 9c3d 4b4f e4bd
000000f0: b19d 093e 9826 2a3b be97 1abc 1f65 ef3c

layer1_1vm.2.running_mean f4 [64]
35235.117 -456339.22 -502328.4 136969.72 -51148.17 -196138.39 -387894.3 -23536.531
93644.414 -89508.06 -2654.4517 16357.182 -629134.75 226219.67 -182312.75 -219037.77
166747.84 -147126.1 229368.56 -206469.66 101977.1 43872.96 -292224.94 -409358.66
-131888.19 -388360.47 -312881.22 215428.36 -278177.53 316765.88 -237731.06 42464.613
147705.17 -439366.97 -374431.16 -105476.695 128924.67 -10649.248 144353.89 -65593.555
-310174.94 131042.84 168481.14 -34394.023 375438.2 115923.77 121265.305 168780.47
120778.75 30922.512 -170303.34 -101920.27 217829.36 47294.33 195093.69 424680.5
167670.02 283294.38 233527.19 -397563.75 -59584.414 342172.75 -480177.38 -27448.807
00000000: 1ea3 0947 67d2 dec8 0d47 f5c8 6ec2 0548
00000010: 2ccc 47c7 998a 3fc8 ca66 bdc8 10e1 b7c6
00000020: 35e6 b647 08d2 aec7 3ae7 25c5 ba94 7f46
00000030: ec98 19c9 ebea 5c48 300a 32c8 71e7 55c8
00000040: f6d6 2248 86ad 0fc8 24fe 5f48 6aa1 49c8
00000050: 8d2c c747 f660 2b47 1eb0 8ec8 d5e1 c7c8
00000060: 0ccc 00c8 0fa1 bdc8 27c6 98c8 1761 5248
00000070: 31d4 87c8 bcab 9a48 c428 68c8 9de0 2547
00000080: 4b3e 1048 df88 d6c8 e5d3 b6c8 5902 cec7
00000090: 56ce fb47 fe64 26c6 79f8 0c48 c71c 80c7
000000a0: de73 97c8 6cf1 ff47 4988 2448 065a 06c7
000000b0: c651 b748 e369 e247 a7d8 ec47 1ed3 2448
000000c0: 60e5 eb47 0695 f146 d64f 26c8 2310 c7c7
000000d0: 57b9 5448 54be 3847 6c85 3e48 105d cf48
000000e0: 81bd 2348 cc53 8a48 cc0d 6448 781f c2c8
000000f0: 6ac0 68c7 9813 a748 2c76 eac8 9d71 d6c6

layer1_1vm.2.running_var f4 [64]
4.50589e+08 5.1447538e+10 6.5125052e+10 4.4996756e+09 6.8809216e+08 9.930159e+09 3.7678186e+10 1.8179778e+08
2.2137687e+09 1.8926399e+09 1.0986714e+08 1.1374916e+08 9.769783e+10 1.2842198e+10 8.870316e+09 1.2902386e+10
7.1438976e+09 5.9239496e+09 1.2664749e+10 1.1331483e+10 2.6887212e+09 5.2091072e+08 2.0764037e+10 4.3274736e+10
4.0152837e+09 3.6082622e+10 2.6288691e+10 1.1708945e+10 1.8719451e+10 2.6344843e+10 1.3262325e+10 5.124564e+08
5.145864e+09 4.579705e+10 3.2699318e+10 3.310263e+09 4.487063e+09 9.5981464e+07 5.537519e+09 1.0422872e+09
2.2000417e+10 4.58365e+09 7.150453e+09 3.2066893e+08 3.4570408e+10 3.2059507e+09 3.3957158e+09 7.134435e+09
3.8790262e+09 2.6585715e+08 6.7201265e+09 2.7940902e+09 1.2403354e+10 6.3504256e+08 9.677087e+09 4.514326e+10
7.2260383e+09 2.1266258e+10 1.2871963e+10 4.0021316e+10 8.352394e+08 2.8637002e+10 5.7269592e+10 2.2759062e+08
00000000: 8adb d64d 32a8 3f51 179c 7251 cd19 864f
00000010: d00d 244e 8df8 1350 b85c 0c51 3960 2d4d
00000020: 6ef3 034f c99e e14e 108e d14c 95f5 d84c
00000030: f5f9 b551 195d 3f50 922d 0450 b242 4050
00000040: 9de7 d44f 268c b04f 2fb8 3c50 2dda 2850
00000050: a142 204f bc63 f84d 42b4 9a50 0136 2151
00000060: 5e54 6f4f 126b 0651 b3dd c350 157a 2e50
00000070: 8578 8b50 cd48 c450 c19f 4550 b65b f44d
00000080: d45b 994f 789b 2a51 00a1 f350 9b4e 454f
00000090: 93b9 854f f311 b74c eb07 a54f 2a80 784e
000000a0: 77ea a350 799a 884f a119 d54f 28e8 984d
000000b0: e9c8 0051 ed16 3f4f 8366 4a4f 6b9f d44f
000000c0: 3e35 674f 888a 7d4d 7f46 c84f 6f8a 264f
000000d0: 0ad3 3850 ec67 174e 2833 1050 f82b 2851
000000e0: 4c5a d74f 2b72 9e50 a4ce 3f50 4d17 1551
000000f0: f822 474e bf5c d550 8a58 5551 1e0c 594d

layer1_2vm.0.weight f4 [32, 64]
0.17635545 -0.025261994 0.14905705 -0.109876126 0.07755254 0.04810631 0.2356816 0.10173353
-0.05784851 -0.18007308 0.023369277 -0.05969023 -0.03218205 -0.06168453 -0.07204933 0.043019466
-0.18509714 -0.05271159 0.19966374 0.08505269 -0.096162826 -0.24061562 -0.13408136 0.06790252
-0.17599642 -0.046943672 -0.007946747 -0.13802508 0.07517128 -0.13487594 0.04847633 -0.34495217
-0.24984786 0.050618958 0.07214974 0.0874357 -0.08610719 -0.0030464535 -0.15158688 -0.064749315
0.015066689 -0.06748152 -0.07483286 0.3057987 -0.11284351 -0.16417792 -0.5731036 -0.14407378
-0.25989926 0.2521447 -0.051886663 -0.001021072 -0.10559465 -0.04639234 0.0050862837 -0.3167568
0.10121751 0.22818783 -0.110927135 -0.083301425 -0.055439096 0.13719097 -0.27001187 -0.06692491
0.15454261 0.1420736 0.2398615 -0.23583005 0.06880849 -0.06789421 -0.20607363 -0.11823407
0.2583041 -0.12324025 0.2164442 -0.22550645 -0.19475086 -0.29627416 -0.3463355 -0.03823688
-0.093879074 0.054828197 0.26156545 0.15622506 -0.27456182 0.098210976 -0.1585426 -0.04232634
0.04424064 -0.00028834434 0.18364564 -0.0027213292 0.22349763 -0.030634241 -0.104105495 0.16617031
-0.13437088 -0.42698607 -0.10909223 0.00040523655 0.12715821 -0.2024498 0.08908436 -0.22274984
-0.13692072 -0.010195441 0.08825301 -0.038451545 0.12667009 -0.16534935 -0.068055354 -0.027819214
-0.18058878 0.14464256 -0.034203447 0.096377105 -0.018590985 -0.061689448 0.009062482 0.29827398
-0.27100056 -0.27629462 -0.07015105 0.21146558 -0.077277325 -0.13292582 -0.007240136 -0.1648674
-0.067979515 0.116075344 -0.054891516 0.03446742 0.12244093 0.22810243 -0.017467149 -0.19931772
0.33204818 0.06947038 0.4012534 -0.107438944 -0.40467584 -0.018361581 0.12009758 0.30302307
-0.036811434 0.19435331 -0.15215822 -0.32600385 -0.03079864 0.05025455 -0.18083663 0.17178594
-0.23180184 0.37520108 -0.21437103 0.064609006 0.096135296 -0.14359704 -0.15811057 -0.053396255
-0.14250067 0.056775 -0.115036994 -0.057791766 0.30740327 0.005939178 0.022941967 0.051622882
0.082847744 -0.28082708 0.13089302 0.01834627 -0.0669763 -0.07950346 0.22846709 -0.18058866
0.010148607 -0.10038039 -0.24264453 0.045339912 -0.34437582 -0.043586187 -0.1651578 -0.07805972
0.19966367 0.022155423 0.40981653 0.18835914 0.22768873 0.02384812 -0.17011932 -0.0846238
-0.17763133 -0.23957911 -0.06304764 -0.11416531 0.05988961 0.21068344 0.070154235 -0.12649524
0.068441644 0.058985297 -0.19712965 -0.14770101 0.18380776 -0.024473766 -0.40212628 -0.0107967025
-0.0503971 0.100099966 0.0051946323 0.051325306 0.23379 0.036802035 0.08843522 -0.1463532
-0.17828426 -0.38812256 0.18933181 0.011442378 -0.0025168476 -0.09248215 0.32810447 -0.15668334
-0.0758271 -0.20783535 -0.09067991 0.17593746 -0.16507702 -0.011999282 -0.030862382 -0.12311248
-0.13469134 0.021379692 0.05071498 0.019200636 0.13064286 0.1661316 0.31150696 0.0027240345
0.109167516 -0.44159898 -0.02274331 -0.1748503 -0.21182406 0.24213995 0.059662875 -0.063432135
0.13109638 -0.0575584 0.09363479 -0.14441675 -0.08374022 -0.41293907 -0.33235765 0.025082294
00000000: 8696 343e 3ef2 cebc 69a2 183e bc06 e1bd
00000010: ded3 9e3d 1f0b 453d 8456 713e ab59 d03d
00000020: 8ff2 6cbd 1465 38be ed70 bf3c be7d 74bd
00000030: 53d1 03bd eba8 7cbd 998e 93bd 2e35 303d
00000040: 1b8a 3dbe 1ce8 57bd a774 4c3e 1b30 ae3d
00000050: 04f1 c4bd f163 76be a04c 09be 7a10 8b3d
00000060: 6838 34be 0248 40bd 1333 02bc 7256 0dbe
00000070: 66f3 993d eb1c 0abe 1e8f 463d 929d b0be
00000080: 1ed8 7fbe d355 4f3d 3ec3 933d 7d11 b33d
00000090: f758 b0bd 02a7 47bb 9739 1bbe 4a9b 84bd
000000a0: 46da 763c c033 8abd f841 99bd a691 9c3e
000000b0: 801a e7bd 421e 28be ebb6 12bf 1488 13be
000000c0: 8411 85be 1c19 813e 1c87 54bd 7ed5 85ba
000000d0: 0242 d8bd e505 3ebd d7aa a63b f32d a2be
000000e0: 204b cf3d 12aa 693e c42d e3bd f099 aabd
000000f0: 1b14 63bd ca7b 0c3e ff3e 8abe ed0f 89bd
00000100: 6b40 1e3e be7b 113e 419e 753e 6f7d 71be
00000110: 77eb 8c3d 1f0c 8bbd f704 53be b424 f2bd
00000120: 6f40 843e 6265 fcbd 8ca3 5d3e 2aeb 66be
00000130: c56c 47be 3fb1 97be e352 b1be 469e 1cbd
00000140: ac43 c0bd 8893 603d e8eb 853e 76f9 1f3e
00000150: 5e93 8cbe d622 c93d fe58 22be 625e 2dbd
00000160: ac35 353d ec2c 97b9 9a0d 3c3e 5458 32bb
00000170: 90dc 643e a9f4 fabc 4335 d5bd 8d28 2a3e
00000180: 8598 09be eb9d dabe bf6b dfbd ee75 d439
00000190: c335 023e 004f 4fbe dc71 b63d 8918 64be
000001a0: f234 0cbe c70a 27bc febd b43d 5e7f 1dbd
000001b0: ceb5 013e 5751 29be 9b60 8bbd 1fe5 e3bc
000001c0: 44ec 38be 2e1d 143e ea18 0cbd 5c61 c53d
000001d0: 1f4c 98bc 13ae 7cbd ce7a 143c 5eb7 983e
000001e0: 96c0 8abe 7d76 8dbe 5bab 8fbd 6f8a 583e
000001f0: 9343 9ebd b51d 08be aa3e edbb 00d3 28be
00000200: d838 8bbd e9b8 ed3d edd5 60bd b62d 0d3d
00000210: 4fc2 fa3d af93 693e 4417 8fbc f219 4cbe
00000220: 3802 aa3e 7d46 8e3d 1671 cd3e f308 dcbd
00000230: ac31 cfbe 076b 96bc b8f5 f53d d725 9b3e
00000240: 96c7 16bd 8e04 473e 5dcf 1bbe fae9 a6be
00000250: 6e4d fcbc b7d7 4d3d 3d2d 39be a7e8 2f3e
00000260: 765d 6dbe 5b1a c03e 1484 5bbe ba51 843d
00000270: 95e2 c43d 1a0b 13be bde7 21be 08b6 5abd
00000280: b2eb 11be e78c 683d 8498 ebbd 0fb7 6cbd
00000290: f663 9d3e 709d c23b cbf0 bb3c 8472 533d
000002a0: 14ac a93d 91c8 8fbe d208 063e eb4a 963c
000002b0: df2a 89bd b6d2 a2bd 47f3 693e 3cec 38be
000002c0: 5846 263c 3c94 cdbd cf77 78be 58b6 393d
000002d0: 0752 b0be 6e87 32bd 201f 29be c6dd 9fbd
000002e0: a274 4c3e 4a7f b53c 79d3 d13e 38e1 403e
000002f0: 3c27 693e 225d c33c c233 2ebe 3e4f adbd
00000300: fde4 35be 3a54 75be 1f1f 81bd 81cf e9bd
00000310: cf4e 753d 66bd 573e 06ad 8f3d f887 01be
00000320: 222b 8c3d 919a 713d 5bdc 49be ef3e 17be
00000330: 1a38 3c3e 357d c8bc 7fe3 cdbe a7e4 30bc
00000340: 316d 4ebd 3601 cd3d bc37 aa3b 7c3a 523d
00000350: a566 6f3e bbbd 163d 861d b53d 9ddd 15be
00000360: 2690 36be 00b8 c6be 33e0 413e d078 3b3c
00000370: b2f1 24bb 4867 bdbd 4ffd a73e 9971 20be
00000380: 3d4b 9bbd cad2 54be 63b6 b9bd f328 343e
00000390: f309 29be a398 44bc 1bd3 fcbc 6522 fcbd
000003a0: 87ec 09be 7724 af3c 83ba 4f3d a74a 9d3c
000003b0: 3ec7 053e 671e 2a3e d77d 9f3e b785 323b
000003c0: 3893 df3d 4319 e2be 2e50 babc f50b 33be
000003d0: 68e8 58be 89f3 773e 0f61 743d b5e8 81bd
000003e0: 213e 063e 5bc2 6bbd 99c3 bf3d fce1 13be
000003f0: fe7f abbd c06c d3be c82a aabe 6279 cd3c

layer1_2vm.0.bias f4 [32]
-0.005836469 -0.086424045 0.21581598 0.06541449 0.16925895 0.075698696 0.007279459 0.040719546
-0.027794227 0.054106094 0.057825744 0.03469086 -0.043997668 -0.02143988 0.053982288 -0.06133935
0.05458972 -0.05980714 -0.069940366 -0.26055098 0.31433514 0.037391447 0.18586211 0.03419186
0.015167806 -0.094132714 0.11935713 -0.20862557 -0.21849766 0.13422902 -0.098246425 -0.04276685
00000000: da3f bfbb 17ff b0bd ddfe 5c3e 08f8 853d
00000010: 3852 2d3e eb07 9b3d 8788 ee3b 8ac9 263d
00000020: b8b0 e3bc 5a9e 5d3d b0da 6c3d 0118 0e3d
00000030: e636 34bd b0a2 afbc 881c 5d3d f83e 7bbd
00000040: 7899 5f3d 55f8 74bd e53c 8fbd f066 85be
00000050: 89f0 a03e c627 193d a352 3e3e c40c 0c3d
00000060: 6482 783c a7c8 c0bd 8371 f43d f1a1 55be
00000070: dabd 5fbe 5573 093e 6c35 c9bd 4b2c 2fbd

layer1_2vm.2.weight f4 [32]
1.1625588 0.83009636 1.1630144 0.99830616 0.95839757 0.9348322 1.0100698 0.9497677
0.9607608 0.9416766 1.1207384 1.2188735 0.9245662 1.0490816 0.92934346 1.0420532
0.84990513 0.99876034 0.75731796 1.0232202 0.8849311 1.1192179 0.9822077 0.9513355
0.95478016 0.8215015 1.0854973 0.9248007 1.0244898 1.0308746 1.1625941 1.0207689
00000000: bace 943f 3281 543f a8dd 943f fe90 7f3f
00000010: 8b59 753f 2a51 6f3f f849 813f fa23 733f
00000020: 6bf4 753f b811 713f 5b74 8f3f 0c04 9c3f
00000030: 5fb0 6c3f 4e48 863f 74e9 6d3f 0062 853f
00000040: 6293 593f c2ae 7f3f 97df 413f e1f8 823f
00000050: d88a 623f 8842 8f3f f771 7b3f b98a 733f
00000060: 796c 743f ec4d 523f 93f1 8a3f bdbf 6c3f
00000070: 7b22 833f b3f3 833f e2cf 943f 8ea8 823f

layer1_2vm.2.bias f4 [32]
-0.05323018 -0.1615444 0.017530583 -0.01717577 -0.12431606 0.016149987 0.085836634 0.094218664
-0.05149921 -0.013977045 0.0644279 0.003953427 -0.06429185 0.16571397 -0.07083456 -0.04245269
-0.021155585 -0.10042119 -0.076640055 -0.05609891 0.03214887 0.14482778 0.09137713 0.079101086
-0.028962102 0.0025489982 -0.18115923 0.008738999 -0.14597534 -0.044904985 -0.12019155 -0.10030835
00000000: e407 5abd e56b 25be 4c9c 8f3c 33b4 8cbc
00000010: 6b99 febd fa4c 843c 1ecb af3d b7f5 c03d
00000020: d6f0 52bd faff 64bc c6f2 833d c08b 813b
00000030: 72ab 83bd ecb0 293e b611 91bd dfe2 2dbd
00000040: 7a4e adbc a0a9 cdbd 76f5 9cbd f8c7 65bd
00000050: 89ae 033d bc4d 143e ef23 bb3d c0ff a13d
00000060: ee41 edbc 180d 273b ce81 39be 052e 0f3c
00000070: 8f7a 15be 4aee 37bd fd26 f6bd 776e cdbd

layer1_2vm.2.running_mean f4 [32]
-0.95704824 -0.8671359 0.41145536 -0.7402458 0.13648196 0.42776582 -0.29656553 -0.16263478
0.66145927 -0.79214716 1.005387 1.0222962 -0.51378685 0.69194794 -0.7306531 -0.18414466
-0.67071015 -0.19295502 0.16804609 -0.3522847 -0.47463328 0.94383836 -0.049735572 0.18112808
-0.36722738 -0.09964819 0.2839011 0.7577946 -0.6946346 0.086888 0.100584105 -0.57175696
00000000: 1d01 75bf 9efc 5dbf 47aa d23e c080 3dbf
00000010: edc1 0b3e 1f04 db3e 70d7 97be bb89 26be
00000020: 6555 293f 28ca 4abf 85b0 803f 9ada 823f
00000030: 8987 03bf 8023 313f 150c 3bbf 6b90 3cbe
00000040: a9b3 2bbf 0096 45be 4614 2c3e a95e b4be
00000050: 2203 f3be 649f 713f 87b7 4bbd a479 393e
00000060: 3a05 bcbe 5a14 ccbd 7c5b 913e d4fe 413f
00000070: 93d3 31bf 56f2 b13d 0aff cd3d aa5e 12bf

layer1_2vm.2.running_var f4 [32]
0.757632 0.9516734 1.116892 1.012006 0.4783528 1.3369958 0.7770068 1.1651167
1.7183008 0.8689823 1.1799195 1.2405664 1.0190578 1.0346814 1.1775804 1.2286242
0.9100644 0.8527783 1.3020996 0.9183796 1.1815562 1.5979809 0.68311214 0.8491347
0.9484175 0.965811 0.96651447 1.4304676 1.2642878 0.8658166 1.1156161 0.8028076
00000000: 2cf4 413f dea0 733f 51f6 8e3f 6a89 813f
00000010: a8ea f43e ae22 ab3f ebe9 463f 8b22 953f
00000020: 48f1 db3f a075 5e3f 9a07 973f e1ca 9e3f
00000030: 7c70 823f 7170 843f f4ba 963f 8f43 9d3f
00000040: fbf9 683f ae4f 5a3f 33ab a63f ed1a 6b3f
00000050: 3c3d 973f a38a cc3f 70e0 2e3f e460 593f
00000060: 7dcb 723f 643f 773f 7e6d 773f 9019 b73f
00000070: 2fd4 a13f 28a6 5d3f 82cc 8e3f cd84 4d3f

layer2.0.weight f4 [32, 64]
-0.0045316503 -0.25488386 -0.056634285 0.21689913 0.023928246 -0.031894766 0.20374288 0.27901983
0.19329534 -0.1052775 0.25686407 0.022669151 -0.027081965 0.07286501 0.083574824 0.16727176
0.0944979 -0.16601008 -0.10050253 -0.14167252 0.15969823 0.09003052 -0.20028758 0.18720058
0.07570209 -0.028574705 -0.029255617 0.28502333 -0.1728256 -0.05332815 0.100005865 0.15762289
-0.17033558 0.16817978 0.106236055 0.051481366 0.48744422 0.14542578 0.007575524 0.076018766
0.011094992 -0.054254822 -0.090415426 0.1790511 -0.17634726 -0.009522976 0.46553883 -0.070452675
-0.11137923 -0.25898036 -0.04072256 -0.17357275 0.033420287 0.13561974 0.31783444 -0.16584004
0.045165643 0.049281437 -0.3925746 -0.030589437 -0.19887628 -0.07428782 0.24181415 -0.35697076
0.1378596 0.025188891 0.0072179404 0.12964857 0.08261991 -0.15400064 0.010049782 0.042570293
-0.23799415 0.14437912 -0.022667484 0.22413442 0.18834877 0.0005761235 0.3697489 0.026388131
0.08786552 0.041110776 -0.17024466 0.15673599 -0.512668 0.22717394 -0.08976601 0.12949435
0.16491944 0.07119783 0.120128565 -0.22423908 0.35777733 -0.386288 0.44118923 -0.2665603
-0.06412954 0.0025880921 -0.056172345 -0.30026588 -0.0021506855 0.20122918 -0.029262416 -0.015105007
-0.01288709 0.55918396 0.08084612 -0.28380653 -0.15783995 0.04125824 0.0033763386 -0.28449118
-0.0074669113 0.10201405 0.040712375 0.16820692 0.039262436 -0.1582816 -0.10380502 -0.045436427
0.20957474 -0.05046427 -0.11524252 -0.04063343 0.009402029 0.20025016 -0.0077360817 0.1259071
-0.35638177 -0.009374833 -0.31340882 0.13357548 0.25303283 0.07175899 -0.29103142 0.15277578
0.14667022 -0.06899993 0.24948248 -0.08863605 0.08459995 0.049056757 0.02745682 0.07703936
-0.0075894273 0.09500909 -0.21151641 0.1238516 0.2431613 0.043444656 -0.039315756 0.038136665
0.33532888 -0.43734944 -0.115608096 0.018644854 0.1378581 0.13055256 0.16143152 -0.074991114
0.3455833 0.009895498 0.3553941 -0.019087259 0.07601246 -0.07758966 0.017955914 -0.04006683
-0.064390905 -0.04280233 -0.30907223 -0.28829056 0.3173346 0.19750436 -0.062102377 -0.021082614
-0.19128153 0.05341103 -0.16352 -0.09798375 -0.07225588 0.062780425 -0.13026321 0.10822727
-0.14671654 -0.29083407 0.21560511 -0.05192633 -0.11324757 0.08525773 0.052571114 0.11972153
-0.043082945 0.16421238 0.017819105 -0.22604017 0.24856621 0.31386864 -0.010643055 -0.4338673
-0.12296405 0.08872281 -0.012312258 -0.01603107 -0.24188969 -0.021539694 0.13695185 -0.15089867
0.09768898 0.18457413 0.33211267 0.23232438 -0.16125612 0.23069635 -0.22928537 0.12678254
-0.21370447 -0.102926195 0.00024032223 -0.35325953 -0.44432235 0.02952068 0.12062447 0.11472979
0.08603094 0.13701153 -0.3758959 0.076198936 -0.27934378 0.015342846 -0.27310804 0.1391288
0.019375563 0.04600985 -0.048293274 0.265244 0.031178216 0.36414042 0.13921084 0.030416582
0.0025050251 -0.01945276 0.4031797 -0.011854257 -0.035092894 -0.2190208 0.033119105 -0.19810319
0.23333448 -0.22814749 -0.077793136 0.00452168 0.37873524 0.27650744 0.2705856 -0.06869313
00000000: 3d7e 94bb 2380 82be 5af9 67bd ce1a 5e3e
00000010: 2b05 c43c 16a4 02bd f9a1 503e b0db 8e3e
00000020: 37ef 453e bb9b d7bd b083 833e a8b4 b93c
00000030: ffda ddbc 403a 953d 4729 ab3d 4a49 2b3e
00000040: 1d88 c13d 8cfe 29be 45d4 cdbd 9a12 11be
00000050: ef87 233e ec61 b83d 3018 4dbe 82b1 3f3e
00000060: b309 9b3d 8015 eabc 7aa9 efbc 94ee 913e
00000070: 32f9 30be 9e6e 5abd e0cf cc3d e567 213e
00000080: 736c 2ebe 5237 2c3e 4a92 d93d 20de 523d
00000090: 4a92 f93e 7fea 143e 1a3c f83b baaf 9b3d
000000a0: c5c7 353c 4e3a 5ebd b92b b9bd 2c59 373e
000000b0: 6094 34be 4206 1cbc 1b5b ee3e 7e49 90bd
000000c0: cb1a e4bd 1399 84be b3cc 26bd 0ebd 31be
000000d0: b6e3 083d e7df 0a3e 32bb a23e f9d1 29be
000000e0: 9cff 383d 55db 493d 8aff c8be b396 fabc
000000f0: 39a6 4bbe 3624 98bd 219e 773e dfc4 b6be
00000100: 112b 0d3e ef58 ce3c 7984 ec3b 98c2 043e
00000110: a134 a93d 58b2 1dbe d7a7 243c 305e 2e3d
00000120: bdb4 73be 1fd8 133e 29b1 b9bc 7e83 653e
00000130: 80de 403e fe06 173a ba4f bd3e ec2b d83c
00000140: d6f2 b33d c663 283d 9e54 2ebe 667f 203e
00000150: 363e 03bf 49a0 683e 3ed7 b7bd 2b9a 043e
00000160: a4e0 283e 2bd0 913d f705 f63d ee9e 65be
00000170: 972e b73e 8ac7 c5be 8ee3 e13e 977a 88be
00000180: 5956 83bd fb9c 293b f914 66bd 73bc 99be
00000190: 84f2 0cbb 060f 4e3e bcb7 efbc fe7a 77bc
000001a0: 6024 53bc ae26 0f3f a792 a53d 174f 91be
000001b0: cca0 21be 66fe 283d 9045 5d3b d4a8 91be
000001c0: feac f4bb beec d03d 05c2 263d 6f3e 2c3e
000001d0: a6d1 203d 9214 22be ba97 d4bd 8c1b 3abd
000001e0: c39a 563e 9fb3 4ebd 4504 ecbd 3d6f 26bd
000001f0: f80a 1a3c 610e 4d3e f57e fdbb caed 003e
00000200: ac77 b6be e698 19bc 1f77 a0be 03c8 083e
00000210: 858d 813e 61f6 923d 1202 95be 4171 1c3e
00000220: b830 163e d64f 8dbd 5678 7f3e d186 b5bd
00000230: bd42 ad3d bdef 483d 20ed e03c d0c6 9d3d
00000240: bbb0 f8bb 2094 c23d c297 58be e8a5 fd3d
00000250: 47ff 783e 06f3 313d 8f09 21bd 3135 1c3d
00000260: 3ab0 ab3e 44ec dfbe f0c3 ecbd 18bd 983c
00000270: ac2a 0d3e 92af 053e 4e4e 253e f194 99bd
00000280: 4bf0 b03e ba20 223c 37f6 b53e e25c 9cbc
00000290: 6cac 9b3d 54e7 9ebd 4818 933c 1e1d 24bd
000002a0: 61df 83bd 7f51 2fbd b73e 9ebe d29a 93be
000002b0: ae79 a23e 953e 4a3e 105f 7ebd 72b5 acbc
000002c0: 4edf 43be 86c5 5a3d c971 27be b4ab c8bd
000002d0: e4fa 93bd 0693 803d b863 05be 42a6 dd3d
000002e0: dc3c 16be 34e8 94be 96c7 5c3e b4b0 54bd
000002f0: 58ee e7bd 9b9b ae3d cf54 573d 9030 f53d
00000300: be77 30bd 4a27 283e 5ff9 913c 1377 67be
00000310: 2488 7e3e 64b3 a03e 3560 2ebc db23 debe
00000320: 93d4 fbbd 4eb4 b53d 5ab9 49bc 9753 83bc
00000330: eeb1 77be 0374 b0bc 1b3d 0c3e 2e85 1abe
00000340: 2911 c83d 0001 3d3e ac0a aa3e 71e6 6d3e
00000350: 5320 25be aa3b 6c3e c9c9 6abe 48d3 013e
00000360: 58d5 5abe f8ca d2bd 02ff 7b39 6fde b4be
00000370: 387e e3be 5ad5 f13c f609 f73d 74f7 ea3d
00000380: fd30 b03d c04c 0c3e 6d75 c0be 300e 9c3d
00000390: 2606 8fbe 8f60 7b3c d1d4 8bbe c877 0e3e
000003a0: 80b9 9e3c d374 3c3d 2bcf 45bd 10ce 873e
000003b0: 7569 ff3c 9d70 ba3e 498d 0e3e 322c f93c
000003c0: 592b 243b 655b 9fbc 926d ce3e 5c38 42bc
000003d0: 91bd 0fbd fd46 60be e6a7 073d 90db 4abe
000003e0: 3cef 6e3e 7f9f 69be 0252 9fbd 9a2a 943b
000003f0: 96e9 c13e 6292 8d3e 328a 8a3e fcae 8cbd

layer2.0.bias f4 [32]
-0.028455887 0.03511859 -0.007553211 0.21014287 -0.1546534 -0.07938962 0.15643556 0.056607652
-0.023822304 0.07757492 0.067415886 0.08361919 0.24776429 0.11183348 -0.038518824 -0.023697106
0.083915375 -0.014734427 0.14953259 -0.10556148 0.09652785 0.040633973 -0.1204193 -0.26976052
-0.007702823 0.14870714 -0.23465161 -0.0447452 0.018992314 -0.10571923 0.021570927 -0.13893521
00000000: 521c e9bc 83d8 0f3d ed80 f7bb b12f 573e
00000010: 765d 1ebe 0697 a2bd a530 203e 6ddd 673d
00000020: fe26 c3bc 9adf 9e3d 5711 8a3d 8a40 ab3d
00000030: ecb5 7d3e f408 e53d eac5 1dbd 6f20 c2bc
00000040: d3db ab3d ab68 71bc 121f 193e 9e30 d8bd
00000050: 65b0 c53d cf6f 263d 659e f6bd 0d1e 8abe
00000060: f667 fcbb af46 183e 8348 70be be46 37bd
00000070: c595 9b3c 5383 d8bd 83b5 b03c 0845 0ebe

layer2.2.weight f4 [32]
0.93938714 0.9380976 1.0709853 0.9116573 0.775868 0.865323 1.0127602 1.1706277
1.2957988 1.05668 1.0450894 1.0646381 0.8511022 1.0832499 0.7565262 1.0710516
0.8289154 0.815416 1.0362285 1.2171831 1.1959953 1.101475 1.0550283 1.110439
1.0550381 1.043802 0.9303278 1.0626746 1.0480907 0.8447003 1.0269177 0.976501
00000000: ad7b 703f 2a27 703f 0c16 893f 5f62 693f
00000010: 499f 463f cf85 5d3f 20a2 813f 21d7 953f
00000020: bcdc a53f 4a41 873f 7dc5 853f 1046 883f
00000030: d5e1 593f efa7 8a3f b3ab 413f 3818 893f
00000040: cd33 543f 1abf 503f 23a3 843f a8cc 9b3f
00000050: 6016 993f 22fd 8c3f 2b0b 873f dd22 8e3f
00000060: 7d0b 873f 4e9b 853f f629 6e3f b905 883f
00000070: d627 863f 473e 583f 0a72 833f f8fb 793f

layer2.2.bias f4 [32]
0.21747385 -0.01869305 0.02260509 0.024152473 0.24009235 -0.01318535 -0.1478366 -0.0038004909
0.13850787 0.09372408 0.14928162 -0.11958017 -0.11031087 0.123904034 -0.074279614 0.07764331
-0.17447758 0.045733254 0.06953311 0.11747829 -0.19465332 -0.06564815 -0.05783596 -0.01416574
-0.1033857 -0.16783233 -0.1098842 0.007302978 -0.09172198 -0.056303237 0.31381774 -0.05756357
00000000: 77b1 5e3e 2b22 99bc 4f2e b93c 68db c53c
00000010: c5da 753e 5e07 58bc 7a62 17be a811 79bb
00000020: 02d5 0d3e 69f2 bf3d 48dd 183e 73e6 f4bd
00000030: aaea e1bd 66c1 fd3d e91f 98bd 7503 9f3d
00000040: 40aa 32be cb52 3b3d 6067 8e3d 7598 f03d
00000050: 3353 47be 8a72 86bd 66e5 6cbd 6c17 68bc
00000060: e2bb d3bd 3ddc 2bbe f80a e1bd d24d ef3b
00000070: bcd8 bbbd 399e 66bd b8ac a03e c7c7 6bbd

layer2.2.running_mean f4 [32]
0.78497565 0.29017925 0.24752565 0.51745945 -0.46808118 0.7248006 0.120126754 0.57942903
0.4421897 0.077387996 0.72900426 -0.13218956 0.1797486 -0.2598739 -0.07516982 -0.12654221
0.7862273 0.69858027 0.3792586 0.7053876 -0.21204522 -0.7118591 -0.104190156 -0.68866014
-0.1273736 0.669934 -1.1299832 -0.023656895 -0.30766585 -0.2126886 -0.7652407 -0.23233807
00000000: 2af4 483f 6092 943e 5d77 7d3e 3978 043f
00000010: 56a8 efbe 888c 393f 0405 f63d 7655 143f
00000020: b066 e23e 997d 9e3d 06a0 3a3f b35c 07be
00000030: 0410 383e 310e 85be a2f2 99bd 4894 01be
00000040: 3146 493f 28d6 323f 2f2e c23e 4894 343f
00000050: 6222 59be 663c 36bf a661 d5bd 084c 30bf
00000060: 3a6e 02be cb80 2b3f 4aa3 90bf 1bcc c1bc
00000070: 6186 9dbe 0acb 59be d1e6 43bf 08ea 6dbe

layer2.2.running_var f4 [32]
1.0384396 0.65265393 0.99215233 1.0020161 0.7998506 0.8379107 1.0259428 0.7930223
0.9297322 0.61758447 1.0727922 0.69674885 0.9822981 0.7497531 0.50270134 0.7266712
1.3097057 0.79528075 0.91506994 0.8193892 0.72533685 0.6479063 0.36987317 0.9814259
0.70624286 0.77906907 1.0940709 1.1361481 1.0932958 0.45816603 0.7123504 1.8518785
00000000: 97eb 843f 5414 273f b2fd 7d3f 1042 803f
00000010: 02c3 4c3f 5181 563f 1852 833f 8203 4b3f
00000020: ee02 6e3f 041a 1e3f 4151 893f 225e 323f
00000030: e377 7b3f d2ef 3f3f 09b1 003f 2007 3a3f
00000040: 70a4 a73f 8597 4b3f 0642 6a3f 7ec3 513f
00000050: adaf 393f 30dd 253f 0460 bd3e ba3e 7b3f
00000060: 55cc 343f 1271 473f 840a 8c3f 4d6d 913f
00000070: 1ef1 8b3f bd94 ea3e 995c 363f 5b0a ed3f

fc_advantage.0.weight f4 [20, 32]
-0.35648984 -0.101557 0.41508758 0.19921052 -0.15134297 -0.053150482 -0.17766353 -0.18948784
-0.0027394195 -0.19914046 0.1576009 -0.1783316 -0.23604657 -0.17084636 0.13432796 -0.098143294
-0.25180188 0.07972657 -0.220759 -0.09504539 0.07560637 0.085209996 -0.12849762 -0.21275054
0.119962506 -0.110957034 0.14397556 0.24682058 0.044515185 0.113128014 -0.21852422 0.028067058
0.036295187 -0.15537237 -0.42823437 -0.25993338 0.09053339 -0.24605401 -0.23975809 -0.31199014
-0.081752285 0.15398735 0.3016372 -0.063874684 0.27854788 -0.25917566 0.1348235 -0.14503841
-0.1798037 -0.16257039 -0.061076906 -0.17691423 0.22484615 -0.6019885 0.29989994 -0.00079015805
-0.18785785 -0.15435351 0.060013987 0.18033044 0.10207745 0.1699873 -0.24564666 -0.16270462
0.20350473 0.16348909 -0.36424807 0.04929442 0.308396 0.032663167 -0.08193277 0.02863644
-0.3053163 -0.29823467 -0.15317608 -0.24480082 0.12745094 -0.12231051 0.15432103 0.19771372
0.029846359 -0.0034408234 0.2266548 -0.2539422 0.025319384 -0.25031638 -0.17297965 -0.2874533
-0.31168705 -0.33563626 -0.10865412 0.051864844 0.37527138 -0.20788279 0.20139058 0.09029607
-0.06695163 -0.10423832 -0.21576822 -0.15384407 0.1302964 0.09638673 -0.12160561 -0.18787143
0.089989215 0.20036168 0.40576947 0.1393969 -0.35701036 -0.0022796916 -0.18932793 0.20196588
0.26820585 -0.52637917 0.01847091 -0.04193688 0.19165152 0.12597798 -0.3037323 0.032586545
-0.52413666 0.12318101 -0.21937136 0.33976164 0.12670074 -0.20011106 0.26423463 -0.2436491
-0.32002515 -0.120743915 0.27623215 0.69146657 0.0620503 -0.33528635 -0.438384 0.1863828
-0.17153275 0.38367814 0.009166195 0.20707224 0.35929686 0.005684734 -0.1572838 -0.34108517
0.19717066 -0.06512107 -0.19896327 0.30566242 -0.40571868 -0.0027413387 -0.14742501 -0.2402052
0.14213738 0.053719424 0.3349706 -0.2760534 -0.07460647 -0.005590356 -0.31929466 0.24938087
-0.05003609 -0.021331927 -0.39438736 -0.17931402 0.39367825 -0.12575886 0.12774025 0.44202453
0.15817097 0.24690948 -0.036614276 0.47290415 0.15039375 0.06682112 -0.3749453 -0.039126176
0.10080783 0.1431099 -0.18099527 0.36211917 -0.22095776 -0.52462053 -0.017656773 0.0041445475
0.26721898 0.12706606 0.080858074 -0.21659137 -0.0039021017 0.009898045 0.030837243 -0.093360454
0.2004322 0.08604704 -0.22120942 0.015644368 -0.10817133 0.44119367 0.14648946 0.08166993
-0.29309437 0.1674438 -0.21166003 -0.20744717 0.047229417 -0.55199605 -0.1232393 -0.16947018
-0.11940879 -0.25048548 -0.07389238 0.15263973 -0.28558886 -0.041878723 0.17397727 0.004991055
0.027265254 0.30982578 -0.14032505 0.3255301 -0.22512731 -0.6278256 -0.38913924 0.11779773
-0.16843663 -0.024839548 -0.12791662 -0.09780853 0.15222004 -0.06589266 -0.011960262 0.09812517
0.16198038 -0.0017978101 -0.1725637 -0.1324968 -0.49516952 0.11020964 0.28580052 0.29804564
0.05523807 -0.23423949 0.057632778 0.28214276 0.24930054 -0.04988204 -0.06927894 0.059376374
-0.4294489 0.27683043 -0.18440802 0.20987643 0.22707589 -0.04276735 0.10812746 0.08142211
00000000: d685 b6be 1efd cfbd 5c86 d43e d8fd 4b3e
00000010: a7f9 1abe 52b4 59bd 6eed 35be 1a09 42be
00000020: d587 33bb 7aeb 4bbe 2162 213e 8f9c 36be
00000030: 31b6 71be 59f2 2ebe 458d 093e 5aff c8bd
00000040: 2dec 80be af47 a33d a60e 62be 28a7 c2bd
00000050: 83d7 9a3d 9482 ae3d e194 03be 47db 59be
00000060: e7ae f53d 713d e3bd 546e 133e 89be 7c3e
00000070: 8e55 363d a9af e73d d0c4 5fbe e3ec e53c
00000080: 43aa 143d ef19 1fbe 8941 dbbe fd15 85be
00000090: 9269 b93d 95f5 7bbe 2583 75be 2cbd 9fbe
000000a0: be6d a7bd dcae 1d3e 3170 9a3e bbd0 82bd
000000b0: d49d 8e3e acb2 84be 2c0f 0a3e f384 14be
000000c0: 761e 38be da78 26be c72b 7abd 0129 35be
000000d0: 123e 663e eb1b 1abf 7c8c 993e 9c22 4fba
000000e0: cf5d 40be d90e 1ebe 3ad1 753d 8ba8 383e
000000f0: fb0d d13d 2711 2e3e cc8a 7bbe 0a9c 26be
00000100: 8b63 503e af69 273e b97e babe f2e8 493d
00000110: 15e6 9d3e d0c9 053d 5ecc a7bd f896 ea3c
00000120: 6b52 9cbe 37b2 98be 31da 1cbe 11ad 7abe
00000130: 8082 023e ef7d fabd 5506 1e3e 7775 4a3e
00000140: 5a80 f43c 707f 61bb 3218 683e b604 82be
00000150: 996a cf3c 7829 80be 9421 31be 142d 93be
00000160: 7295 9fbe 84d8 abbe 0d86 debd 3b70 543d
00000170: 9223 c03e 3adf 54be 5539 4e3e 25ed b83d
00000180: f01d 89bd e67a d5bd 58f2 5cbe 4d89 1dbe
00000190: 6b6c 053e 6866 c53d 5d0c f9bd 5e61 40be
000001a0: 444c b83d 9d2b 4d3e 04c1 cf3e 10be 0e3e
000001b0: 10ca b6be e166 15bb 2edf 41be 25d0 4e3e
000001c0: 4752 893e c9c0 06bf 4e50 973c 02c6 2bbd
000001d0: 4c40 443e 5f00 013e cd82 9bbe 7879 053d
000001e0: d22d 06bf 5346 fc3d e3a2 60be 3df5 ad3e
000001f0: d7bd 013e eae9 4cbe c349 873e 267f 79be
00000200: 56da a3be 9648 f7bd 4d6e 8d3e f403 313f
00000210: 7528 7e3d a7aa abbe de73 e0be 22db 3e3e
00000220: 48a6 2fbe 7671 c43e cf2d 163c bf0a 543e
00000230: c2f5 b73e 0147 ba3b 010f 21be b7a2 aebe
00000240: 1be7 493e 325e 85bd 07bd 4bbe c97f 9c3e
00000250: 5cba cfbe 08a8 33bb 95f6 16be 5af8 75be
00000260: 768c 113e e608 5c3d 4481 ab3e df56 8dbe
00000270: 47cb 98bd 4e2f b7bb 977a a3be b35d 7f3e
00000280: a5f2 4cbd 4bc0 aebc 24ed c9be 189e 37be
00000290: 3290 c93e eec6 00be 57ce 023e 0a51 e23e
000002a0: 92f7 213e d7d5 7c3e daf8 15bd 7e20 f23e
000002b0: d200 1a3e 83d9 883d d5f8 bfbe c542 20bd
000002c0: 5674 ce3d 678b 123e d356 39be af67 b93e
000002d0: c042 62be 884d 06bf f0a4 90bc fcce 873b
000002e0: edd0 883e 9b1d 023e eb98 a53d 21ca 5dbe
000002f0: 67ba 7fbb 692b 223c 639e fc3c c433 bfbd
00000300: 193e 4d3e 6e39 b03d b984 62be 9e28 803c
00000310: ee88 ddbd 23e4 e13e 5501 163e 9042 a73d
00000320: 7710 96be 6376 2b3e 68bd 58be 086d 54be
00000330: a273 413d 9d4f 0dbf e364 fcbd 9789 2dbe
00000340: 988c f4bd a23f 80be e354 97bd 974d 1c3e
00000350: b438 92be 0689 2bbd 1927 323e 018c a33b
00000360: 625b df3c 7ca1 9e3e 5fb1 0fbe e2ab a63e
00000370: c687 66be 2eb9 20bf 423d c7be f03f f13d
00000380: a77a 2cbe 4f7c cbbc 93fc 02be d74f c8bd
00000390: 92df 1b3e bbf2 86bd faf4 43bc d9f5 c83d
000003a0: 2fde 253e 7fa4 ebba 8ab4 30be 3ead 07be
000003b0: dc86 fdbe 97b5 e13d 7254 923e 7099 983e
000003c0: 5141 623d 7adc 6fbe 5910 6c3d 0475 903e
000003d0: a448 7f3e 1c51 4cbd 1ee2 8dbd a434 733d
000003e0: bae0 dbbe b8bc 8d3e 75d5 3cbe d9e9 563e
000003f0: 9586 683e d12c 2fbd ee71 dd3d a3c0 a63d

fc_advantage.0.bias f4 [20]
-0.0049281986 -0.15973376 0.04026927 -0.041067384 -0.0068455357 0.0040903855 -0.040226426 -0.2349986
-0.04219179 -0.02659227 -0.18612142 -0.10986605 -0.07914638 0.009848184 0.05035718 0.15880354
-0.12170381 -0.17456992 -0.12043181 -0.16476515
00000000: ba7c a1bb 3f91 23be 64f1 243d 4636 28bd
00000010: 8450 e0bb a408 863b 77c4 24bd 79a3 70be
00000020: 4cd1 2cbd 08d8 d9bc 9d96 3ebe 7401 e1bd
00000030: 7f17 a2bd 475a 213c 5543 4e3d 659d 223e
00000040: d93f f9bd 75c2 32be f4a4 f6bd 32b8 28be

fc_value.0.weight f4 [1, 32]
0.47060814 -0.11083013 0.23639755 0.31951454 0.4097546 0.025166895 -0.1417958 0.1929947
0.33941773 -0.015975863 0.29972833 -0.15899491 -0.3125985 0.23957023 0.026549598 0.19794792
-0.17684522 0.016002862 -0.13556072 0.45653433 0.041928764 0.13655968 0.3437993 -0.027181577
0.19978237 -0.15946366 0.0061242683 0.17589134 0.07436454 0.29273406 0.17102012 0.13844171
00000000: 8df3 f03e e8fa e2bd 3312 723e 6997 a33e
00000010: 5bcb d13e ce2a ce3c eb32 11be 67a0 453e
00000020: 29c8 ad3e d0df 82bc fe75 993e 90cf 22be
00000030: e90c a0be e651 753e 8b7e d93c dcb2 4a3e
00000040: ea16 35be 6f18 833c 6ed0 0abe debe e93e
00000050: 7fbd 2b3d 4dd6 0b3e 7606 b03e e6ab debc
00000060: c093 4c3e 714a 23be 16ae c83b dc1c 343e
00000070: 704c 983d 3de1 953e e61f 2f3e aac3 0d3e
