models/clients/client-5/sub_model.pkl (torch, 42501 bytes, 27 tensors)

layer1_task.0.weight f4 [32, 3]
000000 9b d7 2e bd 45 e3 17 3d fd 1a 8d be 50 23 e1 bd
       -0.042686086 0.037081975 -0.27559653 -0.109930634
000010 36 05 0e 3e e5 e0 00 bd f9 b7 a6 be 58 dd 0b 3e
       0.13869175 -0.031464476 -0.32562235 0.13658655
000020 18 12 42 3e bd e3 5c be 42 b7 21 bd 8d 2a 98 3e
       0.18952215 -0.2157125 -0.03948141 0.29719964
000030 7a 0c 92 3d fb d8 ed be e8 bf 8f bd 96 7b 5b 3d
       0.07131286 -0.46454605 -0.07019025 0.053584658
000040 7d 12 3d 3e 51 1b 0f bd b8 2a 58 be f7 64 4e be
       0.18464084 -0.03493816 -0.21110046 -0.20155703
000050 fb ad 2b bd c8 73 31 be f6 0d 39 3e d2 7e 38 3e
       -0.041913968 -0.17329323 0.18071732 0.18017128
000060 75 25 20 be 52 3d e6 3e fa 2b 53 be 85 e1 31 3e
       -0.15639289 0.4496866 -0.20622244 0.17371185
000070 fc c8 7d be d4 1e 31 be 2c 3e b0 3d 58 23 03 bc
       -0.247837 -0.17296916 0.08605608 -0.008004032
000080 42 a1 3c 3d d5 1e 0c be 2a 08 fa 3e f8 29 36 3c
       0.046052225 -0.13683636 0.48834354 0.011118405
000090 b4 e9 d5 be 1b 08 b6 be c5 47 7a 3e fc d6 7b bd
       -0.41779864 -0.3555306 0.2444144 -0.061484322
0000a0 59 05 ee 3e 47 0a b9 be 1a 56 d2 bd dd b0 86 be
       0.46488455 -0.36140653 -0.10270329 -0.2630681
0000b0 c9 c4 81 be 74 d8 33 3e f7 fc 16 3e fd cb e1 3e
       -0.25345448 0.17563039 0.14744936 0.44100943
0000c0 c5 11 a2 3e bb c2 ab 3e 2a d2 de 3e ae 75 63 bb
       0.31654182 0.33547005 0.43519717 -0.0034707594
0000d0 57 b4 36 be 27 72 80 be 69 d8 cf 3d e0 9a d2 bd
       -0.17842232 -0.2508709 0.10148699 -0.10283446
0000e0 6a a8 37 3e 1a ef 4e 3d 83 dd 43 be 46 c9 e1 bc
       0.17935339 0.050520994 -0.19127469 -0.027561795
0000f0 cd 5b 09 bf 12 bf 99 bd fe da 8e bd 86 0c ea 3d
       -0.536557 -0.07507147 -0.06975363 0.1142817
000100 ed 47 b5 be f0 92 68 3e 53 05 e0 3d da 14 d0 3e
       -0.35406438 0.22712302 0.109385155 0.40640908
000110 2f 43 83 3c 89 a6 0e be 97 c5 ac 3d 6a 8f 5b bd
       0.016023247 -0.13930716 0.08436125 -0.053603567
000120 5f 72 8f bd 6c 3b 3a bb b3 b5 20 be 15 0a 28 3e
       -0.070042364 -0.0028416766 -0.15694313 0.16410096
000130 3d 5a 4a bc cc 68 f0 bc 46 a2 d3 3e b8 46 e2 3d
       -0.012350616 -0.029346846 0.41334742 0.11048645
000140 58 41 00 3e 1d 8c 0e 3d 1b f2 32 be cb cb 02 3e
       0.12524927 0.03480159 -0.17475168 0.12773053
000150 15 9f 95 be 12 9b 4c 3e ba 08 28 bd a6 5b 79 3e
       -0.29222932 0.1998103 -0.041023947 0.24351367
000160 3b e6 e8 be 5f b2 ae 3e b8 f7 1f 3c bc 74 b3 3d
       -0.45488152 0.3412046 0.009763651 0.087625
000170 5f 0a 5d be 69 82 3c 3e 97 5e 2d bf 8a d0 68 3e
       -0.21585988 0.18409123 -0.6772246 0.22735801

layer1_task.0.bias f4 [32]
000000 db f7 b4 3d 04 e3 b6 3d d0 37 68 bc 85 76 03 bd
       0.08836337 0.089300185 -0.014173463 -0.03209545
000010 f0 c4 91 bd 92 13 ec ba bb eb 84 3d 64 0e 69 be
       -0.07117641 -0.0018011204 0.064902745 -0.22759396
000020 94 61 9d 3d 24 cb 5f bd 5a e1 a8 3d 71 52 32 3d
       0.07684627 -0.05463709 0.082461074 0.043535654
000030 79 3e 37 3e 4b e9 2a 3d e7 e0 23 bd 36 f2 84 bd
       0.17894925 0.04172639 -0.040009405 -0.064915106
000040 0b 35 23 3e fb 74 5c be 58 59 a6 3d 67 f2 2c 3e
       0.15938203 -0.21529 0.0812251 0.16889344
000050 35 48 fc 3d 41 a4 54 3d 72 42 8c 3d ac 9a 7b bd
       0.1231846 0.051914457 0.06848611 -0.061426803
000060 fe 74 33 3d 39 81 ba 3d d0 35 d1 bc 05 30 79 bd
       0.043812744 0.091066785 -0.025538355 -0.06083681
000070 6a 8a 33 3d ec b0 4c 3a f9 a5 c0 bd c7 c5 c2 bd
       0.043833174 0.0007808346 -0.09406657 -0.09510379

layer1_task.2.weight f4 [32]
000000 42 02 ad 3f 2c 1b 6c 3f 91 a7 84 3f 1c b6 8e 3f
       1.3516314 0.9222896 1.0363637 1.1149325
000010 e3 e2 5c 3f fa cf 8a 3f 31 0e a7 3f 78 88 74 3f
       0.862837 1.084472 1.3051206 0.95520735
000020 98 0f 86 3f 7a fa 89 3f 4d b7 9e 3f 36 a0 88 3f
       1.0473509 1.0779564 1.2399689 1.0673892
000030 23 86 83 3f f3 0e 97 3f 09 3f 83 3f 06 f8 82 3f
       1.027531 1.1801437 1.0253612 1.0231941
000040 32 89 81 3f 26 d0 70 3f 6c d4 8f 3f 0f c4 47 3f
       1.0119994 0.9406761 1.1236701 0.78033537
000050 8d b2 72 3f c2 c1 90 3f 6c d4 67 3f 6e a9 95 3f
       0.94803697 1.130913 0.90558505 1.1692331
000060 9a 7e 60 3f 09 61 7e 3f 25 5a 89 3f ab 5e 7f 3f
       0.8769318 0.99366814 1.0730635 0.99753827
000070 cf 58 67 3f 4f f3 7f 3f 6a 37 4e 3f 34 bb 8d 3f
       0.90369886 0.99980634 0.80553305 1.1072755

layer1_task.2.bias f4 [32]
000000 92 45 79 bb 3d 3e 1e 3e ad ec a3 bb 46 b6 96 3e
       -0.0038035852 0.1545343 -0.005002579 0.2943594
000010 56 ca 0d 3e 03 58 46 bc e7 6e 82 3d 7e 6f 24 3e
       0.13846716 -0.012105945 0.06368809 0.16058156
000020 2f 23 85 bd 45 e7 26 3d c0 b4 9c bd aa 9a ab 3d
       -0.06500851 0.0407479 -0.07651663 0.08379109
000030 c3 9d ea bd ef e9 a5 3d 56 4e 2f 3a 20 34 79 bc
       -0.11455872 0.0810126 0.0006687393 -0.0152101815
000040 a0 95 3b be cb e3 72 3e a4 23 a4 3d ac b8 7d bd
       -0.18318796 0.23719709 0.080146104 -0.061943695
000050 97 ad 57 3e 5f 47 fa 3b d1 09 24 3c b2 66 e6 3d
       0.21062313 0.0076379026 0.010012106 0.11250056
000060 40 63 e2 3d e0 67 39 bd 28 c0 52 3d f7 b3 1d 3e
       0.11054087 -0.04526508 0.051452786 0.15400682
000070 5d b6 29 be d8 c7 a7 bd 81 05 9f bd b8 1f 0b 3e
       -0.16573472 -0.08192414 -0.07764722 0.13586318

layer1_task.2.running_mean f4 [32]
000000 75 5b 49 c5 6a 3d f0 c5 73 96 a6 c6 93 f1 51 c6
       -3221.716 -7687.677 -21323.225 -13436.394
000010 31 44 82 45 d4 d8 6d 45 4d e8 50 c6 99 29 2d c6
       4168.524 3805.5518 -13370.075 -11082.399
000020 03 1b 1f c6 e3 00 26 46 a6 86 b9 45 b2 e0 07 c6
       -10182.753 10624.222 5936.831 -8696.174
000030 72 f1 d2 c6 19 7a 5f c5 e2 4a d5 c5 9a ae 2e 46
       -27000.723 -3575.631 -6825.3604 11179.65
000040 26 fc a3 46 90 cf 86 c3 28 2c d4 45 b6 a6 2a 45
       20990.074 -269.62158 6789.5195 2730.4194
000050 62 af 04 c7 a8 4e d1 45 2a 5f f3 45 70 3e 0a c6
       -33967.383 6697.832 7787.8955 -8847.609
000060 c4 03 83 c5 96 4b 25 46 4a a6 d0 46 5a 50 05 45
       -4192.4707 10578.896 26707.145 2133.022
000070 ee ff 8e c6 32 6a 74 46 58 0f 68 44 2b 60 3b 46
       -18303.965 15642.549 928.23975 11992.042

layer1_task.2.running_var f4 [32]
000000 f5 3c fd 4a 19 b3 34 4c 51 c1 b2 4d da fa 09 4d
       8.2981065e+06 4.7369316e+07 3.748767e+08 1.446824e+08
000010 79 a8 5c 4b b6 04 32 4b f4 77 09 4d f4 85 b9 4c
       1.4461049e+07 1.1666614e+07 1.4414624e+08 9.726762e+07
000020 40 df 9e 4c c6 b9 aa 4c c6 e2 e5 4b 8b 21 6b 4c
       8.329472e+07 8.950942e+07 3.0131596e+07 6.1638188e+07
000030 02 51 0c 4e c7 d5 24 4b f8 bd 10 4c ac 60 c3 4c
       5.885298e+08 1.0802631e+07 3.7943264e+07 1.0243414e+08
000040 c8 fb ab 4d c3 c3 b0 47 b8 84 12 4c 39 24 bf 4a
       3.606756e+08 90503.52 3.840893e+07 6.2633245e+06
000050 e1 b4 63 4e 1c 5a 0f 4c 32 ba 37 4c f8 67 6e 4c
       9.550705e+08 3.7578864e+07 4.8163016e+07 6.2496736e+07
000060 e3 65 59 4b a7 84 ab 4c 8c e2 07 4e ce 24 62 4a
       1.4247395e+07 8.992492e+07 5.699428e+08 3.7051395e+06
000070 c6 cb 83 4d 00 13 40 4d 1c 6f 31 49 ce e4 dd 4c
       2.7639622e+08 2.0140442e+08 726769.75 1.1633624e+08

layer1_1vm.0.weight f4 [64, 40]
000000 30 66 25 bc 1a f5 b3 bd 96 d9 fe bd 17 0d 40 be
       -0.010095164 -0.08786984 -0.12443845 -0.18754993
000010 9e 9c 81 3c a8 49 c8 3d d8 a2 17 be 06 ea 2e be
       0.015821751 0.09779674 -0.14808214 -0.1708146
000020 bb c0 93 be 6a 24 f6 bc 05 9e 00 3e 18 63 85 be
       -0.2885798 -0.03004666 0.1256028 -0.26052165
000030 25 46 be 3c fa 0d 61 bd b8 05 fd bd 37 88 12 3e
       0.023226807 -0.05494497 -0.123546064 0.14309774
000040 53 d5 b4 bb 58 29 5f 3d b3 36 56 bd c3 52 be be
       -0.0055185943 0.054482788 -0.05229826 -0.37172517
000050 4b d6 ac 3e ac fe 08 3e 0e a6 5c be 1c 93 70 be
       0.33757243 0.133784 -0.2154772 -0.23493618
000060 1c e2 2e be de 5e cb bd 23 5d 34 3d 81 be 4f be
       -0.17078441 -0.09930204 0.044034135 -0.20287515
000070 83 16 8b bd ce 6f 3f be 46 b9 a1 bd cb 17 8a be
       -0.06791403 -0.18694994 -0.07896666 -0.26971278
000080 5c a7 a2 bd 18 db 38 bd 56 22 79 3e 68 e8 b0 3e
       -0.079420775 -0.04513082 0.24329504 0.34552312
000090 93 c9 1e 3e 11 c0 04 be c1 6a 21 3e 51 ba 63 ba
       0.15506582 -0.12963893 0.1576338 -0.0008687126
0000a0 30 52 f1 3c 92 d5 27 be f9 e8 8b bc c5 e2 27 3e
       0.029458135 -0.16390064 -0.017078863 0.163951
0000b0 9c e1 36 be b8 9c 76 3e 2c c9 29 3c 65 82 f9 bd
       -0.178595 0.24083221 0.0103629045 -0.12183074
0000c0 20 e3 b0 be f6 48 29 be f5 60 68 be 14 4f 95 3c
       -0.34548283 -0.16531739 -0.22693236 0.018226184
0000d0 24 9d e3 3d 2a fd 84 bd 21 36 09 be 6c 08 15 be
       0.111139566 -0.064936 -0.13399555 -0.14553994
0000e0 bf a5 00 3e f9 bf 21 3e 7f 62 24 3e 25 04 74 3e
       0.12563227 0.15795888 0.16053198 0.23829706
0000f0 6b 95 e1 bc 43 5e 9e be cf dd ab 3d 6c 96 56 3e
       -0.027537068 -0.3093129 0.08391916 0.20955819
000100 83 0b 32 be 61 cb 2a bd eb e2 1f 3e 26 54 8b 3e
       -0.17387204 -0.041697863 0.15613906 0.27212638
000110 b2 91 ae 3d 63 71 6b be d9 db 44 bd 3b 3a 1b be
       0.08523883 -0.22992472 -0.048061226 -0.15158932
000120 3d ff 96 bc cc 19 ee 3d 0c 8e 44 3d fe de dd 3d
       -0.018432254 0.11626014 0.04798703 0.10833548
000130 12 e6 9f be 94 38 7a 3e f0 0a 58 3e f1 ce 84 be
       -0.31230217 0.24435645 0.21097922 -0.25939134
000140 e5 b3 59 bd 0b 43 1e be 59 cd 27 bc f7 3a c5 bd
       -0.053150076 -0.15455262 -0.01024183 -0.09630387
000150 27 92 b7 be f8 be 27 3e 33 71 9a 3e 84 93 3d bd
       -0.35853693 0.16381443 0.3016449 -0.04628326
000160 e3 8a 4b be d0 a3 1a bd 64 3d cd 3c 0a 38 9b bb
       -0.198772 -0.03775388 0.025053687 -0.004736905
000170 cd e4 cf 3c b2 91 d0 bd e8 9c a0 bc 1b 44 aa bd
       0.025377655 -0.10184039 -0.019606069 -0.08313771
000180 f8 ca 9b be 52 9d d8 3d 7d 37 1a bd f6 a5 03 3e
       -0.3042829 0.105768815 -0.037650574 0.12856278
000190 3d 03 59 3e 79 0c 92 3d d3 d6 66 3e 97 44 fc bd
       0.21192642 0.07131285 0.22542886 -0.1231777
0001a0 79 42 1c 3e 68 03 5a bd 49 9c 9d 3c c0 85 ba 3d
       0.15259732 -0.053225905 0.019239562 0.09107542
0001b0 5b 83 94 be 3f ce f3 bd 0e d2 93 bd c4 46 35 3d
       -0.29006466 -0.11904573 -0.07217799 0.04425694
0001c0 c7 4a 03 3d f2 87 d6 bc fc 62 9f 3d 78 b6 a8 3d
       0.032053735 -0.02618787 0.07782552 0.08237928
0001d0 d1 7d b7 bb 42 1d 27 3e d3 e5 5e be 32 a9 88 be
       -0.0055997153 0.16319755 -0.21767358 -0.26691586
0001e0 5a 3b 07 3c d4 e4 b0 bd 0c c8 81 3e 23 45 e6 bd
       0.008253897 -0.086373955 0.25347936 -0.112436555
0001f0 a8 d1 e4 bd 82 36 54 3e b5 32 33 be ec 62 89 3c
       -0.11172801 0.20723918 -0.17499812 0.016770802
000200 f9 fc 06 be a6 e1 cb bc cc 66 48 be f3 fb 91 3e
       -0.13182439 -0.024887871 -0.19570464 0.28512534
000210 c0 ca 09 be c7 d8 7e bd 65 54 83 be 9e 98 c9 bd
       -0.13456249 -0.062218454 -0.25650325 -0.098435625
000220 a9 5b fb 3d ff 3d 14 be 5d bf cd 3d d9 1d 81 3c
       0.12273342 -0.14476775 0.10046265 0.015761303
000230 22 2d 40 3e 37 30 98 3d e2 f9 4a 3e 68 16 1e ba
       0.18767217 0.07431071 0.19821885 -0.00060305605
000240 55 bd 46 be df 00 5c 3d e6 67 97 3d ba b7 b5 3d
       -0.19408162 0.05371177 0.07392864 0.08872934
000250 f8 e2 16 3e e1 d3 60 3e e5 14 1d 3c ff 4a 4a 3d
       0.14735019 0.21955825 0.009587501 0.049387928
000260 4c 1f 6e be 46 c0 93 be bc 43 17 3e f2 dc 6e be
       -0.23254126 -0.2885763 0.14771932 -0.23326471
000270 2f d6 5b 3e d9 bc 0d 3e 8a 62 ae be 77 8f 34 be
       0.21468423 0.13841571 -0.34059554 -0.17632852
000280 68 d8 9d bd 0c 15 04 bd 25 f6 0c be 09 66 6a be
       -0.07707292 -0.032246634 -0.13765772 -0.22890486
000290 db c3 44 be 28 ae 81 3d 79 0c 81 3d ea b4 cb ba
       -0.19215338 0.06332046 0.06301207 -0.0015541587
0002a0 10 08 88 3c 7c a0 82 3c f1 b1 0e 3e 53 83 26 bd
       0.016605407 0.015945666 0.13935067 -0.040652584
0002b0 8a 28 39 3e 89 f6 d9 3c f3 d9 96 bd 4d aa 6e bd
       0.1808187 0.026606815 -0.07365789 -0.05826788
0002c0 08 6c 15 3d 7f 3a e5 3d 1b c1 6f be 51 6f ad 3e
       0.03647998 0.11192798 -0.23413508 0.3387399
0002d0 83 63 ab bd d2 97 c8 3d 57 94 54 3e 31 0f 99 3d
       -0.0836859 0.097945824 0.20759712 0.07473601
0002e0 6b 78 20 3e 28 75 4d be 61 d7 46 be 8a ff 5f be
       0.15670936 -0.20064223 -0.19418098 -0.21874824
0002f0 cb a8 24 be 72 2d 91 3d b3 cf 8c 3e 41 59 ac 3e
       -0.16080014 0.07088746 0.27502212 0.33661845
000300 fb be e3 bd 29 a1 0d 3e d9 8f 3e 3d 99 b9 85 3e
       -0.11120411 0.13831009 0.046523903 0.26118162
000310 7d 6d 95 be d3 70 d1 bd 5d 84 99 3e c6 09 a0 3e
       -0.29185095 -0.10226598 0.29983798 0.31257457
000320 e2 01 46 bd 37 a4 0a 3d 90 fa dd bd 40 d2 dc 3d
       -0.04834164 0.033848014 -0.10838807 0.107822895
000330 ed c4 a0 3d 3a 45 03 3e 36 a4 ee 3d 2e 11 3f bd
       0.078500606 0.12819377 0.116524145 -0.046647243
000340 44 a9 56 3e 65 59 8f 3d 8e 71 04 be a4 4a 55 be
       0.20963007 0.069994725 -0.12933943 -0.20829254
000350 6d 93 ad 3c 6c d8 b1 3d f8 b6 25 3e bc dc 2a 3e
       0.021188462 0.08683857 0.16183078 0.16685766
000360 8b 1d a7 3e 41 af 83 3e 30 bc 85 be b0 ce 67 3d
       0.32639727 0.25719646 -0.26120138 0.056593597
000370 3f f6 95 3d 96 bd 1f 3e c5 ae a6 bd f4 82 e3 3e
       0.07322358 0.15599665 -0.081388034 0.44435847
000380 ac b5 c2 3d bb 3d 40 be 07 a3 b2 bd a7 33 93 3d
       0.095073074 -0.18773548 -0.08722501 0.07187586
000390 b4 66 b2 3d 54 15 72 bd bb 14 b0 3e df a1 82 bc
       0.08710995 -0.05910237 0.34390816 -0.015946327
0003a0 33 56 f7 3c b9 bf ee bd 72 89 0e be 5b dc e4 bd
       0.03019247 -0.11657662 -0.13919619 -0.11174842
0003b0 ad a0 a6 bd cb 59 91 3d 73 2b 91 3e b3 25 e4 3d
       -0.08136115 0.07097205 0.28353462 0.11140003
0003c0 01 3a 87 be a9 a6 07 be 41 00 a9 bd ac 5e 84 3e
       -0.2641144 -0.1324717 -0.082520016 0.2585348
0003d0 e9 a3 19 bd f9 2a 93 bd fb 8d 78 3e 9a 04 8f bc
       -0.037509833 -0.07185931 0.24272911 -0.017458249
0003e0 e9 08 02 3e c0 31 11 bc 7f 3d a6 bd 2e 4f 57 3d
       0.12698711 -0.008861959 -0.08117198 0.052565746
0003f0 95 c7 a8 be c0 74 ef 3d 6e b4 92 bd 1a de 1d 3e
       -0.3296477 0.1169219 -0.071633205 0.15416756

layer1_1vm.0.bias f4 [64]
000000 64 4f 25 3d 52 55 35 bb 77 20 18 3e 63 85 31 3e
       0.040358916 -0.0027669263 0.14856134 0.17336039
000010 33 bc 2d be 41 2d 66 bd 12 48 8f 3d 14 c2 9b bd
       -0.16966324 -0.0561955 0.06996168 -0.07605377
000020 a3 e9 29 be 5c 49 35 3e 20 78 6b bc b2 01 5e bd
       -0.16593032 0.17703766 -0.014371902 -0.054200836
000030 b2 98 d6 3d c7 e6 2a bd da 6f 6a 3e 82 07 37 bb
       0.10478343 -0.041723993 0.2289423 -0.002792806
000040 10 1f 4b 3b cb 39 b4 3b d6 60 2d be 19 15 1f 3e
       0.0030993856 0.0055000535 -0.16931471 0.15535392
000050 9e 1b bd bc 0b 0a cb bc 98 8f a6 bd 75 5e aa bd
       -0.023084458 -0.024785062 -0.08132857 -0.083187975
000060 1a c2 66 be fc bf 02 bc 07 9d 85 3e 20 cc 3e 3d
       -0.22534981 -0.007980343 0.26096365 0.046581388
000070 e8 8d 96 3d f8 94 3e bd 27 32 3e 3d b3 b0 94 bd
       0.07351285 -0.046528786 0.046434548 -0.07260265
000080 aa 9c 1c be 08 8e b5 bd e6 d6 b6 3d 56 f1 12 be
       -0.15294138 -0.08864981 0.089277074 -0.14349875
000090 e8 38 1c 3d 07 27 87 3e 47 2c 5e be 87 34 a1 bc
       0.038140208 0.26396963 -0.21696578 -0.019678367
0000a0 09 f5 46 bd a8 86 61 bb 0e a7 b6 3d 68 a5 82 be
       -0.048573527 -0.0034412537 0.08918582 -0.2551682
0000b0 fa 00 e2 3d eb fb fb bd a5 00 98 bd 50 a5 df bd
       0.110353425 -0.12303909 -0.07421998 -0.10920203
0000c0 5f 66 47 3d 74 4c 21 be f8 81 97 3d 73 14 04 be
       0.048681613 -0.15751821 0.073978364 -0.12898426
0000d0 14 8b ca bc 7b 02 f6 bd 9e 84 ac bd 3a ec f6 3b
       -0.02472452 -0.12012192 -0.08423732 0.0075354846
0000e0 fe cb b7 bd 5e 1b cd bd 3c aa 78 bb ad ca 59 3b
       -0.08974455 -0.100149855 -0.0037943264 0.0033232376
0000f0 0e da a7 3d 02 9c 41 bd 00 ee 36 bd 0e 5c 72 3d
       0.081958875 -0.04726792 -0.04466057 0.05916982

layer1_1vm.2.weight f4 [64]
000000 12 34 12 3f a5 e0 83 3f ba 1e 64 3f 6b 46 5e 3f
       0.57110703 1.0302931 0.89109385 0.868262
000010 9f 00 6d 3f f3 6a 4f 3f ba 71 87 3f 25 81 88 3f
       0.9257907 0.81022567 1.0581582 1.0664412
000020 4d 2b 84 3f d2 e6 6a 3f ed fc 82 3f 3a a4 8f 3f
       1.0325714 0.91758454 1.0233437 1.1221993
000030 73 8d 89 3f 4a 45 8b 3f 50 37 90 3f ba f6 73 3f
       1.0746292 1.088052 1.126688 0.9529835
000040 02 fe 90 3f 0a 04 84 3f 76 46 75 3f 73 36 83 3f
       1.1327517 1.0313733 0.9581064 1.0250992
000050 0e c0 70 3f 93 b9 66 3f a9 a1 64 3f 0d de 87 3f
       0.9404305 0.90126914 0.89309174 1.061464
000060 2f 65 6d 3f 40 03 88 3f 8a 87 7e 3f 3c 1f 85 3f
       0.9273252 1.0625992 0.99425566 1.0400157
000070 15 aa 88 3f 1d da 82 3f c0 16 6e 3f f1 19 6f 3f
       1.0676905 1.0222813 0.93003464 0.9339896
000080 c1 fb 8e 3f 45 07 9d 3f d4 96 45 3f 1b 4a 89 3f
       1.1170579 1.2267843 0.7718327 1.072574
000090 b2 3f 78 3f 76 1e 87 3f c5 d9 8a 3f 28 08 79 3f
       0.9697219 1.0556171 1.0847708 0.9727807
0000a0 46 01 87 3f d1 5b 71 3f 36 8b a4 3f 39 8a 83 3f
       1.0547264 0.94280726 1.2854984 1.0276557
0000b0 b9 e6 96 3f e5 e1 5e 3f aa 13 65 3f 81 05 9d 3f
       1.1789161 0.8706344 0.8948313 1.2267305
0000c0 83 27 84 3f 48 e0 76 3f f3 97 7a 3f 77 b1 6a 3f
       1.0324558 0.96435976 0.97888106 0.9167704
0000d0 7c bf 67 3f 70 2c 5c 3f fb f9 8a 3f e1 2c 6b 3f
       0.90526557 0.86005306 1.0857538 0.91865355
0000e0 1c 4e 8c 3f e2 62 68 3f 46 ba 88 3f 09 ee 5a 3f
       1.0961337 0.90775883 1.0681846 0.8551946
0000f0 1f 78 66 3f f9 a6 8a 3f a7 9a 84 3f 97 3f 64 3f
       0.9002704 1.0832206 1.0359696 0.8915953

layer1_1vm.2.bias f4 [64]
000000 b0 b5 29 3d ff e9 3e 3e 9c f4 09 3e 29 f6 76 bd
       0.041433036 0.1864395 0.13472217 -0.06029335
000010 42 f9 5c bd 9b 52 54 bd e8 1c 59 bd 6b 38 44 bd
       -0.05394865 -0.05183659 -0.053006083 -0.047905367
000020 3c 39 3b 3e fc a7 89 3c dc 62 f2 bd 8e 15 28 3e
       0.18283552 0.016803734 -0.11835262 0.16414472
000030 59 5a ad 3d 86 e5 1e 3e 0f 53 f6 3d 8b 64 3e be
       0.08464498 0.15517244 0.12027561 -0.18593042
000040 ac b6 1d bb 88 46 65 3d f9 23 ab 3d c4 07 ba 3d
       -0.002406518 0.055975467 0.083564706 0.090835124
000050 59 41 60 be 79 25 bc 3d 19 c9 41 3c 05 66 1e 3d
       -0.21899928 0.09186835 0.011827731 0.038671512
000060 61 5b 8d bd b2 3d 4b bd 7a ad c4 bd 01 30 ce bd
       -0.06902195 -0.049619384 -0.096034005 -0.1006775
000070 4c 77 69 be a2 ef 82 bd 04 c1 04 3e 84 f6 8e 3c
       -0.22799414 -0.063933626 0.12964255 0.017451532
000080 c0 34 58 b7 fb 6b c6 bd c1 6b 3c 3e cd 61 94 3c
       -1.2886885e-05 -0.096885644 0.1840048 0.018113041
000090 65 d3 1f 3d 70 57 02 bd cf 2f 1b 3c 5b 2b 13 3c
       0.03901996 -0.03182167 0.009471848 0.008982505
0000a0 aa 03 ea bd 99 66 ec 3d f4 b9 0a 3e 3b 6f c6 3c
       -0.1142648 0.115430064 0.13547498 0.02422296
0000b0 63 0a 0e be 0a e0 30 3e 45 50 ee 3d 2b b7 fb bd
       -0.1387115 0.17272964 0.11636404 -0.12290796
0000c0 63 b5 99 bd 39 bc 68 bd 66 9b 13 be 39 40 25 bd
       -0.075053 -0.056820128 -0.14414749 -0.04034445
0000d0 8d bb 5f bd f8 91 2d 3d cf 63 16 bd 47 83 b8 bb
       -0.05462222 0.042375535 -0.03671628 -0.005630884
0000e0 f3 f9 75 3d 26 a9 7a 3d d9 6f 59 bb e1 dd 8a bc
       0.060052823 0.06119647 -0.0033178239 -0.016951503
0000f0 ea 91 6f 3e c6 3a 0a be 54 d3 fd bc c4 95 22 bc
       0.23395506 -0.13498983 -0.030984558 -0.009923402

layer1_1vm.2.running_mean f4 [64]
000000 13 38 9d c7 e7 d8 0c c8 58 15 16 c8 e1 61 c3 c7
       -80496.15 -144227.61 -153685.38 -100035.76
000010 7b 87 d8 47 d4 d7 22 47 d0 12 2c c8 9a d0 e9 c6
       110862.96 41687.83 -176203.25 -29928.3
000020 ac a5 38 48 f9 4f f2 c7 64 60 70 48 42 8b 90 c7
       189078.69 -124063.945 246145.56 -74006.516
000030 03 ed 80 c8 d1 a6 22 48 15 cd 28 c7 e9 43 8d c7
       -264040.1 166555.27 -43213.082 -72327.82
000040 02 50 61 c8 6c f7 ea c6 a1 83 50 c6 44 1a da c7
       -230720.03 -30075.71 -13344.907 -111668.53
000050 c2 c9 1a 48 85 b2 ea c7 2b 1a 0c 48 e6 83 52 c7
       158503.03 -120165.04 143464.67 -53891.9
000060 0e dc 9f c8 54 a3 16 c8 91 d4 ef c5 d6 98 21 48
       -327392.44 -154253.31 -7674.571 165475.34
000070 b8 a2 d2 47 12 73 af c7 50 2b 86 c6 fe 19 1e 47
       107845.44 -89830.14 -17173.656 40473.992
000080 df a2 9b c7 e4 e3 92 c8 55 93 e0 47 2d 4b 4f c8
       -79685.74 -300831.12 114982.664 -212268.7
000090 2d 15 4b 47 73 e0 82 c7 1c 74 49 48 7e e0 82 48
       51989.176 -67008.9 206288.44 268035.94
0000a0 b3 a8 ca 47 5e fe d7 c6 df 9f 2c 47 37 f5 5b 48
       103761.4 -27647.184 44191.87 225236.86
0000b0 ba d3 74 47 b2 5f 4b c7 b9 04 a1 48 8e c8 b2 46
       62675.727 -52063.695 329765.78 22884.277
0000c0 e6 ee 9c 47 bb a3 a7 47 12 ac f6 47 bd 18 4e c8
       80349.8 85831.46 126296.14 -211042.95
0000d0 32 12 f2 46 78 37 81 48 5a 70 00 47 2d e8 86 48
       30985.098 264635.75 32880.35 276289.4
0000e0 da b0 0b 48 af 7a cd 47 5e cd 0b 47 6f 65 57 c8
       143043.4 105205.37 35789.367 -220565.73
0000f0 5e a5 2c 47 7a d5 67 c7 43 b6 09 47 cd a7 06 48
       44197.367 -59349.477 35254.26 137887.2

layer1_1vm.2.running_var f4 [64]
000000 5a ed bc 4e a8 ec 9d 4f 37 a8 b9 4f 47 80 15 4f
       1.5848358e+09 5.299065e+09 6.229618e+09 2.508212e+09
000010 6e 7b 40 4f e3 8d cd 4d be c9 ea 4f ec c9 52 4d
       3.2293146e+09 4.310785e+08 7.87818e+09 2.2102803e+08
000020 60 f8 08 50 03 b2 56 4f a2 26 5d 50 02 ee ad 4e
       9.191916e+09 3.6019904e+09 1.4841186e+10 1.4590282e+09
000030 59 00 84 50 06 2d df 4f 90 81 e4 4d 2c c1 9f 4e
       1.7716922e+10 7.4885396e+09 4.7921203e+08 1.3401185e+09
000040 32 03 44 50 18 22 77 4d b6 59 4c 4c 79 e3 3e 4f
       1.3154175e+10 2.5913792e+08 5.356924e+07 3.2025787e+09
000050 8d 5e b7 4f dc 27 57 4f 0d 4e 93 4f ab ca 23 4e
       6.152854e+09 3.6097137e+09 4.942732e+09 6.8699206e+08
000060 a4 f9 c0 50 3d 71 ad 4f cb 59 8e 4b 91 f8 bc 4f
       2.5900687e+10 5.819759e+09 1.8658198e+07 6.3408133e+09
000070 3f 18 3a 4f a9 4d e2 4e ca 2f a6 4c 92 45 c7 4d
       3.1221512e+09 1.8983702e+09 8.712968e+07 4.1790317e+08
000080 be 8c c8 4e 0e a6 a4 50 72 a1 45 4f c8 e0 2f 50
       1.6823334e+09 2.2098768e+10 3.315692e+09 1.1802976e+10
000090 c4 a8 22 4e 29 93 7c 4e 39 b1 1e 50 bb e0 81 50
       6.822423e+08 1.0593757e+09 1.0649658e+10 1.743191e+10
0000a0 7e a1 18 4f 04 55 42 4d db d6 e9 4d e4 a9 36 50
       2.5607204e+09 2.0377197e+08 4.903965e+08 1.2258349e+10
0000b0 ae 45 6b 4e 0c eb 1a 4e d8 9c e0 50 0e 10 04 4d
       9.868031e+08 6.497738e+08 3.0147002e+10 1.384778e+08
0000c0 a7 dc bc 4e 59 82 f0 4e f0 4e 80 4f 8c 74 2c 50
       1.5842886e+09 2.0175372e+09 4.305314e+09 1.1573277e+10
0000d0 ee 08 73 4d 90 16 88 50 c0 55 85 4d 40 26 85 50
       2.5484054e+08 1.826544e+10 2.7962368e+08 1.7871012e+10
0000e0 8d 3f 93 4f 7f 46 32 4f 72 ce 9e 4d 17 1f 36 50
       4.940831e+09 2.9909645e+09 3.330412e+08 1.2221963e+10
0000f0 da 0b e8 4d a8 c7 50 4e 25 b4 a3 4d 02 41 92 4f
       4.8663635e+08 8.756864e+08 3.4331152e+08 4.907468e+09

layer1_2vm.0.weight f4 [32, 64]
000000 b6 4f 9d 3e 7a dc 53 3d 7a 6b ed bc c2 d4 52 be
       0.30724877 0.051723935 -0.028981913 -0.20588973
000010 d6 81 62 3e f5 c3 f8 3d 38 11 6c 3e 76 e9 7e 3d
       0.22119841 0.12146751 0.23053443 0.062234364
000020 b7 ea e1 bd d5 88 a0 be 30 5f 2b bc 29 0f 9f 3d
       -0.110310964 -0.31354395 -0.010459706 0.077665634
000030 8a 69 1f 3e d5 a6 26 be 2f 79 a3 3e 54 e3 af bd
       0.15567604 -0.16274579 0.31928393 -0.08588281
000040 24 d6 94 bd 98 e5 aa bd 12 33 47 3e 97 0a 0a 3e
       -0.072674066 -0.08344573 0.19453076 0.13480602
000050 ec fe 8b bd 42 24 4c be b5 55 9b be 19 ee b9 bd
       -0.06835732 -0.19935706 -0.30338827 -0.09078617
000060 0c 88 03 be 58 b4 03 3e f4 7f e0 bd 5f f4 6f 3d
       -0.12844867 0.12861764 -0.10961905 0.05858266
000070 01 61 54 3e 79 88 7d bd 94 fb 88 3d 88 59 3e be
       0.20740129 -0.06189773 0.0668861 -0.18588841
000080 53 7e 82 3d 57 dd 03 3e 9c 19 0b 3e d9 eb dc 3b
       0.06371751 0.12877403 0.13583988 0.0067419824
000090 4d 02 11 3e 78 a2 d7 3c f7 53 ad bd dd fb 09 be
       0.14161034 0.026322588 -0.08463281 -0.13474984
0000a0 f5 71 1c 3e e5 af 14 3e 3f b6 61 3c ee ef 4a 3e
       0.15277846 0.14520223 0.013776361 0.19818088
0000b0 e8 bc fc bc da d0 5f 3e 2b d6 c8 be 90 b6 83 be
       -0.030851796 0.21857014 -0.39225897 -0.25725222
0000c0 61 3b 1f bd 5f 76 a2 3d 4c ce 3b 3e 75 8c 5e bd
       -0.038874988 0.07932734 0.18340415 -0.05433317
0000d0 4b 8b 62 3e 5c 41 50 be 9e d2 71 bd 98 29 5e bd
       0.22123449 -0.20337433 -0.05903875 -0.054238886
0000e0 05 f4 f9 bd ce 0c b0 3e cb b0 e0 bd 38 8a a5 be
       -0.12204746 0.3438477 -0.109712206 -0.32332015
0000f0 70 9f e8 3c cb da 45 bd 5f 81 86 bd bd 63 2d be
       0.028396338 -0.04830436 -0.06567644 -0.16932578
000100 f0 f6 5f 3c 4f 90 22 3d 87 29 38 3e 30 81 23 be
       0.013669714 0.039688405 0.17984591 -0.1596725
000110 2a a4 61 3e d9 53 e5 bd 10 cb ce be 10 ba 68 be
       0.2203528 -0.11197633 -0.403893 -0.22727227
000120 37 76 8d 3e cc 3d 98 be 3a 55 3c 3e ca 95 b1 be
       0.27629253 -0.29734647 0.18391886 -0.34684592
000130 c3 0f 72 be 20 39 8b 3b d1 1d 9a be 0e 77 2b be
       -0.23638825 0.004248753 -0.30100873 -0.16744635
000140 a4 91 82 3d 8e 0d 62 3e 0a e0 ee 3e a4 99 68 3e
       0.06375435 0.22075483 0.46655303 0.22714859
000150 32 03 58 be 44 87 1b 3d bd c5 22 be 4f 92 91 bd
       -0.21094969 0.037970796 -0.15895744 -0.07107984
000160 25 4a 69 bd 36 d5 61 be e8 3e f0 3d aa 54 84 bd
       -0.056955475 -0.2205399 0.117307484 -0.06461461
000170 e4 35 67 bc ff 34 87 bb e7 26 b9 bd e2 f5 92 3d
       -0.01411197 -0.0041261907 -0.09040623 0.07175805
000180 8a da d7 3d 22 fd 08 be 72 89 4c be 2f f2 c2 be
       0.1053973 -0.13377813 -0.19974306 -0.38075396
000190 b0 c5 a1 3d 43 0d 90 be c2 2f 23 3e c2 55 1d be
       0.07899034 -0.28135118 0.15936187 -0.15364745
0001a0 f0 d3 36 be c8 82 f9 3d 2c e4 e3 bc 61 10 ec bd
       -0.17854285 0.12183148 -0.027818762 -0.115265615
0001b0 3a c6 4f 3d 6e 39 87 3b 17 d8 76 bc 26 e2 ad 3d
       0.050726153 0.004126719 -0.015066168 0.084904
0001c0 44 bd 73 be 6b 6d 6c be 9d 62 20 bd 7b 11 1b 3e
       -0.23802668 -0.23088615 -0.039156545 0.15143387
0001d0 bf 2c 05 be a8 f7 1d be a8 2b 7b bc 56 0a 83 3e
       -0.1300535 -0.15426505 -0.015330233 0.25593823
0001e0 7a b2 20 bd a8 d1 c1 be 1c 15 df bd ff db 5c 3d
       -0.03923271 -0.37855268 -0.10892698 0.053920742
0001f0 72 72 f2 bd 15 62 07 be 1d fd b9 bc e9 15 14 bc
       -0.11838235 -0.13221009 -0.022703702 -0.009038427
000200 05 b1 90 be 61 ff 56 3d 52 d9 6b 3e 81 f3 8e 3c
       -0.28260055 0.052489642 0.2303212 0.017450096
000210 7f 5b d8 3d ab 53 f7 3d 19 e7 99 bc b0 59 8c be
       0.105643265 0.12076505 -0.018786954 -0.27412176
000220 76 77 a2 3e 15 fd aa be e8 ce 7c 3e f4 f3 6a be
       0.31731766 -0.3339621 0.24688303 -0.22944623
000230 24 f3 5c be 47 90 98 bc 5b b4 4e bd 80 e4 77 3e
       -0.21577126 -0.018623484 -0.05046497 0.2420826
000240 95 50 7a 3e 4d 41 06 3e 84 9d a2 3b 00 87 d3 bd
       0.24444802 0.13110848 0.004962625 -0.103284836
000250 65 fc d8 bd c0 80 5b 3e 58 35 b3 bd 4c 9f 37 3e
       -0.105950154 0.21435833 -0.08750409 0.1793186
000260 c8 2b 9f be ae e2 64 bd 01 0e c2 be fb a3 a0 3d
       -0.3108809 -0.05588024 -0.3790131 0.07843777
000270 ab 40 9e 3d 14 a8 c8 bd db 46 e9 bd 36 b4 c3 bd
       0.07727178 -0.09797683 -0.11390468 -0.09555857
000280 80 3d 5d 3b a3 a4 a0 3d ba 10 c9 3d db 0d 8c be
       0.003375858 0.07843902 0.098176435 -0.2735432
000290 a3 5b e4 3d b0 4c 3d 3d 84 39 60 bd 48 76 3a 3d
       0.11150291 0.046215713 -0.05474235 0.045522958
0002a0 73 7d e5 bd 87 d9 0f be cc d2 5e 3e 08 63 2e 3d
       -0.11205568 -0.14047824 0.217601 0.042574912
0002b0 e7 2a 95 3d 48 d7 11 3e 3e cb 4f 3e 6e bd 1d be
       0.072835736 0.1424228 0.20292374 -0.15404293
0002c0 34 4c 14 be f5 9b 86 be 3f f2 9a be 11 08 9e 3d
       -0.14482194 -0.2629086 -0.30262944 0.07716382
0002d0 47 33 3d be 6b 02 a0 3e e7 9a 5d be 01 37 79 be
       -0.18476592 0.31251845 -0.21641122 -0.24337389
0002e0 e7 87 c9 3e 5d 36 3b bc c5 1f 68 3e 8f 63 bd 3c
       0.39361498 -0.011426535 0.22668369 0.023118762
0002f0 c2 64 9a 3e 17 c5 eb 3d 00 a6 c8 bd 12 e8 9a 3d
       0.30154997 0.11512201 -0.09797287 0.07563795
000300 2f dc 3b ba de 10 80 be f4 2f cd bd c4 15 78 bc
       -0.0007166294 -0.2501287 -0.10018912 -0.015141908
000310 c2 9b 8a bd ce 8d 7f 3e b3 38 47 3e f7 10 6e be
       -0.0676799 0.24956438 0.19455223 -0.23248659
000320 76 95 22 3d 0d 7d 9f 3e 31 9a a7 3b 9d 18 c4 be
       0.03969332 0.31150094 0.0051148166 -0.38300028
000330 26 a0 85 3e ad 9b 33 3e 5b 6c bb be bc c4 1c be
       0.26098746 0.17539854 -0.36606106 -0.15309423
000340 08 de 80 3d 95 d2 8c bb fe 8e 0a 3d 41 43 5f bd
       0.06292349 -0.0042975643 0.033827774 -0.054507498
000350 47 e5 9f 3e f9 0b 1c 3c d8 56 a4 3e be 4c f2 3c
       0.31229612 0.009524339 0.32097507 0.02957761
000360 a6 ec 2b be 98 36 a7 be 04 f0 30 3e 81 75 42 bd
       -0.16789493 -0.3265884 0.17279059 -0.04747534
000370 6c 6b e5 bc e2 04 5a 3d d9 1b c2 3e 53 52 17 be
       -0.028005324 0.053227313 0.3791187 -0.14777498
000380 69 b6 14 3e 93 43 a6 bd 93 fb 7f be b1 9c cf 3d
       0.14522709 -0.081183575 -0.24998312 0.101373084
000390 68 05 39 be 23 4c bb 3d ee ec 40 be d4 ad 4a bd
       -0.18068469 0.09145381 -0.18840382 -0.04948218
0003a0 f5 bc 75 bd cc a4 cf 3d 3f ed bc 3d 49 a8 4d be
       -0.059994657 0.101388544 0.092249386 -0.20083727
0003b0 26 95 fa 3d de 3c 72 3e bc d8 c0 3e 3d 14 ce 3d
       0.12235479 0.23656031 0.37665355 0.10062454
0003c0 43 b8 8c 3d 2e 63 b0 be c8 02 d1 3b a5 5b 22 3d
       0.06871083 -0.34450668 0.0063785054 0.03963818
0003d0 2a e6 25 bc b2 84 2f 3e 96 61 f0 3e 59 99 7a 3e
       -0.010125676 0.17140463 0.46949452 0.2447256
0003e0 7d 9a c1 3e f9 bd 42 3d e8 5c c2 bd 06 c9 00 bf
       0.37813178 0.047544453 -0.09490377 -0.5030674
0003f0 06 c0 80 bc 1b 93 b2 be 9d 46 4b be 51 4c 69 bc
       -0.015716564 -0.34877858 -0.19851156 -0.014239387

layer1_2vm.0.bias f4 [32]
000000 6d ee b8 bd 0a da 9d 3d 17 8e 4a be b4 58 b6 bd
       -0.09029851 0.07707603 -0.19780765 -0.089036375
000010 db b2 e8 bd 8b ad 3d bd f4 59 09 3e 10 93 2a bd
       -0.11362239 -0.04630808 0.1341322 -0.041644156
000020 2b 2d ff bc 0d 8d e8 bd ef a4 df 3c 6f a8 08 be
       -0.031149467 -0.11355028 0.027300326 -0.13345502
000030 ab bf 84 3d dc 72 26 3e 1e da 9f 3d 4f 15 1b 3d
       0.0648187 0.16254753 0.078052744 0.03786212
000040 34 30 22 be a8 10 b7 bd 0c 0c 7d be 1e 9c 34 3e
       -0.158387 -0.08938724 -0.24711627 0.17637679
000050 cf 5b 47 3d 31 24 f7 bd ed e9 93 3e b5 20 e0 3c
       0.04867154 -0.1206745 0.2888941 0.027359346
000060 ec 62 12 3e de 61 50 be 48 a1 36 3d 5f 86 01 bd
       0.14295548 -0.20349833 0.044587404 -0.031622287
000070 99 f1 0f 3d 6b bb e8 3d a4 34 7e 3b b9 b4 83 3c
       0.035142515 0.11363872 0.00387887 0.016077386

layer1_2vm.2.weight f4 [32]
000000 74 73 8c 3f f9 20 60 3f 35 50 49 3f d9 23 70 3f
       1.0972733 0.8755031 0.7863801 0.938047
000010 de 9d 70 3f 16 94 77 3f ce c6 5f 3f bf 9c 5a 3f
       0.93990886 0.96710336 0.87412727 0.85395426
000020 29 6f 8d 3f 07 17 6f 3f 8c 47 67 3f 1a 7b 76 3f
       1.1049548 0.9339451 0.90343547 0.9628159
000030 da 51 71 3f d1 a9 5f 3f 17 cf 66 3f e9 bb 83 3f
       0.9426552 0.87368494 0.90159744 1.0291721
000040 8a fe 7d 3f fb ea 6a 3f 49 33 59 3f 64 47 91 3f
       0.9921652 0.917648 0.8484388 1.1349912
000050 cf 5b 6b 3f 11 e6 96 3f 74 77 96 3f 31 e4 80 3f
       0.91936964 1.1788961 1.1755204 1.0069638
000060 8e d4 83 3f 8f 60 4c 3f 31 5b 29 3f 77 71 68 3f
       1.0299242 0.79834837 0.6615477 0.90798134
000070 07 3c 71 3f 43 7f 78 3f d8 6d 7d 3f ed c6 89 3f
       0.9423222 0.97069186 0.98995733 1.0763832

layer1_2vm.2.bias f4 [32]
000000 22 fc f5 bc f3 9e 81 3d 62 92 f8 bd 09 f3 f8 bd
       -0.030027453 0.06329145 -0.12137295 -0.1215573
000010 ae 85 d3 3d 08 cf ac 3b 33 aa 51 be a2 9a 28 bb
       0.10328232 0.0052737035 -0.20475082 -0.0025726934
000020 05 85 15 be bb ca 62 bc 47 56 86 3d e5 3e 0a 3c
       -0.14601524 -0.01384228 0.06559425 0.008437847
000030 5f 0d b0 bc e9 7e 24 3d e5 a8 82 3d 3b 97 8b 3d
       -0.02149075 0.040160093 0.0637987 0.06815954
000040 97 5b c7 bb b9 07 be bd c2 c2 02 3e bb 44 d5 bd
       -0.0060839164 -0.09278817 0.12769607 -0.104135
000050 06 88 95 ba ab c2 4f 3d 68 df b9 3b 0f 1c 04 be
       -0.0011408336 0.05072276 0.005672384 -0.12901329
000060 d2 49 e8 3d cd e2 fa 3c 69 03 aa bd 5e c1 04 3d
       0.11342205 0.030625725 -0.08301432 0.03241097
000070 d7 11 5e 3e 69 78 41 3e 50 af 0c 3e c6 34 a3 3d
       0.21686493 0.18893589 0.13738751 0.0796905

layer1_2vm.2.running_mean f4 [32]
000000 be 8e e9 bd c6 4d 88 bf c0 ca 73 3c 46 98 8b 3d
       -0.11404179 -1.0648735 0.014879882 0.06816153
000010 a0 21 6d bf d0 4a ef 3e 04 8b b1 be 8d ad 14 be
       -0.9262943 0.46736765 -0.34676373 -0.1451933
000020 db 81 a0 3e e2 ea 91 bf f3 db 19 3f 7a fb 62 3f
       0.31349072 -1.1399806 0.6010124 0.8866497
000030 ec b9 01 bf e5 ee 0f 3f aa 3c b9 be d2 19 b5 be
       -0.5067432 0.562239 -0.36179096 -0.35371262
000040 61 32 4c bf bd d7 9a 3e 76 17 85 3e 05 56 bc 3d
       -0.7976437 0.3024272 0.25994462 0.091960944
000050 91 1f 40 bf 9f 6d 02 bf d2 8a e4 3e 9d cd 39 3e
       -0.75048167 -0.5094852 0.44637161 0.18144841
000060 0b 97 8b 3e ae bd ab 3e 1c 6b 97 be 76 ff f4 3e
       0.27263674 0.33543152 -0.29573905 0.4785115
000070 c8 02 7e 3e cc ff 7d 3f 0c 56 71 3e 56 cc bd 3e
       0.24805748 0.9921844 0.2356798 0.37069958

layer1_2vm.2.running_var f4 [32]
000000 20 61 38 3f e8 1a b9 3f 42 c0 6c 3f 1b 44 a7 3f
       0.720232 1.4461336 0.9248086 1.3067659
000010 f7 e6 86 3f 5e 29 82 3f e9 ef 70 3f fb a7 72 3f
       1.0539235 1.0168874 0.94116074 0.9478757
000020 af 60 a1 3f 41 35 a5 3f 23 c8 77 3f 72 9d 84 3f
       1.260763 1.2906877 0.9678976 1.0360548
000030 45 f6 78 3f d9 71 75 3f 3f 1b 82 3f ad 11 ab 3f
       0.9725078 0.9587684 1.0164565 1.3364769
000040 2a b8 98 3f 58 ce 7a 3f b9 27 80 3f 06 49 81 3f
       1.1931202 0.97971106 1.0012122 1.010041
000050 b5 6b 91 3f ca ab ae 3f 04 21 35 3f d4 8a 86 3f
       1.1360995 1.3646176 0.707535 1.0511117
000060 4e 0e ac 3f a7 ae 25 3f a1 47 33 3f f5 2d 76 3f
       1.3441865 0.64719623 0.7003117 0.96163875
000070 03 1d 8b 3f 02 29 96 3f c7 48 58 3f 69 2d 5c 3f
       1.0868229 1.1731265 0.8448605 0.8600679

layer2.0.weight f4 [32, 64]
000000 f2 a3 b2 3d d4 9a 55 bc 56 4a e6 3d 0b 36 a5 3e
       0.08722676 -0.013037402 0.11244647 0.32267794
000010 68 5b 67 bb ca 3f 70 3d 1f 66 7e 3e 19 d1 e9 3b
       -0.0035302285 0.058654584 0.24843644 0.007135522
000020 4e f6 14 3e 6e 0f d6 bd 55 41 23 3e 7b 68 3d bd
       0.14547083 -0.10452162 0.15942891 -0.04624222
000030 52 1c 38 be ff de ad 3d 97 28 01 3d 54 81 77 bc
       -0.17979553 0.08489799 0.03153285 -0.015106518
000040 dc 5a e5 3e d0 86 5a be 1a fa 97 bd 09 4e e1 bd
       0.44795883 -0.2134049 -0.0742075 -0.11001212
000050 15 2b 11 3e 42 fc 30 3d 79 56 02 3c 22 a7 57 bd
       0.1417659 0.04320932 0.007955187 -0.052649625
000060 d9 c3 20 3e f5 a4 5d bd f1 11 77 be 9a 48 ad 3d
       0.1569971 -0.054112393 -0.24127938 0.08461113
000070 4b 22 12 be 7d aa 40 3e ba 6c 80 3e 64 6f a4 3d
       -0.14270894 0.18815036 0.25082952 0.080290586
000080 6a 5e 9e be a3 3c 32 3e ef ea 2e bd ae 74 ae 3c
       -0.30931407 0.17405944 -0.04270452 0.021295872
000090 97 2e 87 3e 21 80 f5 3d c1 a2 dd bd 4e 60 d3 bd
       0.26402733 0.11987329 -0.108220585 -0.10321103
0000a0 76 00 e1 bd e8 89 c7 bd 1d cc 7c bd 88 2d 2e 3e
       -0.10986416 -0.097431004 -0.061718095 0.17009556
0000b0 2e 02 50 3c 49 b1 26 be 1d 6b aa 3e 76 bd d9 bd
       0.012695832 -0.16278566 0.33284846 -0.1063184
0000c0 ba 7e 2b bc 73 74 b2 be 7c 1b 18 3e 87 ab 08 3e
       -0.010467226 -0.3485447 0.14854234 0.13346682
0000d0 6a c8 10 be a8 ca 30 3e 31 68 ce 3e c0 af 67 bd
       -0.14138952 0.17264807 0.40313867 -0.056564093
0000e0 ac 9c 19 be cf 98 b3 be 6b 0e 1d be 47 a0 08 be
       -0.15001172 -0.3507752 -0.15337531 -0.13342391
0000f0 2f 47 16 3e 24 0a 94 3c 86 a9 5a 3e 42 3f d6 be
       0.14675592 0.018071242 0.2135373 -0.41845137
000100 fb 8f 3d 3e f7 57 41 bc df 05 e3 3c 2d 25 b5 3d
       0.18511955 -0.011800758 0.02771276 0.08844981
000110 93 ac 39 3e 1e 31 30 3c 5b 1f 89 3b 09 f2 50 3e
       0.18132238 0.010753898 0.004184646 0.20404829
000120 29 2c 61 be 3b 57 e7 bd fd 8d 4d 3e 17 8c d6 3d
       -0.21989502 -0.11295935 0.20073695 0.10475939
000130 4a 6d d6 bd 14 30 de bb 77 d3 43 3e fa c9 9f 3d
       -0.10470064 -0.0067806337 0.19123636 0.07802196
000140 0a 00 f6 3d 6a d8 1e 3e 05 1b dc 3d 74 7d 82 3d
       0.12011726 0.15512243 0.10747341 0.063715845
000150 3f 19 83 be 5e 6a de bc b1 02 32 3c 04 8d c9 3d
       -0.256052 -0.02715033 0.0108648995 0.0984135
000160 2a f4 0d be 4f 0f 2a 3e 72 fd 27 3c ca 81 04 be
       -0.13862672 0.16607402 0.010253297 -0.12940136
000170 39 33 ad 3d 44 dd ae be eb 11 99 3e 83 ea ba bd
       0.084570356 -0.34153187 0.29896483 -0.09126761
000180 05 ea 14 be ec 34 1b be 58 73 c7 bd 9e a4 92 be
       -0.14542396 -0.15156907 -0.09738797 -0.28641218
000190 0a 3f 1f 3e a9 da d6 bc 14 c3 2a bc b9 37 b1 3c
       0.15551391 -0.026227312 -0.010422487 0.021633016
0001a0 79 7a 5e 3d 0d 43 16 3f 97 a4 a5 be f3 dd 4a be
       0.054316018 0.5869606 -0.32352135 -0.1981123
0001b0 c6 c6 8c 3e 8e 50 5c 3e cb d8 6d bd 92 47 a9 be
       0.27495402 0.21515104 -0.058068078 -0.33062416
0001c0 f7 b4 75 be 90 12 03 be 6f 59 6b 3d 95 d2 d4 3d
       -0.23994814 -0.1280005 0.057458337 0.10391728
0001d0 25 4e ab be 02 47 a2 bc 28 b8 b6 be 47 8f 1c be
       -0.33458057 -0.01980925 -0.35687375 -0.15289031
0001e0 dd 35 09 bd de 16 6a bd 02 7b 29 be 8c b9 1b be
       -0.033498634 -0.057150714 -0.1655083 -0.152075
0001f0 9e 9e b6 bb c1 8f 2a 3d 50 ad 67 be d5 2f 90 3e
       -0.005573108 0.041641 -0.22624707 0.28161493
000200 3e 27 25 3e 54 66 10 3e ac 70 37 be 0b 34 e5 3d
       0.16128251 0.14101535 -0.17914075 0.11191567
000210 37 da 45 3e b5 9b 7e bd d2 2d 12 be 45 57 73 3e
       0.19321524 -0.062160213 -0.14275292 0.2376376
000220 31 d3 d2 bd 99 45 6e be c0 fd 3e 3e 66 d5 98 be
       -0.10294188 -0.23268737 0.18651485 -0.2985031
000230 9a ef 9c 3e 79 67 f5 3d 82 01 de 3d 56 96 28 be
       0.3065155 0.119826265 0.10840131 -0.16463599
000240 57 15 ae bd 5f f1 17 3e d3 0b ca 3d 68 4d 2d 3e
       -0.08500164 0.1483817 0.098655365 0.1692406
000250 68 f8 b9 3e fb 6d f7 bd 2f 16 b1 bd b3 d3 0a be
       0.3632233 -0.12081524 -0.08646809 -0.1355732
000260 5c c5 9e 3e 4f da 25 bf 53 c3 77 3e ab e3 9e bd
       0.31009948 -0.6478624 0.24195604 -0.07758268
000270 dd 3b a6 3d c4 98 5c 3e ec ed f5 3b 5e 3b bc be
       0.08116887 0.2154265 0.007505169 -0.36764044
000280 3e 9f c6 3e 87 a9 b2 bc 3b 17 2a 3e d2 0a 69 3d
       0.38793367 -0.021809353 0.16610424 0.056895085
000290 23 f3 43 3e c6 cd 0d be cf f3 47 be 85 a6 bc bd
       0.19135718 -0.13848028 -0.195266 -0.092114486
0002a0 85 db c7 be d2 cc 52 3d bf ad 28 3e 3f 8e a6 3c
       -0.39034668 0.051464863 0.16472529 0.0203315
0002b0 45 d0 18 3e f0 26 74 3e 29 86 1a bd e6 8b 25 3d
       0.14923199 0.23842978 -0.0377256 0.04041662
0002c0 1d 46 69 be 23 41 96 3e 3f 01 1b be d8 46 e6 bb
       -0.22780652 0.2934657 -0.15137194 -0.007027488
0002d0 6a 55 90 bb 67 7c 24 3d 56 bd 95 bc cd 89 3c 3e
       -0.0044047134 0.0401577 -0.018278759 0.18411942
0002e0 96 06 11 be b6 3e 0d 3e c1 f4 24 3e 87 97 49 3e
       -0.14162669 0.13793454 0.16108991 0.1968671
0002f0 a4 fd 08 bd 27 67 54 3e 35 10 9f bc 45 61 5e 3e
       -0.033445016 0.20742474 -0.019416908 0.21716793
000300 9e 63 5c 3d e5 f6 19 bd 7b 6f 2e 3e e8 3a 78 bd
       0.05380594 -0.037588973 0.17034714 -0.060603052
000310 f2 6f 99 3e 72 25 cb 3d 6a f4 c9 bd 41 58 4d bd
       0.2996822 0.099192515 -0.098610714 -0.050132994
000320 19 a7 02 bc 1a e5 32 3e 0b 02 74 be 41 28 25 3d
       -0.0079744095 0.17470208 -0.23828904 0.040321592
000330 dc b3 82 bd 18 ab e8 bc 63 70 fd bd b1 ee a8 3c
       -0.06381962 -0.028401896 -0.12374952 0.02062163
000340 a3 30 9c 3e de 31 45 3e 11 19 89 3e 23 7a 9e 3d
       0.30505857 0.19257304 0.26776937 0.077381395
000350 01 16 1b be 7b e6 35 3e 9e d1 27 3b 4c bc 53 bd
       -0.15145113 0.17763703 0.002560712 -0.051693246
000360 be 24 f1 bd 38 14 bd 3d 3d 8e 2e bd 5b c8 14 3d
       -0.11774586 0.09232372 -0.042616118 0.036323886
000370 1d 68 29 be 98 bf 34 3e b4 ae a7 3e 12 1c 5b bc
       -0.16543622 0.17651212 0.32750475 -0.013373392
000380 9c 6a 82 be bf 28 a0 3e 18 03 44 be 2d ba e3 3d
       -0.25471961 0.31281087 -0.19141805 0.111194946
000390 4f 39 3d bd 08 04 36 3e b9 eb dc 3b 3e a7 ec 3c
       -0.04619723 0.17774975 0.0067419675 0.028888341
0003a0 95 b8 99 3e e6 f4 aa 3d 71 6c c0 bd 08 57 ab 3e
       0.30023637 0.08347492 -0.093956836 0.33464837
0003b0 d9 e1 01 3e 5a 35 72 3e 45 51 da 3d 89 d7 9d bd
       0.1268381 0.23653165 0.10660032 -0.07707126
0003c0 b9 23 2e be aa df 66 bd 67 63 6d 3e 56 f9 73 bd
       -0.17005815 -0.056365646 0.2318245 -0.059563957
0003d0 1d a4 20 3c 56 9e cd bd 9b c6 01 3e f8 86 ae bd
       0.009804753 -0.10039966 0.12673418 -0.08521837
0003e0 43 bd a7 3e 92 ce f1 bd eb cb a0 3c 54 6b 05 3e
       0.32761583 -0.11806978 0.019628486 0.13029224
0003f0 c7 c0 4c 3e fb 42 20 3d f9 ae b6 3e 9a e8 c4 3d
       0.19995414 0.039126378 0.3568037 0.09614678

layer2.0.bias f4 [32]
000000 cf b3 1e 3e 77 3d 45 be e0 91 a6 3b 34 2e 08 3d
       0.15498279 -0.19261728 0.0050833076 0.033247188
000010 70 ce 95 3c 84 be f1 3d 8d 24 da 3b 1c 22 83 be
       0.018286914 0.11803916 0.006657189 -0.2561196
000020 a0 0e 95 3e 76 16 8b 3d 2f 42 8a 3d a6 68 a3 3d
       0.2911272 0.067913935 0.06750905 0.079789445
000030 0c 7a 08 bc 4c 5f ce bd 3a 8e c0 3d 6d b8 01 3d
       -0.0083298795 -0.1007677 0.094021276 0.031670023
000040 cf 68 b3 bc a7 7c 73 bd ad 60 e2 3c 65 f0 08 3e
       -0.021900563 -0.05944505 0.02763399 0.13372953
000050 94 fc ce bd 79 a7 3e 3d e8 4a 1e bd d8 39 10 bd
       -0.10106769 0.046546433 -0.038645655 -0.035211414
000060 fc ac ba bd f7 2d 95 3d 55 1b 30 3e 23 a2 91 be
       -0.091150254 0.07284158 0.17197926 -0.28444013
000070 4d 2f 13 3e b3 39 55 bd 4e 56 82 3d 65 df b3 3c
       0.14373513 -0.05205698 0.063641176 0.021957109

layer2.2.weight f4 [32]
000000 49 ee 84 3f 84 72 83 3f f4 5a 8a 3f 00 b5 84 3f
       1.0385219 1.0269322 1.0809007 1.0367737
000010 95 d4 83 3f 1e 7e 83 3f d1 5d 61 3f 42 0a 78 3f
       1.029925 1.0272863 0.8803378 0.9689065
000020 7b 31 99 3f 82 0b 46 3f 11 01 61 3f ab e6 5c 3f
       1.1968225 0.7736131 0.8789225 0.8628947
000030 b9 75 8c 3f d5 18 8a 3f 8d f4 4b 3f 5c 7d 78 3f
       1.0973426 1.0788828 0.7967003 0.97066283
000040 df be 51 3f 08 f3 7c 3f 81 39 75 3f 12 4d 94 3f
       0.8193187 0.98808336 0.9579087 1.158602
000050 72 7c 80 3f 68 0c 81 3f 6e a6 89 3f 4d dd 50 3f
       1.0037978 1.0081911 1.0753915 0.8158768
000060 7a b8 80 3f 9d 74 56 3f 43 c5 8d 3f 51 85 af 3f
       1.0056298 0.8377169 1.1075824 1.371256
000070 39 61 5e 3f a5 32 88 3f f5 c1 8e 3f bd 82 47 3f
       0.868671 1.0640455 1.1152941 0.77933866

layer2.2.bias f4 [32]
000000 68 39 f6 3e 2c a8 98 3d a1 a7 7d 3d e5 a7 8c 3d
       0.48090672 0.07453951 0.06192744 0.06867961
000010 89 40 7a 3e 41 f5 b2 3d 13 76 c2 3d 65 ec 65 3d
       0.2443868 0.08738185 0.09495177 0.056133647
000020 fa b6 a6 3e aa 1e 1d be 4f 5b 1e 3d 4e 18 91 be
       0.32561475 -0.15343729 0.038661297 -0.28338856
000030 7f be 37 3d 48 19 be bd ce 7d 47 bd ad 4c 8a bd
       0.044859406 -0.09282166 -0.04870396 -0.06752906
000040 a3 54 81 bd 45 87 89 3d 3d da 48 bd 87 f8 4c 3e
       -0.06314971 0.06715254 -0.049036253 0.2001668
000050 d9 41 41 bd 51 09 2c 3e 04 a2 87 be 3f 39 14 be
       -0.047181938 0.16800429 -0.26490796 -0.14474963
000060 4e 69 f6 bc 78 5b 5e 3d 27 e9 00 3e 94 cf 52 3e
       -0.03007951 0.05428645 0.1258894 0.20586997
000070 81 78 01 bd b3 62 05 bd d0 4d b2 3d ad 76 bb 3d
       -0.031609062 -0.03256483 0.08706248 0.09153495

layer2.2.running_mean f4 [32]
000000 1a 39 52 3f 45 15 ba be 9e 83 4c 3f 5b e6 ae 3f
       0.8211838 -0.36344352 0.7988833 1.3664049
000010 a6 6a 45 bf 11 4c 49 3f 8c 9d 5a 3f f5 c2 0f bf
       -0.7711586 0.78631693 0.8539665 -0.56156856
000020 29 6a 9e 3f 1e cf d1 3e e2 32 15 3f 1a 9a 3d bf
       1.2376148 0.4097833 0.58280766 -0.74063265
000030 9d 4b 89 be 59 57 3e bf bb cc 48 bb d5 f8 02 be
       -0.268155 -0.7435203 -0.0030639607 -0.12790234
000040 5b 08 c3 3f d6 8e d6 3e 30 e6 c4 be 00 fb 38 3e
       1.5236925 0.4190585 -0.3845687 0.18064499
000050 8e 4a f1 be f9 18 87 bf 7c c7 93 3f 7c 41 0a bf
       -0.47127193 -1.0554496 1.1545253 -0.5400617
000060 58 a9 bf be f0 38 25 be 74 06 2b be 6a 4a 3b bf
       -0.37433887 -0.16135001 -0.1670168 -0.7316042
000070 b3 4b be be 10 49 f5 be 32 a9 19 be f8 dc 36 bf
       -0.3716713 -0.47907305 -0.15005949 -0.7143092

layer2.2.running_var f4 [32]
000000 3d 32 8c 3f 1f 6a 32 3f 2c 29 cd 3f 1c e0 06 40
       1.0952832 0.6969318 1.602819 2.1074286
000010 13 46 8d 3f b5 54 8a 3f 15 43 8b 3f a3 4f 19 3f
       1.103701 1.08071 1.0879847 0.5988714
000020 0a e9 96 3f fc d5 9e 3f aa 60 5b 3f 33 a5 4b 3f
       1.1789868 1.2409053 0.8569437 0.7954895
000030 33 f1 85 3f e9 cf 82 3f 54 86 06 3f 33 fa 57 3f
       1.0464233 1.0219699 0.5254872 0.8436615
000040 6e bf f3 3f 5b d9 5a 3f ec 1e 32 3f 11 c6 8f 3f
       1.9042795 0.8548791 0.69578433 1.123232
000050 fc 46 2b 3f 3c 3f 86 3f 3c ee 80 3f 14 32 83 3f
       0.6690519 1.0488048 1.0072703 1.0249658
000060 28 f4 10 3f 29 92 39 3f 65 50 d5 3e c2 e6 85 3f
       0.5662255 0.7248865 0.416629 1.0461047
000070 61 74 cf 3f 2c 69 65 3f c5 c1 56 3f 01 29 73 3f
       1.6207391 0.89613605 0.8388942 0.9498444
