models/clients/client-1/sub_model.pkl (torch, 42501 bytes, 27 tensors)

layer1_task.0.weight f4 [32, 3]
0	0xbe387ddc	-0.18016762
1	0xbd41c431	-0.047306243
2	0xbe4c93e3	-0.1997829
3	0xbd098bfa	-0.033580758
4	0xbc6c9d7e	-0.014441846
5	0x3d5ab9ce	0.053399853
6	0xbe86b921	-0.26313117
7	0x3e399007	0.18121348
8	0x3eb4ee33	0.35337982
9	0xbd8aeca6	-0.06783418
10	0x3db4d27a	0.08829208
11	0x3e1d7e0f	0.15380119
12	0xbe04a0db	-0.12951986
13	0xbeb2c1b9	-0.34913424
14	0x3e19a70f	0.15005134
15	0x3ca6ab48	0.020345345
16	0xbc34c8ab	-0.011034171
17	0x3e1abd3a	0.15111247
18	0xbe0cf6a6	-0.13765964
19	0xbdb30b51	-0.08742393
20	0x3db6b3d1	0.08921016
21	0xbe38890e	-0.18021032
22	0x3c806d46	0.015677106
23	0x3e1a07b3	0.15042
24	0xbe3d08da	-0.18460408
25	0x3f1648f0	0.58705044
26	0xbd88aba5	-0.066733636
27	0x3e27cdb1	0.16387059
28	0xbeedc4af	-0.4643912
29	0xbd1cc391	-0.038272444
30	0xbba81d51	-0.005130448
31	0xbd30f209	-0.043199573
32	0x3dd69bd2	0.10478939
33	0xbb142fe0	-0.0022611544
34	0x3ee8d6e2	0.45476443
35	0xbdcda0eb	-0.10040458
36	0xbeaa6815	-0.33282533
37	0xbe8553a0	-0.26040363
38	0x3dc7f648	0.09763771
39	0xbc4ac6e4	-0.012376521
40	0x3eaf64d5	0.34256616
41	0x3d9516b5	0.07279722
42	0x3cef3485	0.029199848
43	0xbe4f1b5c	-0.2022528
44	0xbe7917b0	-0.24325442
45	0x3d705486	0.058674358
46	0x3cc2d5ce	0.02378359
47	0x3e9616f2	0.2931438
48	0x3e75cf8d	0.24004956
49	0x3d4b6631	0.049658004
50	0x3ef97cbe	0.48727983
51	0xbe386ce6	-0.18010291
52	0xbe07705c	-0.13226455
53	0xbdf26eff	-0.11837577
54	0xbd1c4076	-0.038147412
55	0xbdf4e89e	-0.11958431
56	0x3daad48d	0.08341322
57	0x3dc0bf16	0.09411447
58	0xbe0b398b	-0.1359617
59	0x3da79c26	0.0818408
60	0xbf075d39	-0.5287662
61	0x3d81c914	0.06337181
62	0x3daa3d45	0.083124675
63	0x3e32bfd6	0.17455992
64	0xbe52561c	-0.2054066
65	0x3da28a7e	0.079365715
66	0x3df1306e	0.11776815
67	0xbce42ef1	-0.027854415
68	0x3b35883c	0.002769961
69	0xbe79f1cd	-0.24408646
70	0x3d510aa5	0.051035542
71	0x3d4759e4	0.04866971
72	0xbe19ead3	-0.15030985
73	0x3e1ed68c	0.1551153
74	0xbdf60a24	-0.12013653
75	0x3e1d4393	0.15357809
76	0x3e39ce2e	0.18145058
77	0xbe695ac6	-0.22788534
78	0x3e407d3b	0.18797772
79	0x3dc47dfe	0.095943436
80	0x3d2bc8fe	0.041939728
81	0xbe0cfc07	-0.13768016
82	0xbea4f5eb	-0.3221887
83	0x3c5d4670	0.013505563
84	0xbead4518	-0.33841777
85	0x3d935b65	0.071951665
86	0x3d2370a0	0.03990233
87	0x3e9188fd	0.28424826
88	0xbec82f38	-0.39098525
89	0x3d2ed53d	0.04268383
90	0x3d4db8ce	0.05022507
91	0x3cf0c409	0.029390352
92	0xbe915b9f	-0.28390214
93	0x3eb1559a	0.3463562
94	0xbf41b42e	-0.7566556
95	0x3e1b9fc0	0.15197659

layer1_task.0.bias f4 [32]
0	0xbe23080e	-0.15921041
1	0x3cc6df85	0.024276504
2	0xbe021836	-0.12704548
3	0xbe2047c1	-0.15652372
4	0xbc3a3d31	-0.011367128
5	0x3cec3318	0.028832957
6	0xbda00e6a	-0.07815249
7	0x3d3dd262	0.046343215
8	0xbdd574d0	-0.10422671
9	0x3cc33631	0.023829551
10	0xbd2b5f4b	-0.041838925
11	0x3d29f5ce	0.041494183
12	0xbbbd472a	-0.0057763057
13	0x3e3be7b1	0.18350102
14	0x3ce8edd6	0.028433722
15	0xbdcf63f0	-0.101264834
16	0x3d76803e	0.060180895
17	0xbdb5fd69	-0.08886225
18	0xbe04594d	-0.1292469
19	0xbd970885	-0.07374672
20	0x3d870afc	0.06593892
21	0xbda3aec1	-0.07992316
22	0x3c457c9d	0.012053636
23	0xbd2d37e8	-0.042289644
24	0x3c73c84c	0.014879297
25	0xbd92c801	-0.07167054
26	0x3ba01e04	0.0048863906
27	0x3bc00a01	0.0058605676
28	0xbc8d52f7	-0.017251475
29	0x3e15f56e	0.14644405
30	0xbb3b905d	-0.0028619983
31	0xbcba9f2c	-0.022780977

layer1_task.2.weight f4 [32]
0	0x3f8fe8d2	1.1242926
1	0x3f972e85	1.1811072
2	0x3f8fa67b	1.1222681
3	0x3f85e610	1.0460835
4	0x3f53106c	0.8244693
5	0x3f7cf99c	0.98818374
6	0x3f8c305f	1.0952262
7	0x3f9443cf	1.1583194
8	0x3f714d62	0.942587
9	0x3f628658	0.8848624
10	0x3f5943b1	0.84868914
11	0x3f6d9206	0.9280094
12	0x3f8d7936	1.1052616
13	0x3f821c17	1.0164822
14	0x3f896d8a	1.0736554
15	0x3f163fe3	0.58691233
16	0x3f806305	1.0030218
17	0x3fa0b096	1.255389
18	0x3f880a79	1.0628196
19	0x3f69da49	0.913487
20	0x3f8cc2b0	1.0996914
21	0x3f8035e5	1.0016447
22	0x3f7419b1	0.953517
23	0x3f75193a	0.9574162
24	0x3f4d90bd	0.8029898
25	0x3f84b2b7	1.036704
26	0x3f8446b0	1.0334072
27	0x3f86c79e	1.0529668
28	0x3f8654fd	1.0494686
29	0x3f5b2b51	0.8561297
30	0x3f821e2c	1.0165458
31	0x3f6eeb8d	0.9332817

layer1_task.2.bias f4 [32]
0	0xbde8131f	-0.11331772
1	0x3e07023c	0.13184446
2	0x3e24bcb8	0.16087615
3	0xbcea3c31	-0.028593155
4	0x3d04a454	0.032383278
5	0x3e668a98	0.22513807
6	0x3da20aac	0.07912192
7	0x3d4531dd	0.048143256
8	0x3e418bcc	0.18900985
9	0x3d4312e2	0.04762543
10	0xbd96e54a	-0.07367952
11	0x3e404300	0.18775558
12	0xbddbd153	-0.10733285
13	0x3df66cbc	0.12032458
14	0xbde735fa	-0.11289592
15	0xbcca6eed	-0.024711097
16	0x3d9c09d1	0.0761906
17	0x3d1b1647	0.037863042
18	0xb9899a40	-0.00026245601
19	0x3d4b2605	0.049596805
20	0xbe2e14b6	-0.17000088
21	0x3b5ef723	0.0034021817
22	0x3d8616da	0.06547327
23	0x3dc96630	0.09833944
24	0x3d4ac442	0.049503572
25	0xbdfb9b10	-0.12285435
26	0xbe2fc7a1	-0.17165996
27	0xbc12a19f	-0.008949666
28	0x3d034c15	0.03205498
29	0x3d94421a	0.0723917
30	0xbc4948a8	-0.012285389
31	0xbdf11a6e	-0.11772619

layer1_task.2.running_mean f4 [32]
0	0xc6379b66	-11750.85
1	0xc4ebddf0	-1886.9355
2	0xc687fa6c	-17405.21
3	0xc58e18b6	-4547.089
4	0xc607414f	-8656.327
5	0x44d773e2	1723.6213
6	0xc609e651	-8825.579
7	0xc6423d2a	-12431.291
8	0xc6372fd0	-11723.953
9	0x4626a6e0	10665.719
10	0xc475a7f0	-982.624
11	0x420e1f8e	35.530815
12	0xc6a5dac7	-21229.389
13	0xc455f7eb	-855.8737
14	0x450194b0	2073.293
15	0x458967a0	4396.953
16	0x4677c6a9	15857.665
17	0xc6265a24	-10646.535
18	0xc523dc3e	-2621.7651
19	0x45bcf796	6046.948
20	0xc7051b74	-34075.453
21	0x46337649	11485.571
22	0x45dd77cf	7086.976
23	0xc67673ed	-15772.981
24	0xc62338a8	-10446.164
25	0x462300d5	10432.208
26	0x463d749d	12125.153
27	0xc60ef860	-9150.094
28	0xc6abee8f	-22007.28
29	0x46906068	18480.203
30	0x45425507	3109.3142
31	0x46b2b5e6	22874.95

layer1_task.2.running_var f4 [32]
0	0x4ccfb7bb	1.08903896e+08
1	0x4a23d8fc	2.684479e+06
2	0x4d517bd6	2.1965962e+08
3	0x4b69071b	1.5271707e+07
4	0x4c4ff5e7	5.4515612e+07
5	0x4a0fb135	2.3542532e+06
6	0x4c6bd2d1	6.1819716e+07
7	0x4cdce670	1.158153e+08
8	0x4cc54c2c	1.0344074e+08
9	0x4ca18b1e	8.469528e+07
10	0x4940d8cb	789900.7
11	0x46dca892	28244.285
12	0x4da8c734	3.539534e+08
13	0x490b3643	570212.2
14	0x4a4110a4	3.163177e+06
15	0x4b5568de	1.3986014e+07
16	0x4d33b6d1	1.8844392e+08
17	0x4cb05419	9.244692e+07
18	0x4a9bb95e	5.102767e+06
19	0x4bd8d1c4	2.8418952e+07
20	0x4e505b0d	8.73907e+08
21	0x4cb861ac	9.666902e+07
22	0x4c0fd54f	3.770502e+07
23	0x4d311272	1.856735e+08
24	0x4c9c39e1	8.1907464e+07
25	0x4ca1363b	8.452143e+07
26	0x4ce0047b	1.1744969e+08
27	0x4c70c1c4	6.3112976e+07
28	0x4dafc184	3.6858688e+08
29	0x4d7fe4e3	2.683244e+08
30	0x4ae3b306	7.461251e+06
31	0x4dbbab74	3.9357197e+08

layer1_1vm.0.weight f4 [64, 40]
0	0xbd0afe12	-0.033933707
1	0x3e6081c7	0.21924506
2	0x39f53789	0.00046771418
3	0x3d8b525c	0.06802818
4	0x3e0e496c	0.13895196
5	0xbdc9f234	-0.0986065
6	0x3d6efb86	0.05834534
7	0xbe7fc17f	-0.24976157
8	0xbe1c63e6	-0.15272483
9	0xbc66e887	-0.014093525
10	0xbdf18b47	-0.11794143
11	0xbe18dced	-0.14928026
12	0xbd9ab07c	-0.07553193
13	0xbc8e0496	-0.017336171
14	0xbe45cba9	-0.19315971
15	0x3e8cf103	0.27527627
16	0x3d93c427	0.072151475
17	0x3cebbeda	0.028777529
18	0xbc71e6d0	-0.014764503
19	0xbd8e9df3	-0.0696372
20	0x3e8b51ae	0.27210754
21	0x3cecabef	0.028890578
22	0x3e8beee6	0.27330703
23	0x3d405efb	0.04696558
24	0xbe1a9949	-0.15097536
25	0x3cece331	0.028916927
26	0xbc1e4730	-0.009660527
27	0xbe000bc4	-0.12504488
28	0xbe765126	-0.24054393
29	0xbeadb44b	-0.33926615
30	0xbe2b1662	-0.16707757
31	0xbc120774	-0.00891291
32	0x3b2b4b86	0.0026137545
33	0xbe03a50f	-0.12855934
34	0x3dcf6fe1	0.10128761
35	0xbb53adc7	-0.0032299624
36	0xba2219be	-0.00061836455
37	0x3d7992e0	0.060931087
38	0x3e5b0f9f	0.21392678
39	0x3c4e5607	0.012593753
40	0xbe7f98c9	-0.24960627
41	0xbebe1a7c	-0.3712958
42	0xbcba4dcf	-0.02274218
43	0x3ea04d0c	0.31308782
44	0x3e0549eb	0.13016479
45	0x3dc1dc52	0.09465851
46	0xbd80f304	-0.062963516
47	0xbd921fc8	-0.07134968
48	0xbf01cbee	-0.50701797
49	0xbe4221cc	-0.18958205
50	0xbdb92dcf	-0.090419404
51	0xbe386612	-0.18007687
52	0x3ec0489e	0.37555403
53	0x3e691e03	0.22765355
54	0xbdacf587	-0.08445268
55	0xbdfafcda	-0.12255259
56	0x3e68477b	0.22683518
57	0x3e2905cb	0.16506116
58	0x3e0ba7c5	0.13638218
59	0x3dd0f5f7	0.10203164
60	0xbdc6030f	-0.09668552
61	0xbe0ed35f	-0.13947819
62	0xbcd60b63	-0.026128476
63	0x3e651265	0.22370298
64	0xbe24eea3	-0.16106658
65	0xbde8a819	-0.11360187
66	0xbe1eebdd	-0.15519662
67	0x3e639bcd	0.22227402
68	0x3e342bba	0.17594805
69	0xbeab1784	-0.33416378
70	0x3abc72bc	0.0014377455
71	0xbd41181b	-0.04714213
72	0x3df2eda2	0.11861731
73	0x3dae10d6	0.08499305
74	0x3e105b28	0.14097273
75	0x3d921437	0.07132762
76	0xbda4af74	-0.080412775
77	0x3e8c54f6	0.2740857
78	0x3d22cfc6	0.03974893
79	0x3cedd60a	0.029032726
80	0xbd4b9f84	-0.049712673
81	0xbe204060	-0.15649557
82	0xbe3b0ead	-0.18267317
83	0xbc62b713	-0.013837594
84	0xbe645939	-0.2229966
85	0x3e40e63f	0.18837832
86	0x3d54466a	0.051824965
87	0x3e14a34f	0.14515422
88	0xbd8d2655	-0.06892077
89	0xbebfc5e0	-0.37455654
90	0xbd21ac53	-0.03947098
91	0x3e1ee55d	0.15517183
92	0xbdf32719	-0.11872692
93	0x3dcb77bd	0.09934948
94	0xbe0e34de	-0.13887355
95	0x3d40c52a	0.04706303
96	0xbdb77c3d	-0.089592434
97	0x3e31dae3	0.17368655
98	0xbde3bbc9	-0.111198016
99	0x3e63373a	0.22189036
100	0x3dea0761	0.11427189
101	0x3b5d7034	0.0033788802
102	0x3d86ded4	0.0658547
103	0xbe33e5db	-0.17568152
104	0x3e6eca5f	0.23319386
105	0x3e4d3329	0.20039047
106	0xbe506e3e	-0.20354554
107	0x3e7e52a2	0.2483621
108	0x3c217440	0.009854376
109	0xbdda17ab	-0.106490456
110	0xbe29e5ca	-0.16591564
111	0xbdaf12e3	-0.08548524
112	0x3d839d5d	0.06426499
113	0xbe33b201	-0.17548372
114	0x3ed271d6	0.41102475
115	0x3e734c60	0.23759604
116	0xbd7a2000	-0.061065674
117	0x3d034dfb	0.03205679
118	0xbe77c1ea	-0.24195066
119	0xbe8c121b	-0.27357563
120	0xbe2f8f4e	-0.1714451
121	0x3b7e9df1	0.0038851465
122	0xbb694ae4	-0.0035597617
123	0x3dccf378	0.100073755
124	0x3d9f3b90	0.077750325
125	0x3dc3047f	0.09522342
126	0xbcf7e7df	-0.030261932
127	0xbc479bd8	-0.012183152
128	0xbe2dee44	-0.16985422
129	0xbc9080e7	-0.01763959
130	0xbe7572ea	-0.23969617
131	0x3d8980cc	0.06714019
132	0xbe037b9f	-0.12840126
133	0xbdbf4fcc	-0.09341392
134	0x3d9885b3	0.07447376
135	0xbe9381a2	-0.2880984
136	0xbcb48817	-0.022037549
137	0x3b130112	0.0022431058
138	0x3e147edb	0.14501517
139	0x3e38df71	0.18053986
140	0xbe02a8ea	-0.12759748
141	0x3b163c3c	0.0022924086
142	0xbbc7b587	-0.006094638
143	0xbda8caf6	-0.08241837
144	0x3ca44eac	0.020057045
145	0x3dfa7830	0.12229955
146	0x3e1213f2	0.14265421
147	0x3e200b96	0.1562942
148	0x3e4532b1	0.19257618
149	0x3eaad75e	0.33367437
150	0x3dd6641e	0.104683146
151	0x3d96013d	0.07324455
152	0xbeb58694	-0.35454237
153	0xbe9c3149	-0.30506352
154	0xbe8c1138	-0.27356887
155	0xbe765076	-0.24054131
156	0xbdac7d5c	-0.08422348
157	0x3e064780	0.13113213
158	0xbedb05d5	-0.42777887
159	0x3e766f99	0.24066009
160	0xbda41a28	-0.080128014
161	0xbdc379f3	-0.09544744
162	0xbe363eb3	-0.17797355
163	0xbe6226c7	-0.22085105
164	0xbe98d62f	-0.2985091
165	0xbe5b8a57	-0.21439491
166	0x394b97a6	0.00019416082
167	0x3de4ab99	0.11165542
168	0x3dfa0fb8	0.12210029
169	0x3e229fc5	0.1588126
170	0x3e4f6283	0.20252423
171	0xbe5f0a45	-0.21781261
172	0x3e273825	0.16330011
173	0x3e12c748	0.14333832
174	0xbe3037e9	-0.17208828
175	0xbdb4934f	-0.088171594
176	0x3b9cf4db	0.0047899312
177	0xbd54c59e	-0.051946275
178	0x3dfe9050	0.12429869
179	0x3dfd9bd8	0.123832405
180	0xbcefadbf	-0.029257653
181	0xbea5576d	-0.32293263
182	0xbd92e380	-0.071722984
183	0x3e80681e	0.25079435
184	0x3e724a43	0.23661141
185	0xbe1b49b8	-0.1516484
186	0x3e56dea2	0.20983365
187	0x3b3edbff	0.0029122827
188	0xbebe5c77	-0.3717992
189	0x3d925bcd	0.07146416
190	0x3d9238c9	0.07139737
191	0x3e43429a	0.19068375
192	0x3e5e1ad2	0.21689919
193	0x3e382131	0.17981412
194	0x3db4a8bf	0.08821248
195	0x3e53715f	0.20648716
196	0xbda68ec6	-0.081327006
197	0x3d9c167e	0.076214775
198	0x3d8cbe93	0.06872287
199	0x3e219ec9	0.15783228
200	0xbe489351	-0.19587447
201	0xbc07a093	-0.00827803
202	0x3e71c9a3	0.23612075
203	0x3e235539	0.15950479
204	0x3e95f266	0.29286498
205	0x3cd5a8b4	0.02608142
206	0x3aa8836e	0.0012856552
207	0x3ca2be7c	0.01986622
208	0x3e1b3647	0.15157424
209	0x3d3354ca	0.043782033
210	0xbdbea549	-0.093088694
211	0xbe8f9a30	-0.28047323
212	0xbe17a924	-0.14810616
213	0x3d45d629	0.048299942
214	0x3d0a0cce	0.033703618
215	0x3edad266	0.42738646
216	0x3ea9903c	0.33117855
217	0x3e475ec8	0.1946975
218	0xbdbd55de	-0.092448935
219	0x3dfbaeac	0.122891754
220	0xbd3db058	-0.046310753
221	0x3e179319	0.14802207
222	0xbdd308d0	-0.10304415
223	0x3ebacf83	0.36486444
224	0x3e784cc5	0.24248035
225	0xbe270b32	-0.16312864
226	0x3d297c5d	0.041378368
227	0x3da29d95	0.07940213
228	0x3dd56f07	0.104215674
229	0xbea93ea8	-0.33055615
230	0xbdc983ce	-0.09839593
231	0x3dbf8250	0.09351027
232	0xb6057c80	-1.9891013e-06
233	0xbec0065f	-0.3750486
234	0x3dc8c57b	0.098032914
235	0xbdf09811	-0.11747754
236	0x3ca29177	0.019844754
237	0xbd8f0d8e	-0.06985007
238	0x3e3c3842	0.18380836
239	0x3e5bb02a	0.2145392
240	0xbe3f4ac7	-0.18680869
241	0xbe12e549	-0.14345278
242	0xbdf7bb23	-0.1209624
243	0x3cab1ca8	0.020887688
244	0x3dd8919f	0.1057465
245	0xbe0fe48b	-0.14052026
246	0xbdf8e5ba	-0.12153192
247	0x3d0b21b5	0.033967692
248	0x3e18f583	0.14937405
249	0x3e1cb90b	0.15304963
250	0xbe212fa5	-0.15740831
251	0x3e940a92	0.28914315
252	0xbe5906eb	-0.21194045
253	0x3d964405	0.073371924
254	0xbe1756d3	-0.14779215
255	0x3e9d9b28	0.30782437

layer1_1vm.0.bias f4 [64]
0	0xbd291607	-0.041280773
1	0x3c03baa4	0.008040104
2	0xbd20c7bb	-0.039252978
3	0xbdddb311	-0.1082517
4	0xbd0cfb2c	-0.034419224
5	0xbc928c37	-0.017889125
6	0xbe3f8496	-0.18702921
7	0x3d7b23e8	0.06131354
8	0xbda93d95	-0.08263699
9	0x3e28cbbd	0.1648397
10	0x3d9876dc	0.074445456
11	0x3e717a01	0.23581697
12	0xbdd76f9d	-0.105193354
13	0xbcb360d1	-0.021896752
14	0xbd4a9d01	-0.049466137
15	0x3bc04eef	0.0058687846
16	0xbdac2d5e	-0.084070906
17	0x3c99764c	0.018733166
18	0x3da0284d	0.07820187
19	0xbc6d1efe	-0.014472721
20	0x3d97a1e8	0.07403928
21	0xbc9eee05	-0.019400606
22	0xbd1e1fe0	-0.038604617
23	0x3d55351c	0.052052602
24	0x3ceb0d23	0.028692788
25	0xbdf5fa19	-0.12010593
26	0xbd0b8af2	-0.034068055
27	0xbc979f3c	-0.018508546
28	0x3d4e314f	0.050339993
29	0xbe1bf070	-0.15228438
30	0xbd662ef8	-0.056197137
31	0xbd4f9f06	-0.050688766
32	0x3e60cc46	0.21952924
33	0x3de6b009	0.11264045
34	0x3e1af8a3	0.1513391
35	0xbdf64d8d	-0.120265104
36	0xbddda0cc	-0.10821685
37	0x3d9b1610	0.075725675
38	0x3e24e626	0.1610342
39	0x3e92ba30	0.28657675
40	0xbafdb370	-0.0019355845
41	0x3df923a3	0.12165
42	0x3dd2ff88	0.10302645
43	0xbd2487be	-0.040168516
44	0xbd83f0c9	-0.064424105
45	0xbd78a843	-0.060707342
46	0xbe80a3c9	-0.25124958
47	0xbe06965e	-0.13143298
48	0xbe23e210	-0.16004205
49	0xbe6309e6	-0.22171745
50	0xbe097889	-0.13424887
51	0xbdbe2807	-0.09284978
52	0xbda1f650	-0.079083085
53	0x3d77b706	0.06047728
54	0x3dfbc6ac	0.12293753
55	0xbd449bb1	-0.04800004
56	0x3e57f3b5	0.2108906
57	0xbe3b7f2e	-0.18310234
58	0x3dbe1e67	0.092831425
59	0x3dfd52d6	0.12369315
60	0xbd8f8c9f	-0.07009243
61	0x3de92073	0.11383142
62	0x3e88c696	0.2671401
63	0xbc8fcdb8	-0.017554149

layer1_1vm.2.weight f4 [64]
0	0x3f389817	0.7210707
1	0x3f5bc304	0.85844445
2	0x3f3b04a4	0.73053956
3	0x3f86f8c2	1.0544665
4	0x3f78a85c	0.97131896
5	0x3f6583a5	0.89654
6	0x3f86848a	1.0509198
7	0x3f855a59	1.0418197
8	0x3f7d8fb0	0.99047375
9	0x3f578b76	0.84197176
10	0x3f8d9170	1.1060009
11	0x3f8d8414	1.1055932
12	0x3f7721c1	0.9653588
13	0x3f58c914	0.8468182
14	0x3f8b6f7e	1.08934
15	0x3f3c48db	0.7354867
16	0x3f69ec3b	0.91376084
17	0x3f97767d	1.1833035
18	0x3f419b97	0.75628036
19	0x3f604170	0.8759985
20	0x3f61a240	0.881382
21	0x3f6dcd9b	0.92891854
22	0x3f8e5a49	1.1121303
23	0x3f83603c	1.0263743
24	0x3f5ede38	0.8705783
25	0x3f86a26a	1.0518315
26	0x3f63be15	0.8896192
27	0x3f88dcb7	1.0692357
28	0x3f88b10b	1.0679029
29	0x3f9bd0fe	1.2173154
30	0x3f89f05f	1.077648
31	0x3f89abc9	1.075555
32	0x3f67cfdc	0.90551543
33	0x3f756de8	0.9587083
34	0x3f7644f2	0.9619895
35	0x3f74e0cb	0.95655507
36	0x3f9670e8	1.1753206
37	0x3f6f5733	0.9349243
38	0x3f6e08f3	0.92982405
39	0x3f81180c	1.0085464
40	0x3f91154d	1.1334625
41	0x3f6e389e	0.9305514
42	0x3f877488	1.0582438
43	0x3f8e6a54	1.1126199
44	0x3f88c1a5	1.0684096
45	0x3f89af4e	1.0756624
46	0x3f4bb5ae	0.79574096
47	0x3f7dc44e	0.9912766
48	0x3f4545b4	0.77059484
49	0x3f5fb9f4	0.87393117
50	0x3f62601f	0.8842792
51	0x3f8037f1	1.0017072
52	0x3f6c0850	0.92200184
53	0x3f6d4b57	0.92693084
54	0x3f68ac21	0.9088765
55	0x3f6c34ad	0.92267877
56	0x3f674e26	0.9035362
57	0x3f89b43c	1.0758128
58	0x3fa2bf86	1.2714698
59	0x3f82cf2a	1.0219471
60	0x3f831a6f	1.0242442
61	0x3f6535b4	0.8953507
62	0x3f90ad5f	1.1302909
63	0x3f6728a7	0.90296406

layer1_1vm.2.bias f4 [64]
0	0x3de81fe6	0.11334209
1	0xbe2509e6	-0.16117057
2	0xbdb0c61b	-0.086315356
3	0xbe79b614	-0.24385864
4	0xbda70fbe	-0.081572995
5	0x3c448f0a	0.011996994
6	0x3a9a9041	0.0011792259
7	0x3e3965e9	0.18105282
8	0xbe0702bf	-0.13184641
9	0x3e12c462	0.14332727
10	0xbe02ec2f	-0.1278541
11	0x3c8c9e2e	0.01716527
12	0x3bf8b306	0.0075897006
13	0x397b0fa4	0.00023943052
14	0xbca7f512	-0.0205026
15	0x3e0fdae9	0.14048351
16	0xbd6261bc	-0.055268988
17	0xbd9315f2	-0.0718192
18	0x3e1938ec	0.1496312
19	0xbd78bcbe	-0.060726874
20	0x3d9686e1	0.07349945
21	0xbca21048	-0.019783154
22	0x3becbf30	0.0072249398
23	0xbc685df5	-0.014182557
24	0xbcdf85f9	-0.027285563
25	0x3e075359	0.13215388
26	0xbe07a2f2	-0.13245752
27	0x3d599532	0.0531208
28	0x3d1cbb30	0.038264453
29	0xbd5b3172	-0.05351395
30	0x3d7835bd	0.060598124
31	0x3d9bc94d	0.076067545
32	0xbc90c3f9	-0.017671572
33	0xbe40763e	-0.18795106
34	0xbc03ac38	-0.008036666
35	0x3dd07434	0.10178414
36	0xbd9fd902	-0.07805063
37	0xbd8ceb57	-0.06880825
38	0x3d4e88a1	0.05042327
39	0x3e2bec43	0.16789345
40	0xbe310678	-0.17287624
41	0x3e262158	0.16223657
42	0xbc358b38	-0.011080556
43	0xbc65f234	-0.0140347965
44	0xbdb3645a	-0.08759375
45	0x3e5b6ce0	0.21428251
46	0xbc989497	-0.01862554
47	0x3d6fa464	0.058506384
48	0x3e55d1c8	0.20880806
49	0x3cc72e2a	0.024314005
50	0x3d6379b7	0.055536
51	0xbd220839	-0.039558623
52	0xbda97301	-0.082738884
53	0x3e5474fa	0.20747748
54	0xbcfe7500	-0.03106165
55	0x3e51330a	0.20429626
56	0xbd1207f4	-0.035652116
57	0x3cb2401f	0.021759091
58	0x3d930b54	0.07179895
59	0xbdc63792	-0.09678568
60	0xbe0f5bf1	-0.13999917
61	0xbd02ed23	-0.031964432
62	0xbd3e79ea	-0.046502985
63	0xbcd1226b	-0.025529107

layer1_1vm.2.running_mean f4 [64]
0	0x489d30ce	321926.44
1	0xc90736cd	-553836.8
2	0xc8944bc8	-303710.25
3	0x46155c8d	9559.138
4	0xc5959c52	-4787.54
5	0xc74a5b59	-51803.348
6	0xc88c616b	-287499.34
7	0xc8113665	-148697.58
8	0xc6ec621e	-30257.059
9	0xc89efdbc	-325613.88
10	0x48bb4db0	383597.5
11	0x487941ac	255238.69
12	0xc922aac4	-666284.25
13	0xc7e5584f	-117424.62
14	0xc7c64f8f	-101535.12
15	0x4813dfc4	151423.06
16	0x47f906a5	127501.29
17	0xc88bf171	-286603.53
18	0x4831746d	181713.7
19	0xc84a9f37	-207484.86
20	0xc754c86e	-54472.43
21	0xc89ac620	-316977.0
22	0x4707832e	34691.18
23	0xc820c72c	-164636.69
24	0xc52dca00	-2780.625
25	0xc8210aaa	-164906.66
26	0xc5e83858	-7431.043
27	0x4847d85c	204641.44
28	0x46cb58c6	26028.387
29	0xc88df8ef	-290759.47
30	0xc81f12b8	-162890.88
31	0xc8216b8e	-165294.22
32	0x47ef36f2	122477.89
33	0xc9216052	-660997.1
34	0x47a6a9d1	85331.63
35	0xc76edbf3	-61147.95
36	0x48812a82	264532.06
37	0xc8d33413	-432544.6
38	0x47ab8d4b	87834.586
39	0x47360104	46593.016
40	0xc633e773	-11513.862
41	0x489d2b28	321881.25
42	0xc851671e	-214428.47
43	0x484385ea	200215.66
44	0x4821e7c0	165791.0
45	0x48836a1d	269136.9
46	0x4882d89d	267972.9
47	0x488471d2	271246.56
48	0x48238838	167456.88
49	0x480a1dea	141431.66
50	0xc80a3b5e	-141549.47
51	0xc868231b	-237708.42
52	0xc762bf2f	-58047.184
53	0x484d2a68	210089.62
54	0x486a62f6	240011.84
55	0xc6bae000	-23920.0
56	0x48fd5290	518804.5
57	0xc894c340	-304666.0
58	0x48ff154a	522410.3
59	0xc8cb5657	-416434.72
60	0x488e6f50	291706.5
61	0x482fabc6	179887.1
62	0xc88ff66e	-294835.44
63	0x4851cb8e	214830.22

layer1_1vm.2.running_var f4 [64]
0	0x50d6572a	2.8768293e+10
1	0x519d3437	8.4398236e+10
2	0x50b0ccf6	2.3729779e+10
3	0x4be19666	2.9568204e+07
4	0x4bae2236	2.2824044e+07
5	0x4e2f3f71	7.350426e+08
6	0x50a3737a	2.1938033e+10
7	0x4f9e7c40	5.317886e+09
8	0x4d664a4c	2.414768e+08
9	0x50bd2e8e	2.5391559e+10
10	0x5103eeda	3.54155e+10
11	0x507fcfc4	1.7167225e+10
12	0x51cbc9b3	1.0940779e+11
13	0x4f4728ba	3.341335e+09
14	0x4f20469c	2.688982e+09
15	0x4fa2801e	5.4526106e+09
16	0x4f68f334	3.9082527e+09
17	0x50a60af7	2.2285892e+10
18	0x4fe8f809	7.8171387e+09
19	0x501bedff	1.0464263e+10
20	0x4e3fc314	8.043082e+08
21	0x50bac5c5	2.5068186e+10
22	0x4d97fc1c	3.1873523e+08
23	0x4fce3568	6.919213e+09
24	0x4b271f35	1.0952501e+07
25	0x4fc3ce04	6.570117e+09
26	0x4c16f304	3.957045e+07
27	0x501f2090	1.0678845e+10
28	0x4d36a33a	1.915094e+08
29	0x5091b5d9	1.9556911e+10
30	0x4fced486	6.940069e+09
31	0x4fcc56f5	6.856502e+09
32	0x4f67824d	3.8840763e+09
33	0x51c3c208	1.0509674e+11
34	0x4ed54c9f	1.7892842e+09
35	0x4e7859a4	1.04165606e+09
36	0x506a6043	1.5728709e+10
37	0x51281f0d	4.5129716e+10
38	0x4efc9b38	2.1190154e+09
39	0x4de94d8d	4.892717e+08
40	0x4c32c91e	4.6867576e+07
41	0x50c90282	2.6979078e+10
42	0x5033b365	1.2059514e+10
43	0x50135800	9.888072e+09
44	0x4fc621b2	6.648194e+09
45	0x5080aa68	1.7269211e+10
46	0x50883bc7	1.8284952e+10
47	0x50904d57	1.9367901e+10
48	0x4fdf011c	7.482784e+09
49	0x4f8a7e68	4.64708e+09
50	0x4f99c69f	5.159862e+09
51	0x5054860d	1.426222e+10
52	0x4e56672a	8.992713e+08
53	0x5023aef1	1.0984605e+10
54	0x505d7734	1.4862307e+10
55	0x4d2791a1	1.7570869e+08
56	0x517d7396	6.803537e+10
57	0x50abf1c4	2.3077986e+10
58	0x517fa10f	6.8619923e+10
59	0x51271a56	4.4856336e+10
60	0x509b4035	2.083741e+10
61	0x4ff6c90c	8.280742e+09
62	0x509e909e	2.1282222e+10
63	0x502c5653	1.1565354e+10

layer1_2vm.0.weight f4 [32, 64]
0	0x3e817de8	0.2529137
1	0x3d2bcf61	0.04194582
2	0x3aba02ca	0.0014191505
3	0xbdb71dad	-0.08941207
4	0x3e7443c9	0.23853983
5	0x3d87a961	0.06624103
6	0x3d5596db	0.05214582
7	0xbe40b8a8	-0.18820441
8	0xbd9d5b38	-0.07683414
9	0xbd604841	-0.054756407
10	0x3d80a2ad	0.06281028
11	0x3c988be8	0.0186214
12	0x3e66ef3d	0.225522
13	0xbe012a83	-0.12613873
14	0x3e9734a2	0.29532343
15	0xbd32d240	-0.04365754
16	0x3d088699	0.033331487
17	0xbcc39c3c	-0.02387821
18	0x3e35ef1b	0.17766993
19	0xbd627039	-0.055282805
20	0xbd705b30	-0.058680713
21	0xbe9ccee7	-0.30626604
22	0xbd1800bb	-0.03711007
23	0x3cc8f659	0.02453153
24	0xbdcac7b7	-0.09901374
25	0xbd889403	-0.06668856
26	0xbc859dfe	-0.016310688
27	0x3c3fd49f	0.011708408
28	0xbe05b6ff	-0.13058089
29	0xbe3dd471	-0.18538071
30	0x3e5aa852	0.21353272
31	0xbe4d5173	-0.20050602
32	0x3d9ad6c7	0.07560497
33	0x3ea4af2a	0.3216489
34	0x3dbd5f3c	0.0924668
35	0xbd9d154a	-0.07670076
36	0xbe6f2cd6	-0.23356947
37	0x3e6e895a	0.23294583
38	0xbdadf8fd	-0.08494756
39	0x3d926ced	0.07149682
40	0x3c4f7565	0.012662266
41	0x3e1cbb06	0.15305719
42	0xbde9bb17	-0.11412638
43	0x3e94f4be	0.29092973
44	0xbdde0265	-0.108403005
45	0x3e1219c3	0.1426764
46	0x3d0f3f53	0.0349725
47	0x3d94dd4e	0.07268773
48	0xbde6d3c3	-0.11270859
49	0x3ddba6f2	0.10725202
50	0xbca5ac0f	-0.020223645
51	0xbd921380	-0.071326256
52	0x3d0ec428	0.034855038
53	0xbd2fae0d	-0.042890597
54	0x3d92d450	0.07169402
55	0xbe33a807	-0.17544566
56	0xbd897e96	-0.067135975
57	0x3e0d48ff	0.13797377
58	0xbd69ed47	-0.05711105
59	0xbe46e166	-0.1942192
60	0x3e293209	0.16522993
61	0xbe32f049	-0.17474474
62	0xbea1ddc0	-0.31614494
63	0xbde1dad9	-0.1102807
64	0x3d972bec	0.07381424
65	0x3e289dd0	0.1646645
66	0x3e840cc8	0.25791
67	0xbc7db49f	-0.015484958
68	0x3d9a5cf2	0.07537259
69	0x3de2d36d	0.110754825
70	0xbef8114a	-0.4845069
71	0xbde0987f	-0.10966586
72	0xbc76ae3d	-0.01505619
73	0xbd825920	-0.063646555
74	0x3e9616ec	0.29314363
75	0x3cafba93	0.02145127
76	0xbe616448	-0.2201091
77	0xbe0736a0	-0.13204432
78	0xbe60ad0c	-0.21941012
79	0xbe4eb3a2	-0.20185712
80	0xbe4af85e	-0.19821307
81	0xbc3b6ff3	-0.011440265
82	0x3ef31fa2	0.4748507
83	0x3ea3e479	0.32010248
84	0xbf08ff53	-0.53514594
85	0xbcc4e801	-0.02403641
86	0xbe264e42	-0.1624079
87	0x3e09e966	0.1346794
88	0x3cf101b8	0.029419765
89	0xbdda9d22	-0.10674502
90	0x3cd61805	0.0261345
91	0x3c4c0e7e	0.012454627
92	0x3e34fbc1	0.17674161
93	0x3ce261ae	0.027634468
94	0xbe71e9b4	-0.23624307
95	0x3e9e4fd8	0.3092029
96	0x3d4352ab	0.04768626
97	0xbe239c8a	-0.15977684
98	0xbe892fe4	-0.2679435
99	0xbe9bc69a	-0.30424958
100	0x3ddf5d32	0.109064475
101	0xbe4accc1	-0.1980467
102	0xbe19f8c8	-0.15036309
103	0xbe56f849	-0.20993151
104	0x3857c240	5.1440904e-05
105	0xbd37b88e	-0.04485374
106	0xbe200634	-0.15627366
107	0xbe8bd9c0	-0.27314568
108	0xbbc71244	-0.0060751755
109	0xbdf97bf8	-0.12181848
110	0xbe367ba2	-0.178206
111	0x3e6422eb	0.22278945
112	0xbe471989	-0.19443335
113	0xbd3399ea	-0.043847956
114	0xbc718114	-0.014740247
115	0xbb665efe	-0.0035151835
116	0xbd52c6eb	-0.051459234
117	0xbe839354	-0.2569834
118	0xbda6d10f	-0.081453435
119	0x3e212d02	0.15739825
120	0xbdc69be6	-0.09697704
121	0xbdb00980	-0.08595562
122	0x3d827cc1	0.06371451
123	0x3d244c34	0.040111735
124	0x3bd1ba35	0.0064003714
125	0xbd2e260a	-0.042516746
126	0x3eda54d0	0.42642832
127	0x3da909f2	0.0825385
128	0xbe6d3e5c	-0.2316832
129	0xbc0df4ab	-0.00866429
130	0xbd7d49d2	-0.06183798
131	0x3d27be2a	0.04095284
132	0x3d10c0d4	0.035340145
133	0x3e4f06c2	0.20217422
134	0xbecbaddb	-0.3978108
135	0xbe8cf579	-0.2753103
136	0x3eaab280	0.3333931
137	0xbd1395b6	-0.036031447
138	0x3e4bd889	0.1990682
139	0xbe52d4c7	-0.2058898
140	0xbea111ae	-0.314588
141	0x3e846474	0.2585789
142	0x3e4b95d7	0.19881378
143	0x3e167d87	0.14696322
144	0x3e5275ed	0.20552798
145	0x3e9c4e2e	0.30528396
146	0xbe290737	-0.16506658
147	0xbe81d41f	-0.25357148
148	0xbe4cbf6b	-0.19994895
149	0xbdba5882	-0.09098913
150	0xbbff5172	-0.0077916915
151	0xbc82dc0f	-0.015974073
152	0xbe92c331	-0.28664544
153	0x3d189b86	0.037257694
154	0xbeed475c	-0.46343505
155	0x3dde7054	0.10861269
156	0x3de1bba8	0.11022121
157	0x3d2e0a0d	0.042490054
158	0xbe126400	-0.1429596
159	0xbe91790f	-0.28412673
160	0x3da8fa3e	0.08250855
161	0xbe5095a4	-0.20369583
162	0x3e56dc5b	0.20982496
163	0xbd25456f	-0.04034942
164	0x3e3a190c	0.18173617
165	0xbe2893f8	-0.16462696
166	0xbd900382	-0.07031919
167	0xbcb7a4e8	-0.0224175
168	0xbd9bea74	-0.07613078
169	0xbe903ad9	-0.28169897
170	0x3d9165f9	0.07099528
171	0x3d1410f8	0.036148995
172	0x3e1aff26	0.15136394
173	0xbdeed09e	-0.11660884
174	0x3ea1d046	0.31604213
175	0xbe26b82f	-0.16281198
176	0xbe03a062	-0.1285415
177	0xbdbf4b52	-0.09340538
178	0xbe2fc41e	-0.17164657
179	0x3da72a19	0.08162326
180	0xbe2397a3	-0.15975814
181	0x3e0f5d65	0.14000471
182	0x3dd4fccf	0.10399782
183	0xbc878649	-0.016543524
184	0x3ee06c11	0.43832448
185	0xbe3dae8c	-0.18523616
186	0x38a3cf10	7.811014e-05
187	0x3dab0dda	0.08352251
188	0x3e8ceeeb	0.2752603
189	0x3e7760c5	0.24158008
190	0xbe2ac835	-0.16677935
191	0xbe175396	-0.14777979
192	0xbe2b22cf	-0.16712497
193	0xbe4050bd	-0.18780799
194	0xbc97d996	-0.01853637
195	0xbcdafcde	-0.026731905
196	0xbdf8375d	-0.12119935
197	0x3e164e6a	0.1467835
198	0xbd93d9b7	-0.0721926
199	0xbe2fbc02	-0.17161563
200	0xbdf28ef8	-0.118436754
201	0x3ba19b51	0.0049318452
202	0xbc4070b4	-0.0117456205
203	0xbeaada4f	-0.3336968
204	0x3e1725ee	0.14760563
205	0x3db58f19	0.08865184
206	0xbefe59ba	-0.4967783
207	0xbd252e5e	-0.040327422
208	0x3dfee795	0.124465145
209	0x3b8a4180	0.004219234
210	0xbe4c553d	-0.19954391
211	0x3d90deef	0.07073771
212	0x3e3e4c47	0.18583785
213	0x3d692535	0.05692025
214	0xbd14fda8	-0.036374718
215	0x3e5cca32	0.21561506
216	0x3e1210c2	0.14264205
217	0xbee637de	-0.44964498
218	0x3de78851	0.11305297
219	0x3cd8069c	0.02637034
220	0xbd0731c8	-0.03300646
221	0x3d885c22	0.06658198
222	0x3e992094	0.29907668
223	0xbe3b3482	-0.18281749
224	0xbce32def	-0.027731864
225	0xbbd3a3d2	-0.006458738
226	0x3c1562c4	0.009117786
227	0x3e2d4668	0.16921389
228	0x3e19b822	0.15011647
229	0xbbf1ace0	-0.0073753446
230	0xbd3ac682	-0.045599468
231	0x3dbff711	0.09373296
232	0xbde14234	-0.10998955
233	0x3d208131	0.039185707
234	0x3d57a2a0	0.052645326
235	0xbe3959c0	-0.18100643
236	0x3e3daed8	0.18523729
237	0x3ed49eb1	0.41527322
238	0x3eda885b	0.42682156
239	0x3d8ed3fb	0.06974026
240	0xbe3916f0	-0.18075156
241	0xbca2cd91	-0.019873412
242	0xbe66d8a4	-0.2254358
243	0xbe16c3bc	-0.14723104
244	0xbeda7e30	-0.42674398
245	0x3de9a679	0.11408705
246	0xbd5d0cf1	-0.05396742
247	0x3cbd8cbc	0.023138396
248	0x3dc6b859	0.0970313
249	0xbc1dea2d	-0.009638351
250	0xbda03284	-0.07822135
251	0xbe4359c0	-0.19077206
252	0xbdbb89ee	-0.091571674
253	0xbe0a3e93	-0.13500433
254	0xbe2ac07a	-0.16674986
255	0x3ce7e505	0.028307447

layer1_2vm.0.bias f4 [32]
0	0x3e30ed92	0.17278126
1	0xbe183992	-0.14865711
2	0x3dfedab0	0.12444055
3	0xbe5ccaa7	-0.2156168
4	0xbe0f21e7	-0.13977776
5	0x3da3ba80	0.079945564
6	0x3cb65306	0.022256386
7	0xbd6f5624	-0.05843176
8	0x3dc6e25e	0.09711145
9	0x3c45de4f	0.012076928
10	0x3e66dc87	0.22545062
11	0xbde2f173	-0.11081209
12	0x3d2f8a45	0.042856473
13	0x3dfc03ef	0.12305438
14	0x3e85c78c	0.26128805
15	0x3de5d00b	0.11221322
16	0x3c87c4a3	0.016573256
17	0xbe3d128a	-0.18464103
18	0xbe1a4523	-0.15065436
19	0xbe686d2d	-0.22697897
20	0x3da2f123	0.079561494
21	0x3d13c681	0.03607798
22	0xbe04a0c8	-0.12951958
23	0xbc11300c	-0.008861553
24	0x3d8953b8	0.06705421
25	0xbb50c6db	-0.0031856808
26	0xbd015186	-0.031571887
27	0xbea1f799	-0.31634215
28	0xbdc7883c	-0.097427815
29	0x3dc42ed4	0.09579244
30	0x3d2f3daa	0.042783417
31	0x3e8516e3	0.25994024

layer1_2vm.2.weight f4 [32]
0	0x3f5910ca	0.84791243
1	0x3f87ea49	1.0618373
2	0x3f7f3d34	0.99702764
3	0x3f7fbec9	0.9990049
4	0x3f972a5a	1.18098
5	0x3f8d972f	1.1061763
6	0x3f64f72b	0.8943965
7	0x3f8333dd	1.0250202
8	0x3f863adf	1.0486716
9	0x3f8e27b6	1.1105869
10	0x3f62d009	0.88598686
11	0x3f819b70	1.0125561
12	0x3fa0d493	1.2564873
13	0x3f6f095b	0.9337365
14	0x3f822b08	1.0169382
15	0x3f799cd7	0.97504944
16	0x3f5de81b	0.8668229
17	0x3f96b304	1.1773381
18	0x3f644c63	0.89179057
19	0x3f90c911	1.1311361
20	0x3f946ddb	1.1596025
21	0x3f7fb652	0.99887574
22	0x3f711ac8	0.9418149
23	0x3f811d3f	1.008705
24	0x3f8e7aec	1.1131263
25	0x3f858d1c	1.0433688
26	0x3f8edad1	1.1160527
27	0x3f808d8c	1.0043197
28	0x3f837384	1.0269628
29	0x3f8da167	1.1064881
30	0x3f7b18c7	0.9808468
31	0x3f6b747e	0.9197463

layer1_2vm.2.bias f4 [32]
0	0x3e0a2602	0.13491061
1	0x3e17ef5c	0.14837402
2	0xbdb78289	-0.089604445
3	0xbdabf991	-0.083972104
4	0x3deccaf1	0.115621455
5	0xbbbd9214	-0.005785236
6	0xbd766242	-0.0601523
7	0xbc8bc948	-0.017063752
8	0xbd35549a	-0.044270135
9	0xbc702389	-0.01465691
10	0xbd9f849a	-0.077889636
11	0x3d8d8770	0.06910598
12	0x3d942ebf	0.072354786
13	0x3e5050f4	0.20343381
14	0x3dfd0d4f	0.12356054
15	0x3d51087d	0.051033486
16	0x3db1c93d	0.08680961
17	0x3d2f7fca	0.04284648
18	0xbd1c4f8f	-0.03816181
19	0xbd78d9c1	-0.06075454
20	0x3e13c32e	0.14429924
21	0xbd3f73ac	-0.046741173
22	0xbcecd26b	-0.028908929
23	0xbca3a531	-0.01997623
24	0xbe49f97f	-0.19724081
25	0x3d84bde7	0.064815335
26	0xbd047038	-0.032333583
27	0x3e4d81e7	0.20069085
28	0xbdf25750	-0.1183306
29	0xbcb748a6	-0.022373509
30	0x3e06d6fe	0.1316795
31	0xbd90b195	-0.07065121

layer1_2vm.2.running_mean f4 [32]
0	0x3e35274a	0.17690769
1	0xbf827be0	-1.0194054
2	0xbeeb1bc6	-0.45919627
3	0xbf3252fc	-0.69657874
4	0xbf1670f8	-0.58766127
5	0x3f3a44aa	0.72761023
6	0xbf3504b2	-0.7071029
7	0xbe0c4b09	-0.13700499
8	0x3f5da784	0.86583734
9	0xbea6eea8	-0.32603955
10	0x3e07e4c1	0.13270856
11	0x3e81e078	0.2536657
12	0xbedd694b	-0.43244395
13	0xbebced56	-0.36899823
14	0x3db911d6	0.09036605
15	0x3ecf6c38	0.40512252
16	0xbe88e45e	-0.2673673
17	0x3cb42f1e	0.021995123
18	0x3ecc3122	0.39881235
19	0xbf4b30aa	-0.7937113
20	0xbf9bf00e	-1.2182634
21	0x3ec0b90a	0.37641174
22	0xbf8b9547	-1.0904931
23	0x3eef64cd	0.46756592
24	0xbe5c0e00	-0.21489716
25	0x3de90629	0.11378128
26	0xbe81d284	-0.25355923
27	0x3f4abe80	0.7919693
28	0x3db960c3	0.09051659
29	0x3f0e01b5	0.55471355
30	0x3f5887ef	0.8458242
31	0x3e11e414	0.14247161

layer1_2vm.2.running_var f4 [32]
0	0x3f45946a	0.77179587
1	0x3fb585a4	1.4181409
2	0x3f8ab025	1.0835005
3	0x3fa6c6cc	1.3029418
4	0x3f23ea4c	0.64029384
5	0x3fa0de78	1.2567892
6	0x3f903909	1.1267406
7	0x3f924a17	1.142886
8	0x3f8ca1eb	1.0986913
9	0x3f43c2a5	0.7646888
10	0x3f3fb9c1	0.7489281
11	0x3f49f3f2	0.78887856
12	0x3f48b150	0.7839556
13	0x3f7844f9	0.96980244
14	0x3f71a83b	0.94397324
15	0x3fcbcbf8	1.5921621
16	0x3f40ffc4	0.7539027
17	0x3f88ddeb	1.0692724
18	0x3f82a81a	1.020755
19	0x3f5e1ad6	0.867597
20	0x3fc3cf3e	1.529762
21	0x3f83061a	1.0236237
22	0x3facf91b	1.3513521
23	0x3f52edd2	0.82394135
24	0x3f41c5f1	0.7569266
25	0x3f57db68	0.8431916
26	0x3f626fc1	0.8845177
27	0x3f8aefae	1.0854394
28	0x3f94cea7	1.1625565
29	0x3fac8363	1.3477596
30	0x3f9931cf	1.1968325
31	0x3f1b55f3	0.60678023

layer2.0.weight f4 [32, 64]
0	0x3e0273b5	0.12739451
1	0xbe26b1af	-0.16278718
2	0xbd014a45	-0.03156497
3	0x3e9eaa6b	0.30989394
4	0x3d36611c	0.044526204
5	0x3e2dc451	0.1696942
6	0x3ee4db3c	0.44698513
7	0x3e3b0311	0.18262888
8	0x3d0bfadd	0.03417479
9	0xbd4cbc7e	-0.049984448
10	0x3e3dd428	0.18537962
11	0x3c17f8cd	0.009275627
12	0xbd2f8304	-0.042849556
13	0x3c7a8e9d	0.015292791
14	0xbd307562	-0.043080695
15	0xbcff4fe2	-0.03116602
16	0x3e621d01	0.22081377
17	0xbe996d31	-0.2996612
18	0xbe045dab	-0.12926356
19	0xbdbecc7d	-0.09316347
20	0x3d1b59c3	0.0379274
21	0x3cab25e9	0.0208921
22	0x3cf70d1a	0.030157614
23	0x3db911c3	0.09036591
24	0x3ed6b56d	0.41935292
25	0x3e2774e6	0.16353187
26	0xbea55363	-0.32290182
27	0x3e246454	0.16053897
28	0xbe9dc1c7	-0.30811903
29	0x3d2c7113	0.042100023
30	0x3e97a12a	0.29615146
31	0x3e51a4f0	0.20473075
32	0xbe909c88	-0.28244424
33	0x3d93a83f	0.07209825
34	0xbdfac9e6	-0.1224554
35	0x3e456d9e	0.19280097
36	0x3f00b162	0.50270665
37	0x3e84664e	0.25859302
38	0xbe1760c2	-0.14783004
39	0xbd963469	-0.07334215
40	0xbe1e03f3	-0.15431194
41	0xbec5adb6	-0.38609093
42	0xbe0f6347	-0.14002715
43	0x3de85605	0.11344532
44	0xbe7377fa	-0.23776236
45	0xbe152b6a	-0.14567342
46	0x3e5e728e	0.21723387
47	0xbcc08208	-0.023499504
48	0xbe49ea68	-0.19718325
49	0xbd8ed5f2	-0.069744006
50	0x3e82e8c7	0.2556822
51	0xbe02a513	-0.12758283
52	0x3e148343	0.14503197
53	0x3cac8ed3	0.021064198
54	0x3edd8138	0.4326265
55	0xbe8ee43c	-0.27908504
56	0xbd655213	-0.055986475
57	0xbe874ea2	-0.2642718
58	0xbdfc6987	-0.12324815
59	0x3e05a7a6	0.13052234
60	0xbe0ba33d	-0.13636489
61	0x3cd5d2aa	0.026101429
62	0x3eab3c5e	0.33444494
63	0xbe966522	-0.29374033
64	0x3e2dd7a9	0.16976799
65	0xbbeaa587	-0.0071608457
66	0xbe2e5954	-0.17026263
67	0xbd74ed34	-0.059796527
68	0x3e5d3bc7	0.21604834
69	0xbd99b6cf	-0.07505571
70	0xbe61f8e6	-0.22067603
71	0xbd6744f8	-0.056462258
72	0xbe7575da	-0.23970738
73	0xbe9cee26	-0.30650443
74	0x3eb30cc1	0.34970668
75	0x3d4f741f	0.05064785
76	0xbe5cbc90	-0.21556306
77	0x3de92bf6	0.11385338
78	0x3c4ecda2	0.012622269
79	0xbd6d21fd	-0.057893742
80	0x3e868bdc	0.2627858
81	0x3cf577d2	0.029964361
82	0xbeae9dc0	-0.3410473
83	0xbc4eae81	-0.012614847
84	0xbe345b5d	-0.17612977
85	0x3da6bab4	0.081410795
86	0xbde556f8	-0.111982286
87	0x3df9bd21	0.121942766
88	0x3d6a5673	0.05721135
89	0xbd6e07f9	-0.058113072
90	0x3e4118f5	0.18857177
91	0x3de87104	0.11349681
92	0xbd58fe56	-0.05297693
93	0xbdc4b210	-0.09604275
94	0x3e8795bb	0.26481423
95	0xbe48bce2	-0.19603303
96	0xbe0497cf	-0.12948535
97	0xbe15e657	-0.14638649
98	0xbbef755e	-0.0073076924
99	0xbeac1e95	-0.33617082
100	0xbdd5273a	-0.104078725
101	0xbc3927b7	-0.011300973
102	0x3b5b8eb1	0.0033501799
103	0x3dc6e39e	0.09711383
104	0x3df5b5b3	0.11997547
105	0x3ec05a4f	0.375689
106	0xbe0225d8	-0.12709749
107	0xbe9992b2	-0.29994732
108	0xbe57db22	-0.21079686
109	0xbcb6b092	-0.022300992
110	0x3cc2f06a	0.023796279
111	0xbed0808e	-0.4072308
112	0xbcc0a03e	-0.02351391
113	0xbd3112e7	-0.043230917
114	0x3da78291	0.081792004
115	0x3d0c37c7	0.03423288
116	0x3dd0fe22	0.10204722
117	0xbe3882da	-0.18018666
118	0xbe9ee74e	-0.31035846
119	0x3d1e7363	0.03868426
120	0x3ced115e	0.028938945
121	0xbe1d6c53	-0.15373354
122	0x3cf51d52	0.029921208
123	0x3dd077ff	0.101791374
124	0xbc2d9db4	-0.010596681
125	0x3d403a62	0.04693068
126	0x3e3fa55f	0.18715428
127	0x3e842c73	0.25815162
128	0x3db59b82	0.088675514
129	0x3d3d72d7	0.046252098
130	0xbe57fa08	-0.21091473
131	0x3e8f4c8d	0.2798809
132	0x3e2826d8	0.16421068
133	0xbd88eb22	-0.06685473
134	0xbda9ac12	-0.08284773
135	0x3e8cdbf0	0.2751155
136	0xbd604a50	-0.05475837
137	0x3e5d73b9	0.21626176
138	0x3d128a09	0.03577617
139	0xbe552bfa	-0.20817557
140	0x3da219a4	0.07915047
141	0x3b9906be	0.004669993
142	0x3d80f773	0.06297197
143	0xbe9d92ae	-0.3077597
144	0x3d9908d3	0.07472386
145	0xbe58d777	-0.21175943
146	0xbd8606c4	-0.06544259
147	0x3d162a33	0.036661338
148	0x3e038afa	0.12845984
149	0xbbf5257a	-0.007481274
150	0xbe1ce517	-0.15321766
151	0x3e017eb7	0.12645994
152	0xbe8a37e2	-0.2699576
153	0xbe94b7a3	-0.29046354
154	0xbe1e5720	-0.15462923
155	0x3c5177f4	0.012784947
156	0xbe2939f6	-0.16526017
157	0x3e9af230	0.302629
158	0x3da95be7	0.08269482
159	0xbe971082	-0.29504782
160	0x3e880caf	0.26572177
161	0xbd0b9187	-0.034074333
162	0x3e9f7ecc	0.31151426
163	0x3d9683d7	0.07349365
164	0xbe1363f8	-0.14393604
165	0xbe35dac2	-0.1775923
166	0xbe1e967b	-0.15487091
167	0xbdaf727e	-0.085667595
168	0xbd9f91de	-0.07791494
169	0xbe331d45	-0.17491634
170	0xbe784f76	-0.24249062
171	0xbd5bf9af	-0.053704914
172	0x3ea7ad80	0.32749557
173	0x3ddc7670	0.10764778
174	0xbdcbfb0f	-0.09959995
175	0xbe183072	-0.1486223
176	0x3ddd04ff	0.107919686
177	0x3eaa2ba0	0.33236408
178	0xbed2b5af	-0.4115424
179	0xbd2aef0c	-0.04173188
180	0x3df4b43f	0.11948442
181	0x3d9acc6d	0.075585224
182	0xbd6391a0	-0.0555588
183	0x3c7b5192	0.015339272
184	0xbe0b0353	-0.13575487
185	0xbdd1e7e0	-0.10249305
186	0x3e950e1e	0.29112333
187	0x3e61e5d3	0.22060327
188	0xbc8eb83c	-0.017421834
189	0x3e3734e9	0.17891277
190	0x3d91879c	0.071059436
191	0x3e697b59	0.2280096
192	0xbe1e2400	-0.1544342
193	0xbe1a634f	-0.15076946
194	0x3d95f7cf	0.07322656
195	0xbe88f420	-0.26748753
196	0x3ebfbfbb	0.37450966
197	0x3e86995a	0.26288873
198	0xbe9cd509	-0.30631283
199	0xbdf790e2	-0.12088181
200	0xbe44f10d	-0.19232579
201	0x3da63a7b	0.08116623
202	0x3c962346	0.018327367
203	0x3d158cf6	0.036511384
204	0x3a347279	0.0006883513
205	0xbe12edbe	-0.14348504
206	0x3dfffe01	0.12499619
207	0xbdb0eacd	-0.08638535
208	0x3d529190	0.05140835
209	0x3ebdb86a	0.3705476
210	0x3e44e540	0.19228077
211	0x3e8fe146	0.28101557
212	0xbd7ca693	-0.061682295
213	0x3e4995b6	0.19686016
214	0xbd3075ff	-0.04308128
215	0x3eaa5b0d	0.3327259
216	0xbe8b3096	-0.27185506
217	0x3e94095d	0.28913394
218	0x3e9c02c1	0.3047085
219	0x3d3f3711	0.046683375
220	0xbd60e770	-0.054908216
221	0x3d066c1b	0.03281794
222	0x3e9193a5	0.28432956
223	0xbcaf2d4a	-0.0213839
224	0xbe0a6e85	-0.13518722
225	0x3e9f9b60	0.3117323
226	0xbe82b224	-0.25526536
227	0x3e440a9e	0.19144675
228	0xbeb9bf30	-0.36278677
229	0xbdf6f941	-0.1205926
230	0xbe3d5be5	-0.18492086
231	0x3c872408	0.016496673
232	0xbdd5e190	-0.10443413
233	0xbd18a1a1	-0.037263516
234	0x3ea20cc4	0.31650364
235	0x3e60fe24	0.21971947
236	0x3d8004a5	0.06250886
237	0x3ea1d16d	0.31605092
238	0x3e105688	0.14095509
239	0xbd8ef30f	-0.069799535
240	0xbe34ce25	-0.17656763
241	0xbe6363c9	-0.22206034
242	0x3dd7aafc	0.105306596
243	0xbdf04a10	-0.11732876
244	0x3d4aef91	0.049544875
245	0xbdb2ad06	-0.08724408
246	0x3e085ba4	0.13316208
247	0xbd1bc8da	-0.038033344
248	0x3d849990	0.06474602
249	0xbe9da6f5	-0.3079144
250	0xbc46c528	-0.012131967
251	0x3e80e1d4	0.25172293
252	0x3e0b065c	0.13576645
253	0x3e93d321	0.28872016
254	0x3f086c70	0.5329046
255	0x3db39bac	0.087699264

layer2.0.bias f4 [32]
0	0x3d9f1666	0.07767944
1	0x3d2924c3	0.041294824
2	0x3d3221a0	0.0434891
3	0x3e09fa34	0.13474351
4	0xbe7435bc	-0.23848623
5	0x3d6d02cd	0.057864
6	0xbde4bdde	-0.11169027
7	0x3cf44dec	0.029822312
8	0xbdbf1a60	-0.093312025
9	0x3de4396c	0.11143765
10	0x3cba864b	0.022769114
11	0x3ce1f24d	0.027581358
12	0x3e1608b8	0.14651763
13	0xbbce87a6	-0.0063027916
14	0x3d06f317	0.032946672
15	0xbd50938e	-0.05092197
16	0x3e11f918	0.14255178
17	0x3df6d6a8	0.12052661
18	0xbe1d672f	-0.15371393
19	0x3e298d62	0.1655784
20	0xbe5fa93a	-0.21841899
21	0xbb5b5385	-0.003346653
22	0x3e0d74d0	0.13814092
23	0x3e8a7f05	0.27050033
24	0xbd8c9aee	-0.06865488
25	0xbe0cc25e	-0.1374602
26	0x3d9c09df	0.0761907
27	0x3e75e006	0.2401124
28	0xbd9234b9	-0.07138962
29	0xbd989e67	-0.07452088
30	0x3c4e518d	0.012592685
31	0x3cc9c6f9	0.02463101

layer2.2.weight f4 [32]
0	0x3f942827	1.1574754
1	0x3f48a3cc	0.78374934
2	0x3f8bf9df	1.093563
3	0x3f93939f	1.1529425
4	0x3f8f927f	1.1216582
5	0x3f8c08de	1.0940206
6	0x3f5ce4d5	0.8628667
7	0x3f970916	1.1799648
8	0x3f8bb348	1.0914087
9	0x3f8a87b8	1.0822668
10	0x3f904b21	1.1272928
11	0x3f41ec54	0.75751233
12	0x3f72c1b8	0.9482684
13	0x3f8ca5b6	1.0988071
14	0x3f83b915	1.0290858
15	0x3f96f44a	1.1793301
16	0x3f741823	0.9534933
17	0x3f613c67	0.8798279
18	0x3f807a33	1.0037292
19	0x3f87ee72	1.0619643
20	0x3f81af05	1.0131537
21	0x3f75e53a	0.96052897
22	0x3f7b1188	0.98073626
23	0x3f8561b5	1.0420443
24	0x3f800139	1.0000373
25	0x3f60e227	0.8784508
26	0x3f96c7b0	1.177969
27	0x3f71fffc	0.94531226
28	0x3f553ccc	0.83295894
29	0x3f8fc565	1.1232115
30	0x3f63234c	0.88725734
31	0x3f607602	0.87680066

layer2.2.bias f4 [32]
0	0x3d820893	0.06349292
1	0xbdeecf29	-0.116606064
2	0x3d7bc78a	0.061469592
3	0xbd06d547	-0.03291824
4	0xbb39767e	-0.0028299387
5	0x3e4b10a1	0.19830562
6	0xbdf8d245	-0.12149481
7	0x3b87fa20	0.0041496903
8	0x3dbffe46	0.09374671
9	0xbc9effb4	-0.019409038
10	0x3dcd1d91	0.10015405
11	0xbd98889c	-0.07447931
12	0xbe973842	-0.2953511
13	0xbdd975b5	-0.10618154
14	0xbd85b55c	-0.06528732
15	0xbe301eac	-0.171992
16	0xbd841579	-0.06449408
17	0xbc65b536	-0.014020255
18	0x3d384654	0.044988945
19	0x3e1e9146	0.15485105
20	0x3c01e730	0.007928655
21	0x3e8a712b	0.27039465
22	0xbe0b8e1a	-0.13628426
23	0xbd2e3e47	-0.04253986
24	0x3d8abc4b	0.06774195
25	0xbe0f1864	-0.13974148
26	0x3e5cd8d0	0.21567082
27	0xbd59486f	-0.053047594
28	0xbc158fca	-0.00912852
29	0xbd0394f5	-0.03212448
30	0x3e548556	0.20753989
31	0x3e80bf9d	0.2514619

layer2.2.running_mean f4 [32]
0	0x3f2f6838	0.685184
1	0xbf2879f0	-0.6581106
2	0x3e3553fe	0.17707822
3	0x3f98ecec	1.1947303
4	0xbf574587	-0.84090465
5	0x3edf062d	0.435594
6	0x3dae392e	0.08507
7	0xbf2a6c45	-0.66571456
8	0x3fb61237	1.4224309
9	0xbe8db4ca	-0.27676994
10	0x3fc607d2	1.5471137
11	0xbeb17c2e	-0.34665054
12	0x3c48a109	0.012245425
13	0xbf93c3cb	-1.1544126
14	0x3ee921cd	0.455336
15	0xbed64a2c	-0.41853464
16	0x3f95685f	1.1672477
17	0x3f89c15b	1.0762132
18	0xbd9c10da	-0.07620402
19	0x3f090189	0.5351797
20	0xbf8aa923	-1.0832866
21	0xbec31aa0	-0.3810625
22	0x3f8a8082	1.0820467
23	0x3f1818d5	0.5941289
24	0xbf605c45	-0.8764079
25	0xbec87c65	-0.39157405
26	0xbe680ec1	-0.22661878
27	0x3e56f800	0.20993042
28	0x3ed9f905	0.425728
29	0xbd92669e	-0.07148479
30	0xbe17d678	-0.14827907
31	0xbf5c29cc	-0.86001277

layer2.2.running_var f4 [32]
0	0x3f8d10f9	1.1020805
1	0x3f3b589f	0.731821
2	0x3f4abd3c	0.79195
3	0x4026bf4f	2.6054265
4	0x3f7556c4	0.9583552
5	0x3f14b51a	0.5808884
6	0x3f4251d5	0.75906116
7	0x3f4e4d62	0.80586827
8	0x3fd27dc0	1.6444626
9	0x3f983dc7	1.1893853
10	0x3fd27ee4	1.6444974
11	0x3f86aa31	1.0520688
12	0x3f97561d	1.1823155
13	0x3f79778c	0.9744804
14	0x3f5d80d4	0.865247
15	0x3f864632	1.0490172
16	0x40073d07	2.1130998
17	0x3f4d4a28	0.8019128
18	0x3f358d26	0.709185
19	0x3f34071f	0.70323366
20	0x3f882051	1.0634862
21	0x3f4ef263	0.808386
22	0x3fdddde2	1.7333338
23	0x3fa3c5ca	1.2794735
24	0x3f5d7d5b	0.865194
25	0x3f606165	0.8764861
26	0x3f477773	0.7791664
27	0x3f26ce31	0.65158373
28	0x3f21e9fa	0.63247645
29	0x3f76a907	0.96351665
30	0x3f186b57	0.5953879
31	0x3f69aa22	0.9127523

fc_advantage.0.weight f4 [20, 32]
0	0xbdc92da3	-0.09823158
1	0xbda06d63	-0.07833364
2	0x3f10bbd1	0.56536585
3	0xbbb59b2b	-0.005542179
4	0xbe03f2ab	-0.12885539
5	0xbd3cfe17	-0.046140756
6	0x3ca1bbd1	0.019742878
7	0xbd441334	-0.047869876
8	0xbcbdd7b6	-0.023174148
9	0xbc831a3c	-0.01600372
10	0x3dbe4a0f	0.09291469
11	0xbcd14023	-0.025543278
12	0xbe0fc1d2	-0.1403878
13	0x3e7d266a	0.24721685
14	0x3efae330	0.49001455
15	0x3dde3d39	0.10851521
16	0xbe766657	-0.24062477
17	0x3ed3891e	0.4131555
18	0x3e2b0b97	0.1670364
19	0xbca1651e	-0.019701537
20	0x3d8b337e	0.06796931
21	0x3c2b8901	0.010469676
22	0xbece6ca1	-0.40317252
23	0xbe3e6f5e	-0.1859717
24	0x3d4f2dcf	0.050580796
25	0xbdd1bfff	-0.102416985
26	0x3b708245	0.003669874
27	0x3e358048	0.17724717
28	0xbda25c11	-0.079277165
29	0x3c2acb1b	0.010424401
30	0xbe970069	-0.294925
31	0xbe114392	-0.14185932
32	0xbd8c6bd1	-0.06856502
33	0xbda6d36b	-0.081457935
34	0xbebff9c7	-0.37495252
35	0xbe293367	-0.16523515
36	0xbd511190	-0.05104214
37	0x3d04e102	0.032441147
38	0xbecaa2d6	-0.3957736
39	0xbf023ca6	-0.5087379
40	0x3d861918	0.06547755
41	0x3e77eeea	0.24212232
42	0x3d824af6	0.06361954
43	0x3dd5b165	0.10434226
44	0x3e967546	0.29386348
45	0xbe3f8451	-0.18702818
46	0x3e0287e5	0.12747152
47	0xbdff80f7	-0.1247577
48	0x3d4383c7	0.047733095
49	0xbe3b1871	-0.18271042
50	0xbdd04702	-0.10169794
51	0xbdc8d9eb	-0.098071896
52	0x3d065062	0.032791503
53	0xbebbe94b	-0.36701426
54	0x3ed3cc26	0.4136669
55	0xbd0363ff	-0.032077786
56	0xbc9f0e5d	-0.019416029
57	0xbe5805b8	-0.21095932
58	0xbd4bcf2a	-0.049758114
59	0x3eb0825f	0.34474465
60	0x3ec4d6ec	0.38445222
61	0xbdbc910a	-0.092073515
62	0xbe4cb340	-0.19990253
63	0xbe8f0a4d	-0.27937546
64	0x3e03ee36	0.12883839
65	0x3bec87b4	0.0072183255
66	0xbed836df	-0.42229363
67	0x3dd9948b	0.106240354
68	0x3e9416c1	0.2892361
69	0xbca6e96c	-0.020374976
70	0xbdd0b06f	-0.10189902
71	0x3d9f8c9b	0.0779049
72	0xbd4a40ef	-0.04937833
73	0xbe7c684e	-0.24649164
74	0x3e34783a	0.17623988
75	0xbe2e3561	-0.1701255
76	0xbd912d1a	-0.070886806
77	0xbda96a7d	-0.08272264
78	0xbd4f165e	-0.05055844
79	0x3eaa3cd0	0.3324952
80	0xbdbd4b68	-0.09242898
81	0xbe252611	-0.16127802
82	0x3e8b81bf	0.27247426
83	0xbe8a5cfe	-0.27024072
84	0x3e530fb4	0.20611459
85	0xbe3dd7da	-0.18539372
86	0xbe612b3a	-0.21989146
87	0xbea28849	-0.31744602
88	0xbe3b2f19	-0.18279685
89	0xbf0910b9	-0.5354114
90	0x3cf0d1cf	0.02939692
91	0xbd13411a	-0.035950758
92	0x3eb0aec0	0.34508324
93	0x3db2d31c	0.08731672
94	0x3e6f71d0	0.2338326
95	0x3d6b308b	0.05741934
96	0xbdbe1c66	-0.0928276
97	0x3b14f33f	0.0022727994
98	0xbed8d337	-0.42348644
99	0xbe5a5ef5	-0.21325286
100	0x3df12101	0.11773873
101	0x3eb62562	0.35575396
102	0xbc0101a9	-0.007873931
103	0xbe35dcfb	-0.17760079
104	0x3e6dc35b	0.23219053
105	0x3e100ab7	0.14066587
106	0x3ecb2664	0.39677727
107	0xbe021a74	-0.12705404
108	0xbe9eed7d	-0.31040564
109	0x3c6e8b0c	0.014559519
110	0xbe46873f	-0.1938753
111	0xbd193405	-0.037403125
112	0x3e1d5b62	0.15366891
113	0xbecf2d33	-0.40464172
114	0x3d9fdc0f	0.07805645
115	0x3e245776	0.16048989
116	0x3e14e4aa	0.14540353
117	0x3cd4740a	0.025934238
118	0xbe439292	-0.19098881
119	0x3e93c2eb	0.28859648
120	0xbe39b984	-0.18137175
121	0x3d359480	0.044331074
122	0xbe5e94f6	-0.21736512
123	0xbb3a7222	-0.0028449376
124	0x3b53cdb4	0.0032318654
125	0xbe02b89e	-0.12765738
126	0x3e5f3593	0.2179778
127	0xbe5d4cf8	-0.21611392
128	0xbe0c99b4	-0.13730508
129	0xbe01f9a6	-0.1269289
130	0x3d389ff3	0.045074414
131	0x3e1e4a41	0.15458013
132	0x3e45fc75	0.19334586
133	0xbf0234f5	-0.50862056
134	0xbe758204	-0.23975378
135	0x3e9f6086	0.3112833
136	0xbdded9ca	-0.10881384
137	0x3e95ed64	0.29282677
138	0x3e461ff1	0.19348122
139	0x3cca96ac	0.02473005
140	0x3e9ec928	0.31012845
141	0xbdda6699	-0.106641
142	0xbe895dcf	-0.26829383
143	0xbefa1f77	-0.4885213
144	0x3dcf7dda	0.10131426
145	0xbe708468	-0.23488009
146	0xbe43f36a	-0.19135824
147	0x3d693be8	0.056941897
148	0xbec830f7	-0.39099857
149	0x3e42d5bd	0.19026847
150	0xbe129911	-0.14316203
151	0xbe6350ec	-0.22198838
152	0x3dfe0623	0.12403514
153	0x3def3bcb	0.116813265
154	0x3e9b0118	0.30274272
155	0xbe8a3420	-0.26992893
156	0x3d49aa69	0.04923478
157	0x3c68d0fc	0.014209982
158	0xbe3d85a5	-0.18508013
159	0x3dc791a8	0.097445786
160	0x3dbd6213	0.09247222
161	0x3e2a6a4d	0.16642113
162	0xbeb213db	-0.34780774
163	0x3e0cb9e5	0.13742788
164	0x3e481ba4	0.19541794
165	0xbe846f30	-0.2586608
166	0x3e25bfeb	0.16186492
167	0x3f044244	0.51663613
168	0xbbe59f75	-0.007007534
169	0xbc8da352	-0.017289791
170	0xbed60046	-0.41797084
171	0x3eca7af5	0.39546934
172	0x3e6ac8a0	0.22928095
173	0x3dfd5af5	0.12370864
174	0xbeadbee1	-0.33934692
175	0xbdcaabb0	-0.09896028
176	0xbccb0e42	-0.024787072
177	0x3e22c420	0.15895128
178	0xbe8b385f	-0.27191445
179	0x3e9e1910	0.30878496
180	0xbeb1cbf4	-0.34725916
181	0xbeabb9cb	-0.33540186
182	0x3e6be670	0.23037124
183	0x3d01cf35	0.03169175
184	0x3e755033	0.23956375
185	0x3e4469a8	0.1918093
186	0xbe009da0	-0.12560129
187	0x3d12016c	0.035645887
188	0xbc988095	-0.018616
189	0xbecd4a41	-0.40095714
190	0x3e789795	0.24276574
191	0xbd7e3364	-0.06206073
192	0x3d808fb5	0.0627741
193	0x3e72084d	0.23635979
194	0xbe94ac42	-0.29037672
195	0x3de97738	0.11399692
196	0xbe03ae7e	-0.12859532
197	0x3eaa0969	0.33210304
198	0x3d5b6844	0.053566232
199	0x3e8536c3	0.26018342
200	0xbe4f04ac	-0.20216626
201	0x3e3a3547	0.18184386
202	0xbe6fd7bc	-0.2342214
203	0xbc9e0056	-0.01928727
204	0xbe30ac70	-0.1725328
205	0xbed57d27	-0.41697046
206	0xbe7bb383	-0.24580197
207	0x3d0a8fbe	0.03382849
208	0xbe625943	-0.22104363
209	0xbefca4d6	-0.4934451
210	0xbe32513e	-0.17413804
211	0x3d75f0bb	0.06004403
212	0xbf2acb55	-0.6671651
213	0xbdd6bd59	-0.10485334
214	0x3e3f938e	0.18708631
215	0x3d963484	0.07334235
216	0x3c44542d	0.01198296
217	0x3e3791b8	0.17926681
218	0x3d9335cc	0.07187995
219	0x3ebbb602	0.36662298
220	0xbd93eb26	-0.072225854
221	0xbe4e55e7	-0.20149957
222	0xbe541eda	-0.20714894
223	0xbe0081db	-0.12549536
224	0xbe1709b9	-0.14749803
225	0xbdfd58b4	-0.123704344
226	0x3bddb6db	0.006766183
227	0xbdcd7a6d	-0.100331165
228	0x3e7f3c4a	0.24925342
229	0x3de8551a	0.11344357
230	0x3ea5ff8f	0.32421538
231	0xbcc93556	-0.024561565
232	0xbdbac579	-0.09119696
233	0xbe430532	-0.1904495
234	0xbe2bdb61	-0.16782905
235	0x3dbeb9ea	0.09312804
236	0xbee82af3	-0.45345268
237	0x3e343f0a	0.17602172
238	0x3eaf49ec	0.34236085
239	0x3e9682c7	0.2939665
240	0x3dae5653	0.08512559
241	0xbd11beaf	-0.03558224
242	0xbe18bedf	-0.14916562
243	0x3ef019f4	0.468948
244	0x3e0c99ca	0.13730541
245	0xbe719e3f	-0.23595522
246	0x3db3de86	0.08782677
247	0xbd61638b	-0.055026572
248	0xbe852e18	-0.2601173
249	0x3dc571f5	0.09640876
250	0x3ca60fab	0.020271143
251	0xbe21f897	-0.15817486
252	0x3e86acbf	0.2630367
253	0xbe3ec072	-0.186281
254	0x3e67f7e5	0.22653158
255	0xbd61c1c4	-0.05511643

fc_advantage.0.bias f4 [20]
0	0x3dfc1ab4	0.12309781
1	0xbc3d073d	-0.01153737
2	0xbe00e741	-0.12588216
3	0xbd54b51e	-0.05193054
4	0xbe244e3b	-0.16045468
5	0xbd167ea1	-0.036741856
6	0xbe86c79f	-0.26324174
7	0x3cdc58cd	0.026897812
8	0xbdb07aac	-0.08617148
9	0xbbbae63d	-0.005703716
10	0xbde4ccc2	-0.11171867
11	0x3abf889b	0.0014612855
12	0xbe664d62	-0.22490457
13	0xbe7e49bb	-0.24832813
14	0x3d09b2f3	0.033617925
15	0x3e16f22e	0.14740822
16	0x3e1f684f	0.15567134
17	0x3e0e21e2	0.13880113
18	0x3e23aa6f	0.15982984
19	0xbdb9357a	-0.09043403
