models/clients/client-9/sub_model.pkl (torch, 42501 bytes, 27 tensors)

layer1_task.0.weight f4 [32, 3]
000000 b4 10 fc bd 6c e2 46 3d b2 92 55 be c7 1b 20 be
       -0.12307873 0.048555776 -0.20856741 -0.15635596
000010 36 6c 95 ba 8b e1 84 be 8d fa da be 16 c4 ee 3a
       -0.0011400047 -0.25953326 -0.4276928 0.0018216397
000020 3c 22 06 3f 5c e5 b5 bd cf 72 8d 3d c8 5c 84 3e
       0.5239599 -0.088816375 0.069066636 0.25852036
000030 de 06 00 be 8d a1 c4 be 69 2b 58 3d da dc 35 3e
       -0.1250262 -0.38404503 0.052775774 0.1776003
000040 5d d4 b8 bd d1 7e 5b bd fe fd de be d2 b6 47 be
       -0.0902488 -0.05358774 -0.43553156 -0.19503334
000050 b7 20 17 3e 9a 36 36 be a3 84 11 3e 5d 74 39 bd
       0.14758573 -0.17794266 0.14210753 -0.04527699
000060 54 6f 71 bd 0d 80 eb 3e cc 68 f3 3d b7 de 44 bd
       -0.05894406 0.45996132 0.11885223 -0.04806396
000070 7e c3 5a be 01 40 30 bd f6 4e 9a 3d 15 64 d7 3d
       -0.21363637 -0.04302979 0.07534592 0.10517136
000080 b6 ac 18 3e 6b 24 cb bd 40 9b 9f 3e 85 b0 0e 3e
       0.14909634 -0.099190556 0.31173134 0.13934524
000090 20 13 09 be 57 56 bd bd e6 7f 00 bd ae 4b 3a be
       -0.13386202 -0.09244984 -0.031371973 -0.18192932
0000a0 35 00 b1 3e 62 e2 b1 bd e6 5c e4 bc f9 df 83 be
       0.3457047 -0.08685757 -0.027876329 -0.25756815
0000b0 20 58 0e bf 53 27 2d 3e 6f 37 5d 3d 39 e1 f6 3e
       -0.5560322 0.16909532 0.054007944 0.48218706
0000c0 7b ab 18 3e 91 33 b5 3e fc c8 d3 3e 8c 83 df 3d
       0.14909165 0.35390905 0.41364276 0.109137625
0000d0 0b a4 1f 3c 01 26 da bd 00 7d b5 3e c1 7e 3d be
       0.009743701 -0.1065178 0.3544693 -0.18505384
0000e0 06 16 b1 3d 2a 1b 5f bd fe 3c b5 be cb d2 14 be
       0.08646779 -0.054469265 -0.35398096 -0.14533536
0000f0 af 0c 1a bf 86 9e 55 be 52 53 27 3b ec ea f7 3d
       -0.60175604 -0.20861253 0.002553184 0.12105355
000100 ee b4 aa be 11 d0 d7 bd 2d ff 8c 3e 3a 38 1a 3d
       -0.33341163 -0.105377324 0.27538434 0.037651278
000110 1e 83 85 be 10 ce e3 bd 5a fb 3d be f8 64 23 be
       -0.26076597 -0.11123288 -0.18552914 -0.15956485
000120 2c ab 08 bd 9d 7a 09 3e 97 db eb bd 14 d8 9a 3d
       -0.033366367 0.1342568 -0.11516493 0.07560745
000130 91 1d 32 3d f1 f7 c4 bd b5 b1 85 3e 92 d2 a2 bb
       0.043485228 -0.096176036 0.26112142 -0.0049689496
000140 5b 2d 60 3e 8b d7 ea 3d 2e 06 cf bd 83 e0 82 3e
       0.21892302 0.11466893 -0.101086006 0.25561914
000150 13 a2 1a be 84 1e 01 3e d7 2f 5c be 7d 9a 92 3e
       -0.15100889 0.12609297 -0.21502624 0.2863349
000160 71 1e d7 be 9e e7 40 3e 54 b6 cd 3e 9f f3 26 bd
       -0.42015412 0.18838355 0.40178168 -0.04075968
000170 4f c4 ca bd 64 6f 5d 3e 49 37 0d bf 88 01 1a 3e
       -0.09900724 0.21624523 -0.55162483 0.15039647

layer1_task.0.bias f4 [32]
000000 e6 36 24 bd ed 62 1b bd 93 96 03 3e 03 20 f2 bd
       -0.040091418 -0.03793614 0.12850408 -0.11822512
000010 75 6a 8b 3d 4e 1d 1f be 01 25 72 bc 65 0d 35 be
       0.068074144 -0.15538523 -0.01477933 -0.17680891
000020 2e 61 ca 3d 6e 86 0d bc 6f 23 1c bd 09 26 69 3d
       0.09881817 -0.008638008 -0.03811973 0.05692104
000030 b4 d2 e3 bc 93 e2 36 bd 11 0a 31 bd 80 8c a7 bd
       -0.027810432 -0.04464967 -0.04322249 -0.08181095
000040 26 f8 1f bd 58 9f c6 3c fa 35 c4 bc ae 91 aa bd
       -0.039055012 0.024245903 -0.02395152 -0.083285674
000050 3a e8 11 bd 39 f5 8a 3d 54 01 fc 3c 6e 8a 88 bb
       -0.03562186 0.06785054 0.030762352 -0.0041668927
000060 97 cf 60 3d 86 2d 93 3d db 57 37 bd 6a 5c 09 3d
       0.054885473 0.07186417 -0.04476152 0.0335354
000070 29 26 92 3d 20 ae 83 bd ba f3 c3 3d 1e 23 41 3d
       0.07136185 -0.06429696 0.095679715 0.04715263

layer1_task.2.weight f4 [32]
000000 a1 ce 7a 3f b5 ca 8c 3f b8 0d 77 3f c9 53 6b 3f
       0.9797154 1.0999361 0.9650531 0.9192472
000010 f7 9d 7e 3f a1 af 3e 3f dd bf 82 3f c5 19 89 3f
       0.99459785 0.7448674 1.0214802 1.0710989
000020 55 45 83 3f 86 4f 72 3f f9 30 84 3f 6f b3 6b 3f
       1.0255533 0.94652593 1.0327445 0.9207067
000030 7f f4 81 3f b8 78 90 3f 17 84 66 3f ab 17 5f 3f
       1.0152739 1.128684 0.90045303 0.8714549
000040 58 6e 9e 3f b8 63 85 3f 66 88 22 3f 42 7b 7d 3f
       1.2377424 1.0421057 0.6348938 0.990162
000050 1b 82 5f 3f 8c 0c 6e 3f b7 2a 77 3f 56 23 88 3f
       0.873079 0.92987895 0.9654955 1.0635784
000060 37 59 7e 3f 99 b3 95 3f dd e2 4e 3f 18 e3 63 3f
       0.9935488 1.1695434 0.80814916 0.8901839
000070 56 9c 76 3f 48 74 3f 3f 82 ba 85 3f f9 f5 6f 3f
       0.963323 0.74786806 1.0447543 0.937347

layer1_task.2.bias f4 [32]
000000 46 3d 49 3d fa c4 16 bd a9 c3 a3 bd ec 47 82 bd
       0.0491307 -0.036808945 -0.079963036 -0.06361374
000010 a1 be 64 bc 2a a1 73 bd a9 cf 75 bd 8d 20 c6 3d
       -0.013961465 -0.05947987 -0.060012493 0.09674177
000020 a3 74 ff 3d 76 b8 6f 3c 0c 65 6d 3d 67 82 13 bd
       0.124734186 0.014631381 0.057957694 -0.036013033
000030 b4 e4 8a 3a b9 c7 16 be d3 21 b9 3d 35 d1 76 3d
       0.0010596723 -0.14724626 0.090396546 0.06025811
000040 21 7f d6 3d 57 88 dc bd 67 f6 e7 bd fe f5 3e bd
       0.10473467 -0.10768192 -0.113262944 -0.046621315
000050 15 ed cd 3a 40 10 8a be f0 ea 9a 3d 74 ce 72 bc
       0.0015710915 -0.26965523 0.07564342 -0.01481973
000060 eb b5 96 3d e3 2a a1 be 44 1b 05 3e d5 56 0d 3e
       0.07358917 -0.31478032 0.12998682 0.13802655
000070 07 8b 53 3d 91 a5 e9 3d 47 07 b6 bd d1 6f 72 be
       0.05164626 0.114085324 -0.08888107 -0.23675467

layer1_task.2.running_mean f4 [32]
000000 4a 64 f5 c5 fa 70 19 c6 57 7c d8 c6 ae c1 bf c5
       -7852.536 -9820.244 -27710.17 -6136.21
000010 d6 ee e5 c5 a7 e1 39 46 4b 3f db c6 a2 0b 39 c6
       -7357.8545 11896.413 -28063.646 -11842.908
000020 7a 58 7c c5 c6 7a 52 c5 b5 d6 8a 45 c9 04 bf c5
       -4037.5298 -3367.6733 4442.8384 -6112.598
000030 68 d5 03 c6 2b db 3b c6 71 5d ab c4 d3 0e 2d 46
       -8437.352 -12022.792 -1370.92 11075.706
000040 fd b6 0e 46 ae 65 d9 45 c9 49 af 46 1b 76 5a c5
       9133.747 6956.71 22436.893 -3495.3816
000050 a6 d7 17 c7 25 2e fa 45 0f 40 8e 46 9d bd da c5
       -38871.65 8005.768 18208.03 -6999.7017
000060 89 94 ef c4 4f bc 97 45 6a e2 86 46 8a 5e e2 45
       -1916.6417 4855.5386 17265.207 7243.8174
000070 fb e2 0f c6 48 0d 91 46 d4 8a cc 46 b0 b2 57 46
       -9208.745 18566.64 26181.414 13804.672

layer1_task.2.running_var f4 [32]
000000 3e 44 33 4c 42 43 94 4c 94 26 10 4e 3b f1 e4 4b
       4.6993656e+07 7.773237e+07 6.0461184e+08 3.0007926e+07
000010 8c d1 2d 4c f0 50 d3 4c 7b a2 16 4e 19 58 cb 4c
       4.556549e+07 1.1079053e+08 6.318077e+08 1.0661089e+08
000020 1e 2e 48 4b d1 84 08 4b 36 53 6e 4b f0 ff ea 4b
       1.3119006e+07 8.946897e+06 1.561887e+07 3.0801888e+07
000030 30 38 5f 4c 11 26 ce 4c 76 90 c4 49 04 b0 b5 4c
       5.851565e+07 1.0808129e+08 1.6102548e+06 9.525661e+07
000040 05 b3 75 4c 8b b8 12 4c d6 cf c6 4d 52 80 14 4b
       6.4408596e+07 3.8461996e+07 4.169387e+08 9.732178e+06
000050 08 10 8f 4e 74 ae 3d 4c ec 58 72 4d 6c ed 15 4c
       1.2000963e+09 4.9723856e+07 2.5411962e+08 3.9302576e+07
000060 40 08 2f 4a 37 8f 89 4b 0f 55 60 4d fc 74 1e 4c
       2.867728e+06 1.803019e+07 2.3522942e+08 4.1538544e+07
000070 96 e9 80 4c a7 33 83 4d 6d 7c fa 4d 63 e5 11 4d
       6.758725e+07 2.7515005e+08 5.253073e+08 1.5298309e+08

layer1_1vm.0.weight f4 [64, 40]
000000 10 2c 25 bd bb 62 0a 3d 72 d9 3c bd fd 89 93 bc
       -0.040325224 0.033785563 -0.04610581 -0.018010134
000010 75 e8 3a 3e 30 a0 73 3d d4 7e cd bc e3 49 8e be
       0.18252738 0.05947894 -0.02508489 -0.27790746
000020 0c fa 71 be 43 47 e8 bd 00 5d ea bd ab dc 1e be
       -0.23630542 -0.11341717 -0.114435196 -0.15513866
000030 7c 24 cd be c6 b2 23 be d0 37 1f be 04 55 39 3d
       -0.40066898 -0.15986165 -0.15548635 0.045247093
000040 8c 5c 31 be c7 88 dd bd 36 7f a6 3d 7f ad 59 be
       -0.1732046 -0.10817104 0.08129732 -0.2125759
000050 99 7f 03 3f 42 49 c8 bd f3 b8 0f be d9 cd c6 3a
       0.51366574 -0.09779598 -0.14035396 0.0015167549
000060 de cc 48 bd 9b 6a e9 bd fa 89 95 3e 35 f2 11 be
       -0.0490235 -0.113972865 0.2920683 -0.14252551
000070 9c 6b 31 be 36 a0 2e be 63 8b 9c be 6f b9 2a be
       -0.17326206 -0.17053303 -0.30575094 -0.166723
000080 e7 4d 8e bd 95 c7 e7 3d 3a bf 9b 3d 07 25 57 3d
       -0.069484524 0.11317364 0.07604833 0.052525546
000090 45 3a 58 3e 8d 99 f4 bd 06 71 1c bc 57 81 46 bc
       0.21115978 -0.1194335 -0.009548431 -0.012115798
0000a0 da 91 c8 3d 76 5f 2b be 5f 25 f4 3d cc 8e 8d 3e
       0.09793444 -0.16735634 0.119211905 0.27648008
0000b0 6d 14 bf 3d f0 08 7e 3e 86 11 f4 3c 77 2c c2 3d
       0.09330068 0.24808097 0.029793512 0.09481137
0000c0 af f1 cd be 54 f2 43 be 63 4e 05 bd 16 38 84 bd
       -0.40223452 -0.1913541 -0.03254546 -0.0645601
0000d0 10 27 7c 3e bd cf 57 bd 96 8d 07 be 07 4f 2b be
       0.24624276 -0.05268835 -0.13237604 -0.16729365
0000e0 14 59 c2 3d 27 b1 5f 3e fd 18 25 3b 7f d2 e3 bd
       0.094896466 0.21844922 0.0025191896 -0.11124133
0000f0 67 7e 35 bd a9 e7 3e 3d 13 85 9b bc 83 80 f8 3d
       -0.04431 0.046607647 -0.018984353 0.12133887
000100 4f a3 24 be b5 9f 65 bd d5 87 93 3b 1d 3c e6 3e
       -0.16077922 -0.05606051 0.0045022764 0.44967738
000110 e1 5f 85 3e 4f 2d 30 be 89 cf 11 be 5e 45 6f bd
       0.26049712 -0.17204784 -0.14239325 -0.058415763
000120 10 90 b0 bd 2d 0a 8d 3e 27 dc 73 bc 3e 5f 14 bd
       -0.08621228 0.27546826 -0.014884031 -0.036223643
000130 ac d9 9a be 66 27 c8 3d ce 43 18 3e 57 9a 67 3c
       -0.30244195 0.0977314 0.14869615 0.014135919
000140 44 74 43 bd 3b 13 7a be b4 be 5a bd 0c b6 01 bd
       -0.0477183 -0.24421398 -0.053404525 -0.031667754
000150 1e 65 bb be a4 42 46 bd ca 60 26 3e b4 1c 73 3d
       -0.36600584 -0.048403397 0.1624786 0.059353545
000160 02 5e 0f be dd 5a 0c be 1e ff 3e bd 08 fd 6b bd
       -0.14000705 -0.13706537 -0.046630017 -0.057614356
000170 43 30 89 3d a9 af a9 3d b2 da 50 3d 52 6e 83 3e
       0.06698658 0.08285458 0.050989814 0.25670105
000180 a7 42 0f be 3f 88 17 3e f6 f4 c1 bd 75 3a 3b 3d
       -0.1399027 0.14798068 -0.09470551 0.045710046
000190 90 53 63 3d b0 af 49 be c3 e9 d4 3c 11 45 ec bd
       0.055499613 -0.19695926 0.025990373 -0.11536611
0001a0 33 b8 aa 3d 4b 05 26 bd 5f fc e6 3d 05 d7 02 bd
       0.083359145 -0.04053239 0.11278605 -0.03194334
0001b0 50 8d 5e bd dd f4 e5 bc d4 b1 17 be 76 cb ac 3d
       -0.054333985 -0.028070861 -0.1481393 0.084372446
0001c0 38 4b 85 3b a2 14 07 3d 68 01 2c be f3 58 54 3e
       0.0040678047 0.03297866 -0.16797411 0.20737056
0001d0 ae d0 73 3d eb b5 e8 bc 6d 60 af 3d a4 d9 8f be
       0.059525184 -0.028407058 0.08563314 -0.28095734
0001e0 b0 66 91 be 71 de f1 bd 49 5a a7 3e 30 4a 5c be
       -0.28398657 -0.118100055 0.3268607 -0.21512675
0001f0 ab d1 64 bd 7b de 20 3e 0d 53 2e be fb 17 ee bd
       -0.055864017 0.1570987 -0.17023869 -0.11625668
000200 69 36 12 be dc 58 83 bd 30 28 b0 bd a8 76 0b 3e
       -0.14278568 -0.06413433 -0.08601415 0.13619483
000210 ad e6 81 bd 9a 4f dc 3d 94 a4 45 bd 96 00 37 bb
       -0.06342826 0.1075737 -0.048252657 -0.0027923933
000220 69 61 b1 3c c0 af 90 bd 61 91 05 3d 2b 15 1c bd
       0.021652894 -0.07064772 0.032609347 -0.038106125
000230 ae b0 14 be 3c 4a 86 3e 93 c4 96 be 34 b9 87 bd
       -0.14520523 0.2622851 -0.2944685 -0.066271216
000240 76 d7 8f be 58 fa c5 3e fe b9 c1 3d e4 98 41 3e
       -0.2809407 0.3866756 0.09459303 0.1890598
000250 2a d0 58 3d 2a 04 64 3e 02 fb 53 bd 03 e9 0c 3e
       0.052932896 0.22267213 -0.05175305 0.13760762
000260 9a 6c 6f be 5c b5 b3 be d8 f4 30 3d 3d ab 12 be
       -0.23381272 -0.35099304 0.04320225 -0.14323135
000270 7f 25 20 3d bf 51 75 3e 69 7d 03 3d 80 47 92 bd
       0.03909826 0.23956965 0.032102022 -0.07142544
000280 47 2b ef bd 5a 48 69 be a6 f7 7f be 39 0d 47 be
       -0.116781764 -0.22781506 -0.24996814 -0.19438638
000290 dd 10 a6 be 99 24 c1 bc 34 ff 89 be 7a 7c 1f be
       -0.3243474 -0.023577021 -0.26952517 -0.15574828
0002a0 7e 85 54 3e 15 38 5d 3d 92 f5 81 3d 46 12 32 3c
       0.20754048 0.054008562 0.06345667 0.010868615
0002b0 82 8d 4d 3e da df ee bc 56 79 0e be 92 10 d6 3d
       0.20073512 -0.029159475 -0.13913473 0.10452379
0002c0 88 64 5d be 8b 4e 0a 3c 7c f9 a2 bd b2 2e 88 3e
       -0.21620381 0.008441578 -0.079577416 0.26598126
0002d0 37 f8 f4 3c 0a 54 58 bd 7f 7b 60 3e 61 8c 1e 3e
       0.029903514 -0.05281452 0.2192211 0.15483238
0002e0 3f f8 4f 3e 2b be 59 3c 38 df 0b bd 62 b9 c2 bc
       0.20309542 0.0132899685 -0.034148425 -0.023770038
0002f0 c3 de 32 bd 90 1c aa 3d 91 00 0b 3e 2a 9f 5d 3e
       -0.043669473 0.08306229 0.13574435 0.21642748
000300 b3 f6 2d be 9f 1f 88 3e 42 24 44 3e c9 2a 9f 3c
       -0.1698864 0.26586625 0.19154456 0.019429581
000310 65 94 87 be 15 44 b8 3d 4e a4 45 3e 0e c7 07 3e
       -0.26480404 0.089973606 0.19300959 0.13259527
000320 56 33 3c be 3e 1f 82 3d 04 d8 09 bd 98 d4 c0 bd
       -0.18378958 0.06353615 -0.033653274 -0.09415549
000330 fd 04 b0 bd ab 79 1a 3e 85 73 de bc 4b 24 17 3e
       -0.085947014 0.15085475 -0.027154693 0.14759938
000340 60 f6 a8 3d 17 eb 20 3d cc dc d5 bd d8 ca e4 bd
       0.08250117 0.0392867 -0.10442504 -0.11171502
000350 d9 91 3c 3e 11 40 70 3d 94 58 1e be 5f 77 af 3e
       0.18415011 0.05865485 -0.15463477 0.3427076
000360 f2 af 2e 3d d6 e9 b4 3e 3d 91 99 3d 5a 55 73 3c
       0.042648263 0.35334653 0.07498405 0.014851892
000370 dc 38 ea 3c 89 67 e4 3c 62 f7 66 bd 3c 64 a2 3e
       0.028591566 0.0278814 -0.056388266 0.31717098
000380 c7 ec 86 3d 9f 80 b7 3c f9 67 82 3e 4d 72 92 3d
       0.065881304 0.022400199 0.2546995 0.071507074
000390 e2 c0 f3 3d 57 47 a7 3c bd 5c d0 3d 11 a2 f6 3d
       0.11902024 0.02041976 0.101739384 0.120426305
0003a0 e4 b2 e8 3d 34 33 c2 be 34 5f 21 bd 88 bc 93 bd
       0.11362246 -0.3792969 -0.039397433 -0.07213694
0003b0 1e e5 c4 bd 46 a8 23 bd bd 4b dc 3e 8b 0f 23 3e
       -0.09614013 -0.0399554 0.43026534 0.15923898
0003c0 ca 6d 32 be df f4 c0 be 41 e8 22 3d 6d 10 58 3e
       -0.17424694 -0.37686822 0.039772276 0.21100016
0003d0 6b a6 85 bd 72 bd 56 be f5 ec 93 ba 43 e1 15 bd
       -0.06525882 -0.20970705 -0.0011285829 -0.03659178
0003e0 c6 29 16 be 99 61 b4 bd 42 bf 7f be 33 97 0a 3e
       -0.14664373 -0.08807678 -0.24975303 0.1353424
0003f0 8c b8 99 be 5a fa b2 3c 51 4c 0a be 97 0f f3 3e
       -0.3002361 0.021847893 -0.13505675 0.47472832

layer1_1vm.0.bias f4 [64]
000000 17 38 16 bc c3 04 e2 3d 5a 87 a5 bd fd d3 1f be
       -0.009168646 0.110360645 -0.08082457 -0.15608211
000010 46 c7 36 bc 92 b3 d9 3d 72 17 4b 3e 47 ba e4 bd
       -0.011155909 0.106299534 0.19833162 -0.11168342
000020 a7 cb 4a 3e 93 78 0b 3e f8 f9 5b 3d 08 0b 47 bd
       0.1980425 0.13620214 0.053705186 -0.048594505
000030 ac f2 47 3e 4e f8 2d be 50 1c de bd a3 a7 cb bd
       0.19526166 -0.16989252 -0.10845244 -0.099440835
000040 11 8c 32 be 24 eb fb 3d d3 c2 0e 3d ae 93 83 bd
       -0.17436244 0.12300709 0.034853768 -0.06424652
000050 aa ed 8f 3d 97 bd b0 3d d0 0c 27 be 09 64 f9 bd
       0.07027753 0.086299114 -0.16313481 -0.12177283
000060 e6 7d 36 3e f7 a5 40 3e b3 d6 de bc 65 65 ce bd
       0.17821464 0.1881331 -0.027201986 -0.10077933
000070 71 54 c2 bb 9a e4 57 be 11 49 3e bc 54 d8 e4 bd
       -0.0059304764 -0.21083298 -0.0116141 -0.11174074
000080 a8 db f4 3b 0d 11 37 3e a5 47 41 3e a9 94 0c be
       0.007472474 0.17877598 0.18874986 -0.13728584
000090 d0 d2 36 be 99 82 2b bd 4b fc d9 bd b1 55 06 3e
       -0.17853856 -0.041872595 -0.10643824 0.13118626
0000a0 df 8b bf 3d f7 36 33 3e 25 0e 71 bd a5 b7 e8 3d
       0.0935285 0.17501436 -0.05885138 0.113631524
0000b0 80 34 99 3c 77 40 8e 3c cb fe 27 bd 4c 4e a9 bd
       0.018701792 0.017364724 -0.041014474 -0.08266887
0000c0 be 6a e5 bc 23 ec 30 3e cc 46 22 be fe f4 23 be
       -0.028005 0.17277579 -0.1584732 -0.16011426
0000d0 bc c9 fc 3d b9 1a 4d 3d 59 96 4d 3e c0 08 c0 bd
       0.12343165 0.050074313 0.20076884 -0.09376669
0000e0 37 34 30 3e 77 61 02 3e a5 bb ff 3c ba 7b 53 bc
       0.17207418 0.12732492 0.031217406 -0.012907917
0000f0 55 89 0e 3e f8 20 a8 3d ba 09 06 be 0f 99 d1 bd
       0.13919576 0.08209413 -0.13089648 -0.10234272

layer1_1vm.2.weight f4 [64]
000000 fe f9 62 3f 1e 00 71 3f 22 a1 82 3f b0 f5 69 3f
       0.8866271 0.94140804 1.0205424 0.91390514
000010 60 a4 5e 3f f5 58 89 3f d1 00 9c 3f fa fe 5c 3f
       0.86969566 1.0730273 1.2187749 0.86326563
000020 f7 d1 4f 3f 8f 2f 89 3f 5f d5 5b 3f 1c 68 8f 3f
       0.81179756 1.0717639 0.85872453 1.1203647
000030 c0 30 7f 3f fd 51 7c 3f 65 f3 76 3f f6 a8 94 3f
       0.9968376 0.98562604 0.9646514 1.1614063
000040 1b 80 8b 3f 60 54 8a 3f 22 37 91 3f 4d 84 8b 3f
       1.089847 1.0806999 1.134495 1.089975
000050 b5 f4 7e 3f 02 9a 92 3f 8d 2d 88 3f 0c ec 6b 3f
       0.99592143 1.145325 1.0638901 0.92157054
000060 ec 7d 8d 3f 27 6a 99 3f 9d 04 9a 3f 48 15 92 3f
       1.1054053 1.198552 1.2032658 1.1412745
000070 b2 ad 84 3f 1f d2 7f 3f 1a 8b 9c 3f 9a 26 8d 3f
       1.0365508 0.99929994 1.222995 1.1027405
000080 e3 69 70 3f f4 af 92 3f 83 c0 6a 3f 66 66 57 3f
       0.9391157 1.1459947 0.917 0.8414062
000090 12 77 5f 3f 08 2a 5f 3f fb 68 8c 3f cf 60 9c 3f
       0.8729106 0.8717351 1.0969537 1.2217044
0000a0 81 a3 86 3f f5 e7 5b 3f 66 da 5d 3f 69 20 8d 3f
       1.0518647 0.85900813 0.86661375 1.1025516
0000b0 f5 f1 64 3f 1e d4 80 3f e0 51 94 3f 55 25 90 3f
       0.894317 1.0064733 1.1587486 1.1261393
0000c0 21 39 8c 3f 7f 09 86 3f 0e f6 7e 3f 5e 75 5a 3f
       1.0954934 1.0471648 0.995942 0.8533534
0000d0 67 56 84 3f 13 91 98 3f 0c 41 88 3f 27 73 6f 3f
       1.0338868 1.1919273 1.0644851 0.93535084
0000e0 48 6e 9d 3f d3 9d 76 3f 76 a9 7a 3f dc 45 68 3f
       1.229928 0.9633457 0.97914827 0.90731597
0000f0 0d fc 8b 3f cf 1f 6a 3f e2 8c 74 3f 77 90 69 3f
       1.0936295 0.91454786 0.9552747 0.9123606

layer1_1vm.2.bias f4 [64]
000000 ac 79 4f be 54 39 21 3e 96 09 d2 b9 c2 54 e7 3d
       -0.20261258 0.15744525 -0.00040061463 0.11295463
000010 f5 86 57 3d d0 be a5 be 05 51 13 bd 63 2d 10 3d
       0.05261894 -0.3237214 -0.035965938 0.035199534
000020 4a 4f be 3c 51 cf b0 bd 79 43 22 be 37 9b a9 bd
       0.023231167 -0.086332925 -0.15846051 -0.08281558
000030 a2 a2 32 be dc 64 68 3c 6c cf ac bb 4f 77 1b 3e
       -0.17444852 0.014184203 -0.00527375 0.15182231
000040 f7 08 15 be 62 c6 a2 ba 84 56 ab bc 21 4f de bd
       -0.14554201 -0.0012418742 -0.020915277 -0.108549364
000050 f4 16 1e be 63 51 57 3d 2b 99 42 3d 42 23 ce bc
       -0.15438443 0.05256785 0.047509354 -0.025163297
000060 c1 ee 76 3e d3 9f 36 bd 66 5a ad bd b9 39 1e 3d
       0.24114515 -0.044586014 -0.08464508 0.038629267
000070 aa 50 37 3d 88 5d 8b bd 61 69 86 3d 99 7e 84 bd
       0.04475466 -0.06804949 0.06563068 -0.06469459
000080 7e a8 45 be ea 22 01 be 27 44 46 3e 6e 81 2b bb
       -0.19302556 -0.12610975 0.19361936 -0.0026169675
000090 52 f2 41 bc af 2d b0 bc d8 52 46 be 48 fa 17 3e
       -0.011837559 -0.021506159 -0.1936754 0.14841568
0000a0 0c e9 9a 3e ac 52 52 bd 7f 0a 90 3e e5 c1 1d be
       0.30255926 -0.051348373 0.28133008 -0.15405996
0000b0 dd bf 97 bd 6b b5 96 be 4c 1d d9 3d 14 59 17 3d
       -0.07409642 -0.29435286 0.10601291 0.036950186
0000c0 a1 41 20 3e 54 98 5e bd ab fd 95 3d 5d 7b 88 bd
       0.15650035 -0.05434449 0.07323774 -0.06664155
0000d0 5a 5f 8d 3d 96 a8 a5 bc 3c 18 c9 bd 97 dd 12 be
       0.069029525 -0.02022199 -0.098190755 -0.14342342
0000e0 13 20 6a 3c 94 c5 d1 bb 50 0c 37 bd 12 99 9a 3e
       0.014289874 -0.006401727 -0.044689476 0.30194908
0000f0 85 ac 1c 3d 48 f1 fb 3b cc ac a0 bc dd 88 9f be
       0.038250465 0.007688675 -0.019613646 -0.31159106

layer1_1vm.2.running_mean f4 [64]
000000 2e 4b df c6 99 c7 8a c8 47 a1 ae c8 ca cd 33 c8
       -28581.59 -284220.78 -357642.22 -184119.16
000010 27 60 37 c8 f5 26 b9 47 aa 32 09 c9 64 92 96 47
       -187776.61 94797.914 -561962.6 77092.78
000020 f5 71 f7 c7 fd 2e 38 c7 f8 01 c9 48 46 56 48 48
       -126691.914 -47150.99 411663.75 205145.1
000030 48 7b 9d c8 17 21 85 48 2e 18 40 c7 bd 91 03 c8
       -322522.25 272648.72 -49176.18 -134726.95
000040 e2 68 99 47 bc 2b 3b c8 02 69 6a c7 37 ee 9f 47
       78545.766 -191662.94 -60009.008 81884.43
000050 fd 76 1c 48 38 59 7e 48 41 dc ce 47 ff c0 46 46
       160219.95 260452.88 105912.51 12720.249
000060 d2 ee 41 47 c5 13 98 c7 29 a5 1c c8 b2 08 a2 46
       49646.82 -77863.54 -160404.64 20740.348
000070 cc db 47 c8 70 08 c1 c8 d6 39 12 c8 d6 31 de 46
       -204655.19 -395331.5 -149735.34 28440.918
000080 44 f8 8e 47 15 6a 99 c8 73 db 2d c7 a2 e5 05 46
       73200.53 -314192.66 -44507.45 8569.408
000090 38 67 92 48 4b 9d b2 c8 47 26 f2 45 2e f8 cc 48
       299833.75 -365802.34 7748.7847 419777.44
0000a0 7e 7b 1c c9 dd 04 bc 47 2e 6c 5c 47 1b b6 b2 48
       -640951.9 96265.73 56428.18 366000.84
0000b0 34 17 9b c8 48 28 9f c7 59 0a 64 48 06 89 37 47
       -317625.62 -81488.56 233513.39 46985.023
0000c0 d7 d0 15 47 f2 3f ce 48 c1 9d 98 47 aa 29 f2 47
       38352.84 422399.56 78139.51 123987.33
0000d0 23 2e 1a 47 f9 ba ae 48 3a 52 28 48 39 18 95 48
       39470.137 357847.78 172360.9 305345.78
0000e0 5a 70 7e 48 ca c4 db c7 c8 c8 7c 48 56 70 8a c7
       260545.4 -112521.58 258851.12 -70880.67
0000f0 7d 79 ca c7 4d 09 00 48 02 b7 ad c7 d2 e7 3b c8
       -103666.98 131109.2 -88942.016 -192415.28

layer1_1vm.2.running_var f4 [64]
000000 6c 23 47 4d 80 aa 92 50 f0 47 fe 50 a9 00 06 50
       2.0881171e+08 1.968518e+10 3.4129019e+10 8.992761e+09
000010 3f 11 02 50 4d bc 04 4f d0 2e 93 51 a6 d9 ad 4e
       8.728673e+09 2.226933e+09 7.90182e+10 1.4583611e+09
000020 1f ff 70 4f 85 f5 14 4e 6c 1c 1f 51 cf a4 19 50
       4.0432515e+09 6.247796e+08 4.271104e+10 1.031086e+10
000030 68 33 bd 50 a1 fc 8b 50 6b 5f 1b 4e b4 de 85 4f
       2.5394102e+10 1.8788714e+10 6.5168045e+08 4.4919296e+09
000040 c5 b3 b6 4e 38 0e 10 50 2e 68 5c 4e 04 e4 cb 4e
       1.5326173e+09 9.667404e+09 9.2445376e+08 1.710359e+09
000050 d6 73 c6 4f bd e2 72 50 4e e4 35 4f 40 21 b5 4c
       6.6589604e+09 1.6299783e+10 3.0516383e+09 9.496422e+07
000060 ce d6 13 4e 00 4b c2 4e e7 f7 ae 4f 39 da dd 4c
       6.2008205e+08 1.6298476e+09 5.870964e+09 1.1631457e+08
000070 45 f5 17 50 13 92 15 51 91 0b 9f 4f 54 65 4f 4d
       1.0197734e+10 4.0150053e+10 5.3366707e+09 2.1747027e+08
000080 ff 23 a7 4e 02 eb c4 50 b6 5a f4 4d 9c 64 c9 4c
       1.402077e+09 2.6429886e+10 5.124482e+08 1.0558794e+08
000090 1a b1 a5 50 ea 41 03 51 ac 0f 03 4c 9b 03 27 51
       2.2238777e+10 3.523416e+10 3.435691e+07 4.48325e+10
0000a0 27 57 ca 51 52 81 1e 4f 17 b0 4a 4e 95 80 01 51
       1.086307e+11 2.6592753e+09 8.5013446e+08 3.4763e+10
0000b0 74 f2 bb 50 c0 16 c1 4e d0 a2 4a 50 1a 27 05 4e
       2.522583e+10 1.6197468e+09 1.3598671e+10 5.584831e+08
0000c0 22 da b4 4d b7 ad 34 51 26 d1 b9 4e 69 85 6b 4f
       3.792743e+08 4.8500535e+10 1.5587459e+09 3.951389e+09
0000d0 eb 96 d5 4d 39 2c e8 50 44 44 da 4f df 24 af 50
       4.479297e+08 3.1161698e+10 7.323814e+09 2.3507433e+10
0000e0 70 3b 7e 50 f4 8a 33 4f b5 90 87 50 30 b6 9e 4e
       1.7061233e+10 3.012228e+09 1.8195261e+10 1.33137e+09
0000f0 fb f1 28 4f 5c 09 7f 4f 87 54 f0 4e c1 2b 13 50
       2.8344307e+09 4.2788035e+09 2.0160357e+09 9.876473e+09

layer1_2vm.0.weight f4 [32, 64]
000000 9f 6f 99 3e 2f d0 2d be 82 47 b1 3e 6c d9 9e bd
       0.29967973 -0.16973947 0.3462487 -0.07756314
000010 2f 7a 3c 3e 9f 6c bb 3d 00 63 e0 3e 10 fc cf bd
       0.18405984 0.09151577 0.4382553 -0.10155499
000020 03 8a 90 bd 88 35 2a bd 77 1b 22 3e da 6f 74 3e
       -0.07057574 -0.041554958 0.1583079 0.23870793
000030 65 0c 5c 3e f8 fb 95 3b 1e 6a 04 3e 8b 18 d7 bd
       0.21489103 0.004577156 0.12931105 -0.10502728
000040 d3 c0 ed 3d ab f1 58 3d f8 b8 dc 3d c0 84 3d 3e
       0.11609044 0.052964848 0.107774675 0.18507671
000050 04 bd c3 be 9d a5 77 be f3 e4 a5 bc a7 61 23 be
       -0.38230145 -0.2418427 -0.020250773 -0.1595522
000060 02 4d e1 bd d9 61 cb 3d 0f 71 2f bc 18 e1 5b 3d
       -0.11001016 0.09930772 -0.010708108 0.053681463
000070 99 09 ec bc 95 7c 24 be ea 9f 3a 3e 83 3f b6 be
       -0.02881317 -0.1606315 0.18225065 -0.3559533
000080 95 0c 98 be 70 dc 18 3e db 6d 3a 3d e2 ab 37 be
       -0.296971 0.1492784 0.045514923 -0.17936662
000090 52 5f ea bd 95 94 86 3d 67 07 60 be 30 58 b9 3c
       -0.11443962 0.065713085 -0.21877824 0.022625059
0000a0 fe 44 3e 3e 95 8a 57 3e 15 41 15 be 99 86 04 bd
       0.18581006 0.21048959 -0.14575608 -0.032354925
0000b0 ac 4e fa bd 0e 56 18 be b3 63 d2 be e6 24 99 bd
       -0.12222037 -0.14876577 -0.4109169 -0.07477741
0000c0 2f 9f c4 bd 21 fc 5b 3e 4b 6c 44 3e d1 8d 16 be
       -0.09600674 0.21482898 0.19181935 -0.14702536
0000d0 b3 ac b9 3d d2 28 26 bd 25 ba 1f bc c6 08 cf bd
       0.09066143 -0.040566273 -0.00974897 -0.10109095
0000e0 47 69 6a bd f7 ce 23 3e 8d 86 12 3e 8a 52 f0 bc
       -0.057229307 0.1599692 0.1430914 -0.029336233
0000f0 9f fb 05 3e b9 2c 19 3c 8f 24 15 be 29 93 29 bd
       0.13084267 0.009349042 -0.14564727 -0.04140011
000100 e0 94 75 3e 93 c5 ff 3d 3c cd 68 3d 3e bb 8f be
       0.23982573 0.12488856 0.05683635 -0.28072542
000110 00 1f e1 bc 60 bd 68 3d 63 b3 b2 be c8 97 b1 be
       -0.027480602 0.056821227 -0.34902486 -0.34686112
000120 b3 6b fb 3d 64 ea bc be 1a 78 b7 3e a4 cc 32 be
       0.12276401 -0.36897576 0.35833818 -0.17460877
000130 47 6f b1 bd 8d f3 8c bd 7f 4b d1 bd ac 70 02 be
       -0.086638026 -0.06882391 -0.10219478 -0.12738293
000140 ef 34 f9 bd 0e 31 de bd b0 70 bb 3e d8 2d b1 3e
       -0.121682994 -0.108492 0.3660941 0.34605289
000150 b3 16 ff be 9e 7b 40 3d 4a 46 f4 bc ce 8e 56 be
       -0.49822006 0.04699289 -0.029818673 -0.20952913
000160 18 e3 aa bb 1e 23 5a 3e 0e f1 ad 3d 88 6a 3a bc
       -0.00521506 0.21302459 0.08493243 -0.011377938
000170 87 6e 9f 3d 70 be 26 3d 0c a3 20 bd 6c 17 a9 3e
       0.07784753 0.04070896 -0.039217994 0.33025682
000180 2d 01 08 3d fe 7f a8 be 27 32 28 be 13 91 2f be
       0.033204246 -0.3291015 -0.16425382 -0.17145185
000190 40 13 95 3e 6e a4 26 be b6 8f 7c be 49 04 b9 bd
       0.2911625 -0.16273662 -0.24664196 -0.090340205
0001a0 9c b6 86 be 5b 50 8a be 5a e1 c7 39 de 57 b0 bd
       -0.26311195 -0.2701443 0.00038124138 -0.08610509
0001b0 23 4b 1b 3e e7 7f 4d 3c d0 de ed 3b 79 6c bd bc
       0.15165381 0.012542701 0.0072592273 -0.023123013
0001c0 dd f8 0c be 41 8b c2 bd d9 0c 31 bd 31 59 19 be
       -0.13766809 -0.09499217 -0.043225143 -0.1497543
0001d0 20 5c ea be 17 cf 90 bc 33 11 08 be 94 03 28 3e
       -0.4577341 -0.017676873 -0.13287811 0.16407615
0001e0 fb df 33 bd cc 17 74 be 12 03 d3 3b 50 0a 45 bc
       -0.043914776 -0.23837203 0.006439575 -0.0120263845
0001f0 80 db 0f be 26 4e 00 be f2 fe bd 3e ee 16 a7 bd
       -0.14048576 -0.12529811 0.3710857 -0.0815867
000200 ba 71 f6 bd 47 fe 11 3c 87 4f 5d 3d e1 1e a6 3d
       -0.1203341 0.008910722 0.05403092 0.081113584
000210 e1 5e 5e bd d0 99 1a 3e 69 4a 07 be 48 06 a3 be
       -0.054289702 0.15097737 -0.13211979 -0.3184073
000220 96 a6 69 3e c4 6a ab bd 1f 0f a0 3e 51 a2 d3 bd
       0.22817454 -0.08369973 0.31261536 -0.10333694
000230 bd e5 f8 be 7a ac 25 3e 6b 16 f9 3d 00 6d b5 3d
       -0.48612776 0.16179076 0.12162479 0.08858681
000240 72 f7 34 3e 24 50 14 3c 78 38 56 3c 63 cd 81 be
       0.17672518 0.00905231 0.013074987 -0.2535201
000250 35 ca d2 be f6 3e 5b 3e 51 49 4f bd 44 57 89 bc
       -0.41169897 0.21410736 -0.05060703 -0.016765244
000260 b9 42 77 be 8f 60 79 3e 0c a3 89 be 18 69 16 3e
       -0.24146546 0.2435324 -0.26882207 0.14688528
000270 21 f7 b4 3d 38 46 2b be 61 86 8c 3c 9d 80 79 be
       0.088361986 -0.16726005 0.01715392 -0.24365468
000280 b4 ac 37 3d c0 00 b8 3c 98 db 9f 3e 3d c2 06 be
       0.044842437 0.022461295 0.31222224 -0.13160034
000290 11 1b c5 3d c8 f3 86 bd 54 bd 0b 3e f5 74 68 bd
       0.09624303 -0.06589466 0.13646442 -0.056752164
0002a0 13 b7 d5 3d 14 a6 5f be ad b3 3f 3d bd 3a 54 be
       0.10435309 -0.21840698 0.04680221 -0.20725532
0002b0 ac 78 09 3e b6 66 0c 3e 85 be fd 3d f0 56 79 bd
       0.13424939 0.13711056 0.12389854 -0.060873926
0002c0 e7 de ab be e5 6e b9 bc 36 cd ab be 40 d1 cd ba
       -0.33568498 -0.022635886 -0.33555 -0.001570262
0002d0 52 4c aa bc ef f4 c0 3c 10 02 2c be 01 b4 6b 3d
       -0.020788345 0.023554293 -0.16797662 0.057544712
0002e0 c4 da 9b 3e 48 c7 53 3d 6a dc 45 3e 51 a1 26 3e
       0.30440342 0.05170372 0.19322363 0.16272475
0002f0 0a 87 fb 3d d1 df 2b 3d 27 f1 c7 bd 52 39 18 be
       0.12281616 0.041961495 -0.09762793 -0.14865616
000300 9a 74 05 bd ba f6 90 be 11 de 5f bc 12 0f 22 be
       -0.032581903 -0.28313237 -0.013663785 -0.15826061
000310 16 78 12 be 05 a5 dc bd 01 49 e8 bd e0 1e 24 bd
       -0.14303622 -0.107736625 -0.113420494 -0.040068507
000320 15 5d e3 bd 6c 6f 2a 3d 13 77 b8 bd 42 46 11 be
       -0.11101738 0.041610166 -0.090070866 -0.14186957
000330 ff 6a 46 3d ff 5b 61 bd 58 5a 9c be f8 f1 0a bd
       0.048441883 -0.055019375 -0.30537677 -0.033922166
000340 b7 03 a3 3d 50 9d d6 3d 31 18 16 3d 9a 2e 2c 3b
       0.07959693 0.10479224 0.036644164 0.0026272894
000350 23 b2 07 3f 0a 0d 92 3c ba 4a 60 3d 09 46 8d bd
       0.5300619 0.017828483 0.054758765 -0.06898124
000360 76 9e 8e be e1 f9 97 be 13 90 2d 3e c0 a9 27 be
       -0.2785527 -0.2968283 0.16949491 -0.16373348
000370 4d 6b 92 3c 41 50 aa bc e1 73 bf 3e 95 08 6f be
       0.01787343 -0.020790221 0.37393096 -0.23343118
000380 37 e9 15 3d 31 c0 16 3e ce c8 07 be 9c 0d f9 3d
       0.036599364 0.14721753 -0.13260195 0.12160799
000390 fb 33 03 3e 07 9f 3a 3c 45 f6 d9 bc 5c 6a e9 bd
       0.12812798 0.011390454 -0.026606688 -0.113972396
0003a0 2e b2 b3 bd c7 9e 00 bd b5 37 23 3e 68 1c 3c 3c
       -0.087742195 -0.031401422 0.1593922 0.011481382
0003b0 26 9b c5 3e ee 2b b9 3d 18 38 41 3e 71 cd 8a 3d
       0.3859493 0.09041582 0.18869054 0.06777466
0003c0 33 67 64 3e 29 da a1 bd b4 b0 c0 3c 89 e8 b1 3c
       0.22304992 -0.07902939 0.023521759 0.021717327
0003d0 4c a8 dd bd 25 b6 41 3e f2 5c 82 3e f3 a5 4c 3d
       -0.10823116 0.18917139 0.25461537 0.04996295
0003e0 be 17 6d 3e 5f 82 df 3d d9 de 50 3e 40 10 aa be
       0.23153588 0.10913538 0.2039751 -0.33215523
0003f0 f2 54 ee 3b ca 43 f3 be 6e 0f 93 bd f8 b8 81 3e
       0.00727331 -0.47512656 -0.07180677 0.25336432

layer1_2vm.0.bias f4 [32]
000000 b5 71 07 be 08 29 15 3d 83 b1 99 bc 5c 57 ee bd
       -0.1322697 0.036416084 -0.018761402 -0.11637756
000010 80 b3 bf 3d 41 02 a6 bd 30 92 10 be 8b 62 5c bd
       0.09360409 -0.08105899 -0.14118266 -0.053804915
000020 68 ad 10 be 78 5c 81 3c dc 92 91 3d 13 39 e7 bd
       -0.14128649 0.015791163 0.07108089 -0.11290183
000030 ba 77 1a be 8f d3 34 bc b2 41 44 3d 48 61 1e bd
       -0.15084735 -0.011036768 0.047914214 -0.038666993
000040 1b 75 cd bd e7 41 62 3e 0e 89 8d 3d 95 75 b1 3d
       -0.10032102 0.22095452 0.06910907 0.08665005
000050 c1 44 48 bd 69 10 1c 3d 62 1d 70 3e 6f e9 07 be
       -0.048893694 0.038101587 0.23448709 -0.13272642
000060 19 30 0c 3d bc 85 a7 bd ab b6 32 be fc 21 57 be
       0.034225557 -0.08179805 -0.17452495 -0.21009058
000070 56 24 3d bd 70 86 3b 3e b4 3d 0b 3e 34 59 44 bd
       -0.04617723 0.18313003 0.13597757 -0.047936633

layer1_2vm.2.weight f4 [32]
000000 33 c3 5e 3f a2 c1 8b 3f e1 7e 8a 3f 01 de 8d 3f
       0.870166 1.0918467 1.081997 1.1083375
000010 68 37 8e 3f 08 30 87 3f 86 0b 6f 3f 6c 89 84 3f
       1.1110659 1.0561533 0.9337696 1.0354438
000020 e3 f7 34 3f ac 0c 85 3f 82 32 76 3f c9 07 88 3f
       0.70690745 1.0394492 0.9617082 1.0627376
000030 11 e6 7f 3f 3f 4d 85 3f a2 f8 81 3f 4b ec 84 3f
       0.9996043 1.0414199 1.0154002 1.0384611
000040 aa 41 84 3f 9f 0b 85 3f 59 e8 4a 3f 4a c7 8d 3f
       1.0332539 1.0394171 0.79260784 1.1076443
000050 7f 9a 8b 3f 90 33 8b 3f d8 c1 81 3f 48 d2 45 3f
       1.0906523 1.0875111 1.0137281 0.7727399
000060 43 e1 92 3f 64 ff 8f 3f 53 c4 89 3f e6 95 81 3f
       1.1474994 1.1249814 1.0763038 1.012387
000070 20 61 63 3f 0a 71 65 3f c3 7e 77 3f 3f 91 84 3f
       0.88820076 0.8962561 0.966778 1.0356826

layer1_2vm.2.bias f4 [32]
000000 6c 95 1f 3d 1f 98 56 3d 83 91 af bd e0 9a a3 3c
       0.03896086 0.052391168 -0.08572676 0.019971311
000010 1c 05 a6 3c 72 1e 04 be aa 42 0c 3e ae c6 f7 3c
       0.020266108 -0.12902239 0.13697305 0.030246105
000020 5b 99 0f 3e 49 ef 59 bd 14 b5 84 be 12 b8 11 3d
       0.14023344 -0.053206716 -0.25919402 0.035575934
000030 53 60 34 bd e8 98 da 3c 12 20 27 3e 70 20 2b 3e
       -0.044037174 0.02668424 0.16320828 0.16711593
000040 10 9f 28 bc 2e 46 55 3e 98 42 1d 3d bc 42 d9 bd
       -0.01029183 0.20827553 0.038393587 -0.10608432
000050 48 e4 a9 3c c1 8a a5 3a 6e d2 a9 bd aa cc 31 bd
       0.020738736 0.0012629853 -0.082920894 -0.043408073
000060 cb 16 5a 3e be 53 74 bd 61 5b cb bc a7 06 1d 3e
       0.21297757 -0.059650175 -0.024823846 0.15334569
000070 84 e3 79 3d 47 c4 40 3d d3 c0 ea 3d dd 11 49 bc
       0.06100799 0.047062185 0.114625596 -0.012272325

layer1_2vm.2.running_mean f4 [32]
000000 c2 ef 07 be 92 e4 a1 bf d5 e6 80 be a9 9a 8a bd
       -0.13275054 -1.2647879 -0.2517611 -0.0676778
000010 1c e1 51 3d 22 12 04 bf 7a 2e a5 bd 3a 4e aa 3e
       0.05124007 -0.5159017 -0.08065505 0.33262807
000020 d2 f0 f5 3e 6a 58 42 3d bd a6 5d 3f 0a c5 0d 3f
       0.48035294 0.0474476 0.8658255 0.5537878
000030 0c ae a7 3e f1 ac d4 bd 5d 0b 05 bf 16 cd 6e 3e
       0.32749975 -0.103845485 -0.51970464 0.23320422
000040 72 00 aa be 7a ee 15 3e b3 69 f2 3e db 75 1c bf
       -0.33203465 0.14641753 0.47346267 -0.61117333
000050 24 bc 4a bf 9a c6 3b 3f 9d 2c ac bf 56 25 5d bf
       -0.7919333 0.73349917 -1.3451115 -0.86385095
000060 f9 1a 24 3f d4 3d 84 3e 16 a9 28 3e 8a 0c 52 3e
       0.64103657 0.2582842 0.16470751 0.20512596
000070 cd 14 cf 3e f5 28 f3 3e 72 52 d9 bd c0 07 9a 3d
       0.40445557 0.47492185 -0.10611428 0.075210094

layer1_2vm.2.running_var f4 [32]
000000 e8 cb 4b 3f 6b 52 bb 3f ca 24 36 3f 0a 94 61 3f
       0.7960801 1.4634527 0.71149886 0.88116515
000010 28 2d 0e 3f bf de 8f 3f 65 8f 86 3f 1f b7 7d 3f
       0.5553765 1.1239852 1.051251 0.99107546
000020 27 f0 ca 3f e1 5d 43 3f 40 69 82 3f fa 9a 9b 3f
       1.5854539 0.7631512 1.018837 1.215667
000030 6c f6 6e 3f 63 02 9b 3f f2 27 68 3f ee 78 62 3f
       0.9334476 1.2110103 0.9068595 0.88465774
000040 c6 14 22 3f ec 64 6a 3f 81 f0 95 3f a1 7e 2d 3f
       0.6331295 0.91560245 1.1714021 0.67771345
000050 54 42 a9 3f 5e 72 b3 3f a7 1f a2 3f 3e a8 a6 3f
       1.3223367 1.4019277 1.266591 1.3020093
000060 81 22 87 3f a3 ed 72 3f 89 13 69 3f 9c de 45 3f
       1.0557405 0.94893855 0.91045433 0.772928
000070 64 4a 94 3f 7e 4f 76 3f f4 d4 88 3f 19 86 2b 3f
       1.1585202 0.96215045 1.0689988 0.6700149

layer2.0.weight f4 [32, 64]
000000 32 f7 15 3a 5b 3f 4e be 90 c5 12 3d e8 cb 70 3e
       0.0005720734 -0.20141356 0.03583294 0.23515284
000010 92 8b 88 bd aa 6a 69 bd 90 3e 78 3e 3a 91 53 3c
       -0.06667246 -0.05698649 0.24242616 0.012913043
000020 55 52 5a bc 97 a8 71 bd 67 f9 47 3d f2 69 bf 3b
       -0.013325294 -0.05899867 0.048821833 0.005841487
000030 69 aa bd bd c7 1a af 3d dc 03 d9 3d 41 68 68 bb
       -0.09261019 0.08550029 0.10596439 -0.003546253
000040 a4 87 b2 3d 29 86 c9 be 28 76 75 3d b8 5b a5 3c
       0.08717278 -0.3936017 0.059927136 0.020185336
000050 90 ef fd bc 54 25 ad 3d 8c 1e a9 bd 7e 1c 7b bd
       -0.030998021 0.084543854 -0.082577795 -0.06130647
000060 b5 55 4e 3e 8b e6 5f 3d 71 9d 29 be 03 71 fd bc
       0.20149882 0.054663222 -0.16563965 -0.030937677
000070 d1 8e 5f 3d 64 6d 9c 3d 0d 91 2a 3d 18 3a 00 3d
       0.05457956 0.07638052 0.041642237 0.031305403
000080 66 7c 51 be c1 23 0c 3f d2 18 ba bc 23 ee 40 3e
       -0.2045761 0.54742056 -0.022716913 0.18840842
000090 37 95 81 3e 5e 7a 79 3e b1 57 db 3d f9 16 d4 3d
       0.25309154 0.24363086 0.10710085 0.10355944
0000a0 85 5e 2e 3d ce 15 d3 bd 3f 67 da bd 6e a4 c9 3d
       0.04257061 -0.10306893 -0.10664224 0.098458156
0000b0 22 77 42 bd 02 73 0e 3e b4 ae dd 3e aa 79 50 be
       -0.047476895 0.1391106 0.4329735 -0.20358911
0000c0 a2 06 5d bd 73 d3 08 bd 7b 6e c2 bc 29 64 67 be
       -0.053961404 -0.03340478 -0.023734322 -0.22596802
0000d0 5a 88 84 3c a7 17 bb 3e 40 5b bb 3e 07 10 43 be
       0.016178299 0.36541483 0.36593056 -0.19049083
0000e0 76 35 aa 3d 75 d2 db bd c6 ab 60 be 61 0e 8b 3d
       0.08310978 -0.10733501 -0.21940526 0.06789852
0000f0 08 4f b8 bd ce b0 e8 3d 85 37 f7 3b 6e 19 77 be
       -0.08999449 0.11361848 0.0075444602 -0.24130794
000100 96 68 7c 3e 1e 92 e8 3d 8a 6a 49 be 06 56 87 3d
       0.24649271 0.11355995 -0.19669548 0.066082045
000110 a1 fc 9c 3e 16 fa 22 3c a1 ca 90 bd 54 82 8a 3c
       0.3066149 0.00994732 -0.070698984 0.016907848
000120 4d 69 a4 be a6 51 e1 bc c7 3d a6 3e bc b7 b5 3d
       -0.32111588 -0.027504753 0.32469007 0.08872935
000130 0e 9a de 3d 28 fe 26 3e 69 59 45 bd 42 1e 2e 3d
       0.10869227 0.1630789 -0.04818097 0.042509325
000140 0d a2 6c 3e 1a 4c 2d 3d e1 18 07 3d 98 98 de bb
       0.23108692 0.042308904 0.03298271 -0.006793093
000150 3f e5 9e be bb 24 b2 3b fe 81 20 3d 44 40 23 3e
       -0.31034276 0.0054365075 0.03918647 0.15942484
000160 6a 4b b7 3c eb fe 55 bd 03 e3 44 be 72 12 8e bd
       0.022374827 -0.05224506 -0.19227223 -0.06937112
000170 6e a6 e3 3d 2e 71 32 be ee f1 5b 3e bb 9e 16 be
       0.11115728 -0.17425987 0.21479008 -0.14708988
000180 cc ac fa bd 1b f2 e2 bc c1 1d 0a 3e 97 d1 d4 bc
       -0.1223999 -0.027703336 0.13487913 -0.025978846
000190 62 f0 af 3b 39 fa d9 3d ac 67 e6 bd 0e cf 31 be
       0.005369232 0.10643429 -0.112502426 -0.17364141
0001a0 01 c6 ab 3e 1e 67 96 3e 49 45 9b be 22 c7 78 be
       0.33549502 0.29375547 -0.30326298 -0.24294713
0001b0 ce c7 99 3e b9 b3 b3 3d b6 59 83 3d c1 47 f3 bd
       0.3003525 0.08774514 0.064135954 -0.1187892
0001c0 c7 17 2c be ec 68 b2 bd 1e 1a 66 3a cf 93 32 3e
       -0.16805945 -0.087114185 0.00087776955 0.17439197
0001d0 9f ca 3d 3d 0b 33 07 3d 41 34 1c be 85 58 8c be
       0.046335813 0.033007663 -0.15254308 -0.27411285
0001e0 e3 db e1 3d 89 17 86 be 2b 1c a9 be c9 2c 7f bd
       0.11028268 -0.2618983 -0.33029303 -0.06229857
0001f0 4f 05 0c 3c 38 d3 d4 3d 44 a1 de 3d 17 26 bb 3e
       0.008546188 0.10391849 0.10870603 0.36552498
000200 e9 50 cc bd d0 39 18 bd 18 08 80 3e e6 26 84 3d
       -0.0997637 -0.03716451 0.25006175 0.06452732
000210 f5 2e 82 3d b9 5f d1 3d 42 8c b0 bd 74 f2 40 3e
       0.063566126 0.10223336 -0.08620502 0.18842489
000220 3c a9 29 3e c2 91 4e 3e 95 e5 48 3e bb 27 a1 bd
       0.16568464 0.2017279 0.19618829 -0.07868906
000230 66 cc 17 bc 59 c2 ec 3d 2e 5f 0e 3d 43 00 5f be
       -0.009265041 0.115605064 0.03475874 -0.21777444
000240 ae d0 a1 bd fd 78 b5 3e ec 9c 6b be a5 25 03 3e
       -0.079011306 0.3544387 -0.2300908 0.12807329
000250 ef 0e 8b 3e 5c 5d 1a be e7 db 35 bd cf 2e 81 3e
       0.2715983 -0.15074676 -0.04439917 0.25231025
000260 42 8c 19 be ec a3 7f be 9d 42 a3 bd 5e db bd 3d
       -0.1499491 -0.24964875 -0.0797169 0.092703566
000270 48 9d 27 be 4e 03 14 3e 70 83 c5 3d f6 56 cc 3d
       -0.16368592 0.14454386 0.0964421 0.09977524
000280 19 9c 66 3e d3 d9 e9 bd 6f 70 c4 3e 9b db 16 bc
       0.22520484 -0.114185 0.3836703 -0.009207631
000290 6c 2d 8a 3e b3 f1 d6 bd fb 93 8c 3d f8 6f 0e 3e
       0.2698778 -0.10495319 0.068641625 0.139099
0002a0 01 45 c4 bd 02 4c 1e 3c a2 96 5c be e4 f2 87 bd
       -0.09583474 0.009661676 -0.21541837 -0.066381246
0002b0 ea 59 a9 3c dd 5a 04 3e ed dd 16 be e4 e2 c2 bc
       0.020672757 0.12925287 -0.14733095 -0.02378983
0002c0 55 e6 4b be 72 64 a1 3e 50 82 b4 be cd df 2e bc
       -0.19912083 0.31521946 -0.3525567 -0.010673475
0002d0 10 1d 92 bd 69 f5 14 3d f2 f5 59 bd a2 74 b2 3d
       -0.071344495 0.036366854 -0.053213067 0.08713652
0002e0 91 3b d2 bc 38 c4 1f be 7b 00 cd bd 8e a0 06 3e
       -0.02566317 -0.15602195 -0.10009857 0.13147184
0002f0 e7 0f 27 be 4e 5a 75 3e 14 52 34 3e fa c5 13 3d
       -0.1631466 0.2396023 0.17609435 0.036077477
000300 45 72 fa bd 8d 9a 0f 3e b6 cf 49 3e cc a2 b6 bd
       -0.122288264 0.140238 0.19708142 -0.0891777
000310 81 17 70 3d cf a5 93 3e c2 e4 9c be 50 89 7a bd
       0.058616165 0.2883744 -0.30643278 -0.061166108
000320 b2 c9 4d be 71 d9 b6 3d 17 30 b8 3d b0 ca 40 bd
       -0.20096472 0.089281924 0.089935474 -0.047068298
000330 46 bb 0d be 0d a2 13 be eb 1e 5f 3e d6 18 03 be
       -0.1384097 -0.14417286 0.21789138 -0.12802443
000340 12 d6 67 3e 3c 0d 54 3e 4b 13 0d 3e 0d 4a 44 3e
       0.22640255 0.20708174 0.13776891 0.19168873
000350 75 61 84 be 36 52 c9 3e b9 1d 1d bd a5 94 ab 3e
       -0.25855604 0.39320534 -0.038358424 0.33511844
000360 f3 c3 d1 bc b7 9b 91 3e dc 22 e4 3d a3 2a 11 3c
       -0.025606131 0.28439113 0.111394614 0.008860263
000370 3b a1 12 be bb c3 90 bd 3c 82 74 3d 49 e9 db bd
       -0.14319317 -0.070685826 0.059694514 -0.10737855
000380 56 d0 ef bd 09 ab 4b bc 3e 0d a9 be 40 99 19 3e
       -0.11709659 -0.012430915 -0.33017915 0.14999866
000390 39 20 9d be 8d ce 35 bc e1 c5 0f 3e 47 c4 19 3d
       -0.30688646 -0.011096609 0.14040329 0.0375407
0003a0 4b 4d f3 3d 7c 21 86 3d f4 59 bb 3d a1 84 55 3e
       0.11879977 0.065493554 0.091480166 0.20851375
0003b0 82 d0 cd 3d d8 42 2d 3e 18 40 7e 3e 95 b9 74 3e
       0.10049535 0.1692003 0.24829137 0.23898919
0003c0 4b 6d 1c be 9b 91 19 3e 21 20 1e 3d aa ac 57 3d
       -0.15276067 0.1499695 0.03860486 0.0526549
0003d0 c0 f3 6e 3d a2 43 8f bd 59 02 97 bd 31 8b 54 3d
       0.058337927 -0.06995322 -0.07373495 0.051890556
0003e0 d7 9f 38 3e 7c 2b e9 bd 86 b1 f4 3d 88 8f 90 3d
       0.18029724 -0.11385247 0.119479224 0.070586264
0003f0 e3 1f 5a 3e f6 b0 06 be 7e f7 e6 3e 28 cd a6 3d
       0.21301226 -0.13153443 0.45110697 0.08144599

layer2.0.bias f4 [32]
000000 8f 08 dd 3c 40 7e c0 bc c8 35 fe bc d2 5a d1 3d
       0.02698162 -0.0234977 -0.031031504 0.10222401
000010 70 c8 78 3d 45 8b 45 3d f3 94 13 3d 56 2c e2 bd
       0.060738027 0.04822852 0.03603072 -0.11043613
000020 62 9d 14 be 56 2b e3 bd d5 cf 9a 3e 73 75 68 3c
       -0.14513162 -0.1109225 0.30236688 0.014188158
000030 6e d5 2c 3d 8d e6 ab bd ad 35 8a 3d 1f 9c e5 3d
       0.04219573 -0.083935834 0.06748519 0.11211418
000040 5e 59 96 bd 25 61 b2 3c 06 14 1d 3e 93 c0 25 3e
       -0.07341264 0.021774838 0.1533967 0.16186742
000050 54 c4 86 bd 86 1f 74 be b7 5a 40 3d 18 89 a4 bd
       -0.06580415 -0.2384015 0.046961512 -0.08033961
000060 c5 39 d1 bd 24 38 1c 3c b9 97 51 3d 14 e5 93 bc
       -0.10216097 0.009534869 0.051170085 -0.018053569
000070 b4 93 58 bd 16 3e 6e bd 39 3c 60 bd ec 11 00 be
       -0.052875236 -0.05816468 -0.054744933 -0.12506837

layer2.2.weight f4 [32]
000000 1a 0d 91 3f 5e ef 79 3f 11 97 9b 3f 41 6d 8f 3f
       1.1332123 0.9763087 1.2155477 1.1205217
000010 6e a4 a2 3f 21 3a 90 3f 5d d2 8b 3f 43 04 86 3f
       1.270643 1.126774 1.0923573 1.047005
000020 d6 3b 83 3f d3 b7 49 3f 31 63 8e 3f 36 39 5a 3f
       1.0252635 0.7879612 1.1124021 0.85243547
000030 95 4e 32 3f d4 ee 8e 3f 78 ce 70 3f a6 78 77 3f
       0.69651157 1.1166635 0.94065046 0.9666847
000040 60 95 62 3f de a6 71 3f 21 33 7c 3f d7 9b 89 3f
       0.8850918 0.94395244 0.98515517 1.0750684
000050 84 88 54 3f 90 33 76 3f a6 59 4c 3f d7 0e 75 3f
       0.83020806 0.9617243 0.7982429 0.9572577
000060 05 2e 84 3f e0 db 63 3f 87 df 6f 3f 4a c0 92 3f
       1.0326544 0.8900738 0.9370045 1.1464932
000070 99 7c 59 3f 74 37 80 3f 52 61 93 3f 5b 9a 72 3f
       0.84955746 1.0016923 1.1514075 0.9476678

layer2.2.bias f4 [32]
000000 97 dc 90 3e c0 e7 1c 3e 58 1f 62 3e ea 26 d9 3d
       0.28293297 0.1532278 0.22082269 0.106031254
000010 9c 56 dc 3d ae 61 31 3e 76 bb 4b be f7 c4 29 3e
       0.10758707 0.17322418 -0.1989573 0.16579042
000020 07 04 2c 3e df f9 27 3d a7 0e 3a 3e c3 62 98 be
       0.16798411 0.04100978 0.18169652 -0.2976285
000030 8d c9 6c be 83 f2 1b bc ba d6 14 bd 1b 73 03 3d
       -0.2312376 -0.0095182685 -0.03633759 0.032092195
000040 0f 4e f7 bd 28 2e 48 bd 63 63 a7 3c 62 ab 1d 3e
       -0.12075435 -0.048872143 0.020433133 0.15397409
000050 ed 93 15 be dc 3e 11 3e 82 cd 62 3e 57 b6 de bd
       -0.1460721 0.14184135 0.22148708 -0.10874622
000060 fd c4 11 3e 06 bc 6b 3c d9 90 9d be 57 b5 d2 3d
       0.14235301 0.01438809 -0.30774572 0.10288494
000070 dd 55 b8 be 99 27 bf 3d 5a 78 ed 3d 6b c0 83 3e
       -0.36003008 0.093337245 0.11595221 0.2573274

layer2.2.running_mean f4 [32]
000000 77 ed 4d 3f ca 02 9b 3e 60 82 2e 3f c8 de a5 3f
       0.8044047 0.30275565 0.68167686 1.2958612
000010 44 a1 65 bf 92 4a 3f 3f 70 e4 bd 3e f1 c8 1e be
       -0.89699197 0.7472316 0.37088346 -0.1550634
000020 54 19 8c 3f 97 29 af bd b4 26 bf 3f c5 d1 e3 be
       1.094523 -0.085528545 1.4933686 -0.4449598
000030 01 84 67 3e e4 48 62 bf 59 0a 77 be 94 7c f1 bb
       0.22608949 -0.8839247 -0.24125041 -0.007369587
000040 7e cd 46 3f d2 5b e7 3e da c2 3c 3d ca 0a 35 3f
       0.77657306 0.4518724 0.046084262 0.7071959
000050 dd f3 bf bf 7f c9 20 bf 73 90 c7 3e 08 f4 9e be
       -1.4996296 -0.6280746 0.38977394 -0.31045556
000060 f2 29 86 bf c2 f4 4c bd de e6 ba 3e 9b 4f 0b bf
       -1.0481551 -0.050038107 0.36504263 -0.54418343
000070 51 c8 f0 bd 35 e9 bf 3d b6 8a 4d bf 95 f7 67 bf
       -0.11756957 0.093706526 -0.8028978 -0.90612155

layer2.2.running_var f4 [32]
000000 48 5a 6c 3f f8 1b 28 3f de 39 59 3f 10 c2 cb 3f
       0.9232526 0.65667677 0.84853923 1.5918598
000010 ca 3a 47 3f 7b f2 17 3f 3e 2d 83 3f 28 b4 2d 3f
       0.7782408 0.5935437 1.0248182 0.6785302
000020 19 5b c1 3f 01 3e 7a 3f a0 f6 a5 3f ee c4 11 3f
       1.5105926 0.9775086 1.2965889 0.56941116
000030 64 f1 c7 3f dc f2 86 3f 57 b6 2a 3f b7 c5 20 3f
       1.5620542 1.0542865 0.6668448 0.6280169
000040 7a 2d b1 3f 23 9a 21 3f 34 a0 1b 3f e7 18 4e 3f
       1.3842003 0.6312582 0.60791326 0.8050675
000050 80 9e b9 3f 2e 32 59 3f 94 47 0e 3f 1e aa de 3f
       1.4501495 0.84842193 0.5557797 1.7395666
000060 96 34 9d 3f b2 74 1e 3f 2e 9e 30 3f d1 f2 e0 3f
       1.2281673 0.6189681 0.68991363 1.7574102
000070 a7 f4 df 3f 4e 37 96 3f 3e 63 44 3f 4b 22 66 3f
       1.7496537 1.1735628 0.7671393 0.89896077
