models/clients/client-7/sub_model.pkl (torch, 42501 bytes, 27 tensors)

layer1_task.0.weight f4 [32, 3]
0	0x3de6137d	0.11234186
1	0xbc97a762	-0.018512432
2	0xbec2bc9f	-0.3803453
3	0xbeb7e241	-0.35914806
4	0x3e2ef943	0.17087273
5	0x3dda288b	0.10652264
6	0xbf085e7d	-0.5326918
7	0x3e1dfe50	0.15429044
8	0x3e839791	0.25701573
9	0x3d5fbf71	0.054625932
10	0x3d7b4304	0.061343208
11	0x3e98ae93	0.2982069
12	0xbae805f8	-0.0017701974
13	0xbe599cea	-0.21251264
14	0x3d8e8007	0.06958013
15	0x3e2ba6ed	0.16762896
16	0xbc2991be	-0.010349689
17	0xbd900b5a	-0.07033415
18	0xbec11b54	-0.37716162
19	0xbe5a1b2a	-0.21299425
20	0x3e174191	0.14771105
21	0xbde61101	-0.11233712
22	0x3caa6cdb	0.02080386
23	0x3da9e4b0	0.08295572
24	0xbcf81805	-0.03028489
25	0x3e4a5c32	0.19761732
26	0xbe1c0e5b	-0.15239851
27	0x3ea047b6	0.3130471
28	0xbe80e8e9	-0.25177696
29	0xbe0b6cf4	-0.13615781
30	0x3d8befee	0.06832872
31	0x3d9331f3	0.071872614
32	0x3ebdbace	0.37056583
33	0x3e184502	0.14870074
34	0x3e6ce528	0.23134291
35	0xbe9a8458	-0.30179095
36	0xbdd91cdb	-0.10601207
37	0xbe627dc4	-0.22118288
38	0x3e760480	0.24025154
39	0x3d5de709	0.05417541
40	0x3f1e068e	0.6172875
41	0xbdfc1a84	-0.12309745
42	0x3cc49572	0.023997042
43	0xbea636fc	-0.32463825
44	0xbf0ef38d	-0.5584038
45	0x3de0b4e9	0.10972006
46	0x3df17bec	0.11791214
47	0x3f076e49	0.52902657
48	0x3ea1782c	0.31536996
49	0x3e8a7a30	0.27046347
50	0x3eade896	0.3396651
51	0xbd747466	-0.05968132
52	0xbcb22d96	-0.021750253
53	0xbead45dc	-0.3384236
54	0x3e086b34	0.13322145
55	0x3de23706	0.11045651
56	0x3dd8bbc9	0.10582692
57	0x3cf3d2cb	0.0297636
58	0xbeb9b1e3	-0.3626853
59	0xbde92d91	-0.11385644
60	0xbecf8d68	-0.40537572
61	0x3d91d678	0.07120985
62	0xbdb7f6e9	-0.08982641
63	0x3e6152ac	0.22004193
64	0xbee4fe0b	-0.4472507
65	0x3d9dbfe8	0.07702619
66	0x3dbde65d	0.09272454
67	0x3e0be1e3	0.13660388
68	0x3d73892f	0.059457
69	0xbe05a03d	-0.13049407
70	0x3dd488f3	0.103776835
71	0x3e175602	0.14778903
72	0xbea04e7a	-0.31309873
73	0x3e46f650	0.19429898
74	0x3e36cffc	0.17852777
75	0x3d0509ef	0.032480177
76	0xbd4636a3	-0.04839195
77	0xbe80b108	-0.25135064
78	0x3dbb2655	0.09138171
79	0x3dc81b62	0.09770848
80	0x3dac4f97	0.08413618
81	0x3e2d04a9	0.16896309
82	0xbe215b23	-0.15757422
83	0x3e4639c7	0.19357978
84	0xbed92021	-0.42407325
85	0x3e14d492	0.14534214
86	0x3c5b623d	0.013390121
87	0x3e2d8ebb	0.16948979
88	0xbee1451d	-0.43998042
89	0x3d9295f3	0.07157507
90	0x3e8309a6	0.255933
91	0xbc1ab8c8	-0.009443469
92	0xbed86a81	-0.42268756
93	0x3e353dfa	0.17699423
94	0xbf2205d3	-0.6329014
95	0x3c7eb062	0.015544983

layer1_task.0.bias f4 [32]
0	0x3d957c05	0.072990455
1	0x3e139148	0.14410889
2	0xbdbe9b3a	-0.09306951
3	0x3daeca43	0.08534672
4	0x3bb1a5be	0.0054213693
5	0xbc0ce491	-0.008599416
6	0xbdb51acb	-0.08843001
7	0xbe106724	-0.14101845
8	0xbbc084c1	-0.0058752005
9	0x3d409f08	0.047026664
10	0xbc5e063a	-0.013551289
11	0xbe6ecc93	-0.23320226
12	0x3e2e5722	0.17025426
13	0xbc59ec41	-0.013300956
14	0xbd81a394	-0.06330028
15	0xbc033578	-0.008008353
16	0xbe03f7bb	-0.1288747
17	0x3e5b2983	0.21402554
18	0x3d5c7e07	0.053831127
19	0xbd070613	-0.032964777
20	0x3e27d37f	0.16389273
21	0xbe2470f0	-0.16058707
22	0xbe074268	-0.13208926
23	0x3d83ff09	0.064451285
24	0xbd9fe3dd	-0.07807133
25	0xbcccb2e4	-0.024987645
26	0xbd991c16	-0.0747606
27	0xbd365ad7	-0.044520225
28	0xbdea0b6e	-0.11427961
29	0x3e37d429	0.17952026
30	0xbd0f16db	-0.034933906
31	0xbdd10ca6	-0.102074906

layer1_task.2.weight f4 [32]
0	0x3f4f7e3f	0.8105201
1	0x3f854a23	1.041325
2	0x3f7968a8	0.9742532
3	0x3f6ea72f	0.9322385
4	0x3f5612b9	0.8362232
5	0x3f8f5faf	1.1201075
6	0x3f74053e	0.953205
7	0x3f72f8e9	0.94911057
8	0x3f5eff94	0.8710873
9	0x3f616b76	0.880546
10	0x3f9a790c	1.206819
11	0x3f896971	1.0735303
12	0x3f7aa6b5	0.97910625
13	0x3f851478	1.0396872
14	0x3f972439	1.1807929
15	0x3f8e2a14	1.1106591
16	0x3f7f4b9f	0.99724764
17	0x3f8f35e6	1.1188323
18	0x3f830e04	1.0238652
19	0x3f8c67f5	1.0969225
20	0x3f81c042	1.0136797
21	0x3f95b15a	1.1694748
22	0x3f86ba48	1.0525599
23	0x3f81d429	1.0142871
24	0x3f8b5086	1.0883949
25	0x3f91cdf0	1.1390972
26	0x3f8410bc	1.0317607
27	0x3f697282	0.9119035
28	0x3f7219e4	0.94570756
29	0x3f646fd3	0.8923313
30	0x3f7f682b	0.9976832
31	0x3f83733d	1.0269543

layer1_task.2.bias f4 [32]
0	0x3cfd6ee3	0.030936664
1	0x3d789c07	0.060695674
2	0xbe8ee988	-0.27912545
3	0x3da7b331	0.08188475
4	0x3e61a703	0.22036366
5	0x3d83a783	0.06428435
6	0x3e17bff4	0.14819318
7	0xbd81f6a4	-0.06345871
8	0x3c73f00f	0.014888777
9	0x3e3351e2	0.17511705
10	0x3cef60f7	0.029221041
11	0x3b4cf9c0	0.0031276792
12	0xbd92f9c2	-0.07176544
13	0x3d410768	0.047126204
14	0xbe04dabe	-0.12974069
15	0x3d81c898	0.06337088
16	0x3da11e8b	0.07867154
17	0x3caecbc5	0.0213374
18	0xbd3e8cf4	-0.046521142
19	0xbd6dc1fb	-0.058046322
20	0x3dae9ba8	0.08525783
21	0x3e13ce36	0.14434132
22	0xbd7354f8	-0.059407204
23	0xbd11fe1a	-0.03564272
24	0x3d86425b	0.06555625
25	0xbdb735b7	-0.08945792
26	0x3d0fd2ef	0.03511327
27	0x3dc3fa19	0.09569187
28	0xbdc188d7	-0.09449928
29	0xbe30c32b	-0.1726195
30	0xbd642530	-0.055699527
31	0xbdca1a67	-0.09868317

layer1_task.2.running_mean f4 [32]
0	0x45d380f6	6768.12
1	0xc6b163d2	-22705.91
2	0xc70500ed	-34048.926
3	0x4560e6c2	3598.4224
4	0x431f116f	159.0681
5	0x462f30e7	11212.226
6	0xc6bbff6b	-24063.709
7	0xc5e7bb6d	-7415.428
8	0xc4f5a675	-1965.2018
9	0x469d1004	20104.008
10	0x4588ce06	4377.753
11	0x4613a1b6	9448.428
12	0xc5da28f0	-6981.117
13	0x455aaeec	3498.9326
14	0x44bda49b	1517.1439
15	0x45eb1fbc	7523.967
16	0x4699c5fc	19682.992
17	0xc562be94	-3627.9111
18	0x45fc7bbc	8079.467
19	0x44efeffe	1919.4998
20	0xc6cf16c6	-26507.387
21	0x465ca1da	14120.463
22	0x45b074a6	5646.581
23	0xc605366f	-8525.608
24	0xc69d85a1	-20162.814
25	0x45375f2e	2933.9487
26	0x45b4de7f	5787.812
27	0x46260fd4	10627.957
28	0xc6d3b970	-27100.719
29	0x4628e1e6	10808.475
30	0x4675040e	15681.014
31	0x463d0d32	12099.299

layer1_task.2.running_var f4 [32]
0	0x4c076357	3.5491164e+07
1	0x4dbe5613	3.99164e+08
2	0x4e5f8cc2	9.37636e+08
3	0x4b1d67d9	1.0315737e+07
4	0x4718bcb7	39100.715
5	0x4cb784a5	9.621636e+07
6	0x4dd93da5	4.5558698e+08
7	0x4c258af4	4.339605e+07
8	0x4a427357	3.1858778e+06
9	0x4d93fcef	3.1035338e+08
10	0x4b62443d	1.4828605e+07
11	0x4c876b7e	7.099902e+07
12	0x4c16f60b	3.9573548e+07
13	0x4b10ae7a	9.48185e+06
14	0x49e1c396	1.8494588e+06
15	0x4c2ad1ad	4.4779188e+07
16	0x4d905466	3.0268128e+08
17	0x4b1e8c1d	1.0390557e+07
18	0x4c3d02e2	4.954817e+07
19	0x4a2f27d9	2.8697502e+06
20	0x4e00fb38	5.409869e+08
21	0x4d1a4176	1.6174883e+08
22	0x4bc3c50f	2.5659934e+07
23	0x4c590679	5.6891876e+07
24	0x4d98bd4c	3.2031782e+08
25	0x4add1da6	7.245523e+06
26	0x4bbfe36f	2.5151198e+07
27	0x4caae680	8.960102e+07
28	0x4e09d515	5.781108e+08
29	0x4caea19c	9.155709e+07
30	0x4d45a827	2.0725822e+08
31	0x4cda9b9e	1.1461349e+08

layer1_1vm.0.weight f4 [64, 40]
0	0xbd797e5e	-0.06091153
1	0x3c2d3ce1	0.010573597
2	0xbc59a362	-0.013283582
3	0x3d8dbee2	0.06921174
4	0x3dee08ff	0.116228096
5	0xbb5fef88	-0.0034169871
6	0xbcdc57aa	-0.02689727
7	0xbc9435b7	-0.01809202
8	0xbcad5c12	-0.021162067
9	0x3c8b3ff2	0.016998265
10	0xbe430027	-0.19043027
11	0xbedd8f85	-0.4327356
12	0x3da89161	0.08230854
13	0x3d1f4f76	0.03889414
14	0xbe6a1238	-0.22858512
15	0x3dc058d2	0.09391941
16	0x3d5b1670	0.053488195
17	0xbd9a0490	-0.075204015
18	0xbca8c961	-0.020603837
19	0xbe887555	-0.26652017
20	0x3ea6e8b1	0.32599404
21	0xbdba5c2d	-0.090996124
22	0xbe97bce7	-0.2963631
23	0x3de14314	0.10999122
24	0xbbe2a594	-0.006916711
25	0xbd9a0bb7	-0.07521766
26	0x3e7c645f	0.24647664
27	0xbe5b1f89	-0.21398748
28	0x3eab0f55	0.33410135
29	0xbe4a2baf	-0.19743226
30	0xbe8e0f43	-0.2774602
31	0x3ccd8209	0.02508642
32	0xbe1f449e	-0.15553519
33	0x3e462bf7	0.19352709
34	0x3e8767bc	0.2644633
35	0xbd7477e3	-0.059684645
36	0x3e87714b	0.26453623
37	0x3e256103	0.16150288
38	0x3e305bfa	0.17222586
39	0x3e11db29	0.14243759
40	0xbe0f28fc	-0.13980478
41	0xbd91bfe3	-0.071166776
42	0x3dd665e3	0.10468652
43	0x3e843c34	0.2582718
44	0x3e45154e	0.19246408
45	0x3dfbba69	0.12291414
46	0xbe74e5d3	-0.23915796
47	0x3d2dcd0c	0.042431876
48	0xbeb6c797	-0.3569915
49	0xbd108fd7	-0.035293426
50	0xbddc5747	-0.10758834
51	0x3da64d8b	0.08120259
52	0xb99808dc	-0.000289983
53	0x3cc667cd	0.024219418
54	0xbdccf2c3	-0.100072406
55	0xbdac6e6b	-0.08419498
56	0x3e85dcc2	0.26144987
57	0x3d8f4950	0.06996405
58	0x3d5d3bc9	0.054012094
59	0x3e682700	0.22671127
60	0xbdd953fd	-0.106117226
61	0xbdb0ee74	-0.08639231
62	0xbe68f482	-0.22749522
63	0x3e17a72d	0.14809866
64	0xbe564291	-0.2092383
65	0x3be98864	0.0071268547
66	0xbd6cd038	-0.05781576
67	0x3ebe530b	0.37172732
68	0x3dc46f89	0.09591586
69	0x3d6979c6	0.057000898
70	0xbdf01c36	-0.11724131
71	0xbd3b5c82	-0.04574252
72	0x3e569f9b	0.20959322
73	0x3e14816b	0.14502494
74	0x3d0a054d	0.03369646
75	0xbdebaf22	-0.11508013
76	0xbeaee372	-0.34157902
77	0x3e3420ef	0.17590688
78	0x3d5cca36	0.05390378
79	0x3d1ec9db	0.038766723
80	0x3d8db656	0.069195434
81	0xbde574da	-0.11203928
82	0xbc9274cb	-0.017877957
83	0xbd80d0cf	-0.06289827
84	0xbd1c8a4b	-0.038217824
85	0x3dc21d91	0.094782956
86	0x3da7355b	0.081644736
87	0xbd5b91d2	-0.053605862
88	0xbe723457	-0.23652779
89	0xbdc928da	-0.09822245
90	0xbcfda76c	-0.030963622
91	0x3da79111	0.08181966
92	0x3d500228	0.050783306
93	0x3d98cfad	0.07461486
94	0x3daef73f	0.08543252
95	0x3dee8fb0	0.116485
96	0x3ca9d7d9	0.020732807
97	0x3ebc7e6a	0.36815196
98	0xbd080f0a	-0.033217467
99	0xbc135bbd	-0.00899404
100	0x3cc798b9	0.024364816
101	0x3e0fdd16	0.14049181
102	0x3d2988f5	0.041390378
103	0xbe55df7c	-0.20886034
104	0xbd544027	-0.051818993
105	0x3d82a4b9	0.063790746
106	0xbe7094b8	-0.23494232
107	0x3e5c7d61	0.21532203
108	0xbde4bc92	-0.111687794
109	0xbe458b71	-0.19291474
110	0x3d177fa6	0.03698697
111	0xbbcb22bb	-0.0061992086
112	0x3dd5933f	0.104284756
113	0x3e6f5403	0.23371892
114	0x3e4d4f67	0.20049821
115	0x3da49171	0.08035553
116	0x3e616137	0.22009741
117	0x3e22db19	0.15903892
118	0x3df3c5f4	0.11902991
119	0xbeee02ed	-0.46486607
120	0xbd12577e	-0.03572797
121	0xbe2888c3	-0.1645842
122	0x3e2180d1	0.15771796
123	0xbe7a3557	-0.2443441
124	0xbda6e8b0	-0.0814985
125	0xbe07124f	-0.13190578
126	0xbd617f37	-0.055052962
127	0xbccc5a4c	-0.0249454
128	0xbe0392f4	-0.12849027
129	0x3dcc1b31	0.09966124
130	0x3b93f7c4	0.00451562
131	0x3e5237f5	0.20529158
132	0x3b934ee5	0.004495489
133	0xbde730f2	-0.112886325
134	0xbe9f85c0	-0.3115673
135	0xbe286b77	-0.16447245
136	0xbdca82a7	-0.09888201
137	0xbdb1a92d	-0.08674846
138	0x3dc6fdb5	0.097163595
139	0x3e62c028	0.22143614
140	0xbc3f6af3	-0.0116832135
141	0x3e613200	0.2199173
142	0x3dd1ce49	0.10244424
143	0xbddd64d3	-0.10810246
144	0xbe9f9e8f	-0.31175658
145	0x3e04ef88	0.12981999
146	0x3d6760f1	0.056488935
147	0x3da3ab8c	0.07991704
148	0x3d86e472	0.06586541
149	0x3dc73e66	0.097286984
150	0xbd0c39c2	-0.03423477
151	0x3e73d54f	0.2381184
152	0xbecd78e9	-0.4013131
153	0xbecb9b65	-0.39766994
154	0xbe91f290	-0.28505373
155	0xbeaa8497	-0.33304283
156	0xbdb44d12	-0.088037625
157	0x3e570157	0.20996605
158	0xbe2edb13	-0.17075758
159	0xbbcc42f0	-0.0062335655
160	0x3d403695	0.046927053
161	0xbdeafaaa	-0.114735916
162	0xbe66ad76	-0.22527108
163	0xbddf0b7a	-0.10890861
164	0xbe50cce9	-0.20390667
165	0x3dafc6da	0.0858285
166	0xbe182c69	-0.14860691
167	0xbe0085b7	-0.12551008
168	0x3d270f10	0.04078585
169	0x3e66553e	0.22493455
170	0x3df01ad1	0.11723865
171	0xbc6f2faf	-0.014598771
172	0x3e87ba40	0.26509285
173	0x3d984d4d	0.07436619
174	0xbdfb662d	-0.12275348
175	0xbde945c1	-0.113902576
176	0xbd933d91	-0.07189477
177	0x3e6c00da	0.230472
178	0x3d41d8b4	0.047325805
179	0x3e05fd91	0.13085009
180	0xbe45bdfd	-0.19310756
181	0xbdfcd078	-0.1234445
182	0x3e789e1b	0.24279062
183	0xbd5350a3	-0.051590573
184	0x3e59af5a	0.21258298
185	0x3d6c26d5	0.05765422
186	0xbe5b9dde	-0.2144694
187	0xbe9ea62f	-0.30986163
188	0xbe38f205	-0.18061073
189	0x3dc3f4aa	0.0956815
190	0xbd02a9db	-0.031900268
191	0x3e6c0e7e	0.23052403
192	0x3dcadc56	0.09905307
193	0x3e64283d	0.22280975
194	0x3d8d4f01	0.068998344
195	0x3e958063	0.29199514
196	0xbde5d266	-0.11221771
197	0xbdd2c940	-0.10292292
198	0x3d04fd16	0.032467924
199	0x3d543916	0.051812254
200	0xbd06e328	-0.032931477
201	0x3e0ee5f3	0.13954906
202	0xbde8cba6	-0.11366968
203	0xbd539314	-0.051653937
204	0x3e049cd0	0.12950444
205	0x3dc7c096	0.0975353
206	0xbd12fb1b	-0.035884004
207	0xbd923e08	-0.07140738
208	0xbddde572	-0.10834779
209	0x3e5fe3ff	0.21864317
210	0xbe6ea2ba	-0.23304263
211	0xbe8c3e8e	-0.27391475
212	0x3e190772	0.14944246
213	0x3c80f267	0.015740586
214	0x3dc9b70e	0.09849368
215	0xbe37ffd9	-0.17968692
216	0xbda5ae14	-0.080898434
217	0x3e70e681	0.2352543
218	0x3e3db5c7	0.18526374
219	0xbd3b6205	-0.045747776
220	0xbd705a2a	-0.058679737
221	0x3e2588b9	0.16165437
222	0x3d431319	0.047625635
223	0x3e775e45	0.24157055
224	0x3d10ab07	0.035319354
225	0xbc67520b	-0.014118682
226	0xbde9edb9	-0.11422295
227	0x3d7e2611	0.06204802
228	0x3e2ecef3	0.17071132
229	0x3c8f59a9	0.017498808
230	0x3d027373	0.031848382
231	0x3e1c715b	0.15277617
232	0xbd7df2b6	-0.061999045
233	0xbed6dede	-0.4196691
234	0x3c7a10e8	0.01526282
235	0xbe0052b1	-0.12531544
236	0xbe965569	-0.29362038
237	0x3d122020	0.035675168
238	0x3e67ee1b	0.22649424
239	0x3c0f554d	0.008748365
240	0xbe268949	-0.16263308
241	0xbe0c127b	-0.13678925
242	0x3c10f152	0.008846598
243	0xbdb1629b	-0.086613856
244	0xbd1734d1	-0.036915604
245	0xbe8f47e4	-0.27984536
246	0xbde0ee38	-0.109829366
247	0xbe8bcbb0	-0.2730384
248	0x3e484f93	0.19561605
249	0xbdd42428	-0.10358459
250	0xbdd7feee	-0.10546671
251	0x3e63ac93	0.222338
252	0xbeadfd3a	-0.3398226
253	0xbd283e22	-0.04107488
254	0x3d6009ed	0.054696966
255	0x3ec63155	0.38709512

layer1_1vm.0.bias f4 [64]
0	0xbe1ba459	-0.15199412
1	0x3d77793c	0.060418352
2	0xbcd297a2	-0.02570707
3	0x3dd1f1ea	0.102512196
4	0x3d1456e8	0.036215693
5	0xbdb7165b	-0.08939811
6	0x3d417f1a	0.047240354
7	0xbe0c477c	-0.13699144
8	0x3d0fd159	0.03511176
9	0xbdfcf56a	-0.123514965
10	0xbd945401	-0.07242585
11	0xbe1013b7	-0.1407002
12	0xbd1588d2	-0.036507435
13	0xbd267239	-0.040636275
14	0xbdd8e38d	-0.10590277
15	0xbd43ed52	-0.04783375
16	0x3e2c343d	0.16816802
17	0xbdac4021	-0.08410669
18	0xbca0d97a	-0.01963495
19	0xbe4730e5	-0.19452246
20	0x3d3b2c0a	0.045696296
21	0xbdee6c94	-0.116418034
22	0x3e034c3d	0.12822051
23	0x3e895789	0.26824597
24	0x3d311b15	0.043238718
25	0x3c0cc03d	0.008590755
26	0xbdca9b50	-0.09892905
27	0xbee7d7e0	-0.45281887
28	0x3dd93d62	0.10607411
29	0xbbcb7125	-0.0062085562
30	0xbced7930	-0.02898845
31	0xbd96c873	-0.073624514
32	0x3e6edb14	0.23325759
33	0xbdb38857	-0.08766239
34	0x3d534c0e	0.051586203
35	0x3e17152b	0.14754169
36	0xbd9f6e43	-0.07784703
37	0xbd088356	-0.033328377
38	0xbe492863	-0.19644313
39	0x3df8d65b	0.1215026
40	0x3dda6d82	0.10665418
41	0x3c0f4bb7	0.008746079
42	0xbe422c95	-0.18962319
43	0x3d69ca8b	0.057077926
44	0xbd242fba	-0.040084578
45	0x3d7335bc	0.059377417
46	0x3d75f093	0.060043883
47	0x3d57fcae	0.05273121
48	0xbe09dd72	-0.13463381
49	0xbda1770e	-0.07884036
50	0xbda8e734	-0.082472235
51	0xbd1eeaca	-0.03879813
52	0xbd5d604b	-0.05404691
53	0xbe9ffe2d	-0.31248608
54	0x3e898760	0.26861095
55	0x3d01ddde	0.03170573
56	0x3e2b092a	0.16702715
57	0x3e1e4989	0.15457739
58	0xbbb4b79e	-0.005515053
59	0xbd8440f5	-0.06457702
60	0xbc0fb9ed	-0.0087723555
61	0x3caf3f6c	0.021392547
62	0x3dde78a4	0.10862854
63	0x3d3596d0	0.04433328

layer1_1vm.2.weight f4 [64]
0	0x3f740ef0	0.9533529
1	0x3f9916a9	1.196004
2	0x3f6789a6	0.9044441
3	0x3f81ede3	1.0150722
4	0x3f8249fc	1.0178828
5	0x3f9bb801	1.2165529
6	0x3f80b933	1.0056518
7	0x3f787bb0	0.9706373
8	0x3f845080	1.0337067
9	0x3f5de49e	0.8667697
10	0x3f738212	0.95120347
11	0x3f7b3a8c	0.9813621
12	0x3f9d758d	1.2301499
13	0x3f7756ba	0.9661671
14	0x3fab4e22	1.3383219
15	0x3f7d9a76	0.99063814
16	0x3f71b3e3	0.9441511
17	0x3f85f314	1.0464807
18	0x3f71bf39	0.9443241
19	0x3f84bf6f	1.0370921
20	0x3f74affd	0.95581037
21	0x3f924289	1.1426555
22	0x3f433ec0	0.76267624
23	0x3f4c56a7	0.7981972
24	0x3f8b06ce	1.0861452
25	0x3f514d7f	0.81758875
26	0x3f907a56	1.1287334
27	0x3f8dbdbb	1.1073526
28	0x3f798963	0.9747526
29	0x3f8447df	1.0334433
30	0x3f8624e2	1.0480006
31	0x3fa5777d	1.292709
32	0x3f6dadd4	0.92843366
33	0x3f818503	1.0118717
34	0x3f839586	1.0280006
35	0x3f7f56b9	0.99741703
36	0x3f8c28b1	1.0949918
37	0x3f770801	0.9649659
38	0x3f926ac4	1.1438832
39	0x3f4a964e	0.79135597
40	0x3f829970	1.0203075
41	0x3f7324e8	0.9497819
42	0x3f4c120c	0.7971504
43	0x3f8339a2	1.0251963
44	0x3f56a959	0.83852154
45	0x3f85cb28	1.0452623
46	0x3f82584b	1.0183195
47	0x3f610d25	0.8791068
48	0x3f8c40f8	1.0957327
49	0x3f8c506d	1.0962044
50	0x3f566115	0.83741885
51	0x3f9c3f2c	1.2206779
52	0x3f89ba4a	1.0759976
53	0x3f4fd98f	0.81191343
54	0x3f892fa9	1.071767
55	0x3f839fe8	1.0283175
56	0x3f80c01d	1.0058628
57	0x3f677fcd	0.90429384
58	0x3f82d49a	1.0221131
59	0x3f8ec1b6	1.1152866
60	0x3f76808a	0.96289885
61	0x3f5239df	0.82119554
62	0x3f77be05	0.9677432
63	0x3f8a8503	1.0821842

layer1_1vm.2.bias f4 [64]
0	0x3c6a8da2	0.014315994
1	0x3bf22430	0.007389568
2	0xbdb56d69	-0.08858759
3	0xbd859ec6	-0.06524424
4	0x3b584df1	0.003300544
5	0xbddf46da	-0.10902186
6	0xbe5630fd	-0.20917125
7	0xbe6a53ce	-0.22883531
8	0x3e041fb8	0.12902725
9	0x3dd17ff1	0.10229481
10	0xbe313788	-0.1730634
11	0x3e622c69	0.22087254
12	0x3e06b578	0.13155162
13	0x3dbc2257	0.09186237
14	0x3c923800	0.017848969
15	0x3dbbdfa8	0.091735184
16	0x3d5eec78	0.054424733
17	0x3da8424e	0.082157716
18	0xbdb3f80f	-0.08787548
19	0x3e58f029	0.21185364
20	0xbd52f647	-0.0515044
21	0xbe18ee17	-0.14934574
22	0xbddc071e	-0.10743545
23	0xbe2a498a	-0.16629615
24	0xbd69d11c	-0.057084188
25	0xbdb4cf78	-0.08828634
26	0xbe03ab70	-0.12858367
27	0xbcbf87bf	-0.023380158
28	0xbe1d5c74	-0.153673
29	0x3e6e9e4d	0.23302574
30	0x3dd0ee70	0.10201728
31	0x3dbcf5f5	0.092266
32	0x3e261293	0.16218023
33	0x3e06997c	0.13144487
34	0xbe26cb8a	-0.16288581
35	0x3ccbb294	0.024865426
36	0xbe0cfb2f	-0.13767694
37	0xbdb84cbd	-0.08999012
38	0xbcb10f1f	-0.021613656
39	0x3d26591e	0.040612333
40	0xbe04cd5e	-0.12968966
41	0x3e6b6d2a	0.22990862
42	0xbd25fa53	-0.04052193
43	0xbdb74524	-0.089487344
44	0xbc885465	-0.016641805
45	0xbc3f8a9d	-0.011690763
46	0xbe4556b8	-0.19271362
47	0xbcf903de	-0.030397352
48	0x3d1f3e37	0.038877692
49	0x3e7c047e	0.24611089
50	0xbd33f490	-0.043934405
51	0xbc8200f0	-0.015869588
52	0x3da7405f	0.08166575
53	0xbd9b4aef	-0.07582652
54	0xbd2b308f	-0.041794356
55	0xbe425202	-0.18976596
56	0x3e3b04ea	0.18263593
57	0xbd933498	-0.07187766
58	0x3d7debf3	0.061992597
59	0x3dd04406	0.101692244
60	0x3d9eb9a0	0.07750249
61	0xbba706c4	-0.005097242
62	0x3d3544cb	0.04425506
63	0xbd9b9b1c	-0.07597944

layer1_1vm.2.running_mean f4 [64]
0	0x474cfac7	52474.777
1	0xc6c4b216	-25177.043
2	0xc7f1fb4e	-123894.61
3	0xc7bddcd0	-97209.625
4	0x478a83e9	70919.82
5	0x481ff3a5	163790.58
6	0xc867f3e0	-237519.5
7	0xc8614b54	-230701.31
8	0xc89202aa	-299029.3
9	0x4846373f	202972.98
10	0x47b74a02	93844.016
11	0x479a8680	79117.0
12	0xc8595604	-222552.06
13	0x4773738d	62323.55
14	0xc8044cdf	-135475.48
15	0xc808cbfc	-140079.94
16	0xc82b3ede	-175355.47
17	0xc82e60cc	-178563.19
18	0xc708afa5	-34991.645
19	0xc7467c5e	-50812.367
20	0x479fcc29	81816.32
21	0x47815399	66215.195
22	0xc5f9d658	-7994.793
23	0xc7a86ca2	-86233.266
24	0x47946153	75970.65
25	0xc5e0d422	-7194.5166
26	0x47378a7c	46986.484
27	0x45b7e7fe	5884.999
28	0x46edd582	30442.754
29	0x476a3ef1	59966.94
30	0xc856f5e3	-220119.55
31	0xc6400d2a	-12291.291
32	0x47b3b389	92007.07
33	0xc712e9d8	-37609.844
34	0xc791c635	-74636.414
35	0xc82c4482	-176402.03
36	0x4683290f	16788.53
37	0xc86065ad	-229782.7
38	0x475b75cc	56181.797
39	0xc818653e	-156052.97
40	0xc73ebdcb	-48829.793
41	0xc770e6b2	-61670.695
42	0x47698368	59779.406
43	0x485a4805	223520.08
44	0x485fbf4f	229117.23
45	0x48382e76	188601.84
46	0x4853d84c	216929.19
47	0xc810e9c1	-148391.02
48	0x471ea80e	40616.055
49	0x486a632f	240012.73
50	0xc7b428d5	-92241.664
51	0xc80bd020	-143168.5
52	0x4763b2d1	58290.816
53	0xc67ebc05	-16303.005
54	0x4841a789	198302.14
55	0x4888aea3	279925.1
56	0xc78b1e69	-71228.82
57	0x47091359	35091.348
58	0x4818fab1	156650.77
59	0xc85b7b00	-224748.0
60	0xc6e1ba17	-28893.045
61	0x48682357	237709.36
62	0xc69c70ef	-20024.467
63	0x487ccef4	258875.81

layer1_1vm.2.running_var f4 [64]
0	0x4e21bc0e	6.78364e+08
1	0x4d193979	1.6066754e+08
2	0x4f653168	3.8452204e+09
3	0x4f159132	2.5093207e+09
4	0x4e97ba55	1.2727855e+09
5	0x4fca02f0	6.7783803e+09
6	0x5055ae40	1.4339867e+10
7	0x505d1e60	1.4839022e+10
8	0x50a1854d	2.1678942e+10
9	0x502435d7	1.1019967e+10
10	0x4f0c7d08	2.3570043e+09
11	0x4ecba0d4	1.7081574e+09
12	0x5046a8f1	1.3331842e+10
13	0x4e647570	9.582254e+08
14	0x4f8f5103	4.808902e+09
15	0x4f926cae	4.913192e+09
16	0x4fe2dbff	7.612137e+09
17	0x4ffc4cfe	8.4658084e+09
18	0x4d924596	3.0675424e+08
19	0x4e121600	6.127288e+08
20	0x4ec31fe8	1.636824e+09
21	0x4e7a43c6	1.0496864e+09
22	0x4cbccbbf	9.8983416e+07
23	0x4eed3e54	1.9901425e+09
24	0x4ea55212	1.3868096e+09
25	0x4b519679	1.3735545e+07
26	0x4df3c09d	5.1118582e+08
27	0x4b861eac	1.7579352e+07
28	0x4d5ec7f0	2.3360282e+08
29	0x4e751365	1.02792224e+09
30	0x502ff309	1.1807761e+10
31	0x4c4e7664	5.4122896e+07
32	0x4efef126	2.1386084e+09
33	0x4dafe6e6	3.6889312e+08
34	0x4ea589bd	1.3886337e+09
35	0x4fe73877	7.758475e+09
36	0x4ca0b70c	8.426096e+07
37	0x504d320f	1.377044e+10
38	0x4e375589	7.6895904e+08
39	0x4fbc4dce	6.318431e+09
40	0x4e10485c	6.051653e+08
41	0x4e679af6	9.714231e+08
42	0x4e6bca0d	9.8897184e+08
43	0x5045cc49	1.3273998e+10
44	0x504ea1c5	1.3866833e+10
45	0x500756ae	9.082419e+09
46	0x503af966	1.2547627e+10
47	0x4fba484d	6.250601e+09
48	0x4dd8df04	4.5481178e+08
49	0x50575c40	1.4452589e+10
50	0x4f0401f0	2.2147195e+09
51	0x4f86f89e	4.5288806e+09
52	0x4e5f6be0	9.370972e+08
53	0x4c88be39	7.1692744e+07
54	0x50150552	1.0000615e+10
55	0x509177db	1.952441e+10
56	0x4e93e15c	1.24051e+09
57	0x4d8f6991	3.0075754e+08
58	0x4fb5e886	6.1038295e+09
59	0x50401031	1.2889146e+10
60	0x4d52d226	2.2106173e+08
61	0x5041cf83	1.3006409e+10
62	0x4d2bf25d	1.8029922e+08
63	0x507fc6d3	1.7164881e+10

layer1_2vm.0.weight f4 [32, 64]
0	0xbc0caee8	-0.008586623
1	0xbd801773	-0.062544726
2	0x3e3b9626	0.18318996
3	0xbd264df7	-0.040601697
4	0x3e71e343	0.2362185
5	0x3e25a596	0.16176447
6	0x3e3093ef	0.17243932
7	0x3d9b494e	0.07582341
8	0x3db8d902	0.09025766
9	0xbe5718e6	-0.21005592
10	0x3e0b0229	0.13575043
11	0x3d06cb74	0.03290887
12	0x3dd1bcaa	0.10241063
13	0xbd9008f9	-0.070329614
14	0x3e90cb1f	0.2827997
15	0xbe935681	-0.28776935
16	0xbe3070e9	-0.17230572
17	0x3df2e228	0.11859542
18	0x3e95bd7e	0.29246134
19	0x3e177ed2	0.14794472
20	0xbe66592e	-0.22494957
21	0xbec40683	-0.38286218
22	0x3cc7eee4	0.024405904
23	0xbc0e6b53	-0.00869258
24	0xbd35c982	-0.044381626
25	0xbd12e4b5	-0.035862643
26	0xbd87a5d6	-0.066234276
27	0xbd94c2e2	-0.072637334
28	0xbe147636	-0.14498219
29	0xbe28ef10	-0.16497445
30	0x3e1a907d	0.1509418
31	0xbe5d966b	-0.21639411
32	0xbe45196d	-0.1924798
33	0xbe0a0e6d	-0.13482065
34	0xbd916e8d	-0.07101164
35	0xbe32edab	-0.17473476
36	0xbd754819	-0.05988321
37	0x3e52d5ca	0.20589367
38	0xbe6e3ca7	-0.23265325
39	0xbe286a07	-0.16446696
40	0x3dd0080a	0.10157783
41	0x3cc04f6f	0.023475377
42	0xbd1152f5	-0.035479505
43	0x3e6ad8ef	0.22934316
44	0x3cf39046	0.02973188
45	0x3d6d53c4	0.057941213
46	0xbe91f635	-0.28508154
47	0x3d810520	0.06299806
48	0xbe08ce69	-0.13359989
49	0xbc712220	-0.014717609
50	0xbd85e642	-0.06538059
51	0xbe7bb701	-0.24581529
52	0x3e8702f3	0.26369438
53	0x3dcb38c6	0.09922938
54	0xbe9d0505	-0.30667892
55	0xbe5cfa07	-0.21579753
56	0xbe1a3114	-0.15057784
57	0x3d88bc67	0.0667656
58	0xbd51c164	-0.051209822
59	0xbe9dcf67	-0.30822298
60	0x3da7d36e	0.08194624
61	0xbda68e53	-0.08132615
62	0xbeb55978	-0.35419822
63	0xbe826231	-0.2546554
64	0x3e84def2	0.25951344
65	0x3d8d1617	0.06888979
66	0x3e3ecb6a	0.18632284
67	0xbea8116f	-0.328258
68	0x3e372ae2	0.17887452
69	0xbd2a1e25	-0.041532654
70	0xbee48b19	-0.44637373
71	0xbe8c6af7	-0.27425358
72	0x3e07923a	0.13239375
73	0x3bfeba10	0.007773645
74	0x3d393ea0	0.04522574
75	0x3e6c4936	0.23074803
76	0xbd97c5f1	-0.07410801
77	0xbe02c2b0	-0.1276958
78	0xbecfec19	-0.40609816
79	0xbd833dec	-0.06408295
80	0xbbb7af55	-0.005605618
81	0x3d93ccd8	0.07216805
82	0x3f1017a4	0.5628607
83	0x3ea464b1	0.3210807
84	0xbece71d9	-0.40321234
85	0x3c56d7e1	0.013112993
86	0xbeb1ede9	-0.34751824
87	0xbe121e21	-0.14269306
88	0x3e091137	0.13385473
89	0xbe288415	-0.16456635
90	0x3e053523	0.13008551
91	0xbdc71cf3	-0.097223185
92	0xbd3ffdb1	-0.0468728
93	0x3e2196b9	0.15780152
94	0x3bf0b87e	0.007346212
95	0x3e3991f5	0.18122084
96	0x3e18984b	0.14901845
97	0xbe315244	-0.17316538
98	0xbf123c25	-0.57123023
99	0xbd00ff4f	-0.03149348
100	0x3cd70562	0.026247684
101	0xbec8d00b	-0.39221224
102	0x3d9f3416	0.077736065
103	0xbdb2fd20	-0.08739686
104	0xbef89459	-0.4855068
105	0x3d08ca52	0.033396073
106	0x3d0d1c70	0.03445095
107	0xbd8c37c5	-0.06846575
108	0x3e3beb7c	0.18351549
109	0x3db2e4d7	0.08735054
110	0xbdc1eeac	-0.09469351
111	0x3e280bec	0.16410798
112	0xbeb85b03	-0.36006936
113	0xbe091e8e	-0.13390562
114	0xbdbf77f9	-0.09349055
115	0xbe2a4da4	-0.1663118
116	0xbdfc880e	-0.12330638
117	0x3d750d96	0.05982741
118	0x3e1811ba	0.14850512
119	0xbcafcf30	-0.0214611
120	0xbddef8be	-0.108872876
121	0xbf011fca	-0.5043913
122	0xbdc046cf	-0.09388506
123	0x3de2737b	0.110571824
124	0xbdd5cdd2	-0.10439648
125	0x3e7a5390	0.24445939
126	0x3dd52521	0.104074724
127	0xbe4cc756	-0.19997916
128	0xbe692bc0	-0.22770596
129	0x3e7cfebd	0.2470655
130	0xb9b25842	-0.00034016563
131	0xbd338cae	-0.043835334
132	0x3e6f1d9b	0.23351137
133	0x3e4fe264	0.20301205
134	0xbe7d7c70	-0.247545
135	0xbe680968	-0.22659838
136	0x3ea875eb	0.32902464
137	0xbe4e591f	-0.20151184
138	0x3e1af9a1	0.15134288
139	0xbe11b759	-0.14230098
140	0xbec05ad8	-0.37569308
141	0x3e0db7d5	0.13839658
142	0x3d5a84c3	0.053349268
143	0x3df6a58e	0.12043296
144	0x3e972eca	0.29527885
145	0xbd7f3f28	-0.06231609
146	0x3d622c19	0.055217836
147	0xbdfd04ff	-0.123544686
148	0xbde83068	-0.11337358
149	0x3d85730e	0.065160856
150	0xbe742514	-0.23842269
151	0x3e656949	0.22403444
152	0xbf00e6df	-0.5035228
153	0x3d5f8422	0.05456937
154	0xbee6aa36	-0.45051736
155	0x3dfe2419	0.12409229
156	0xbd8c6904	-0.06855968
157	0xbe268d52	-0.16264847
158	0xbe11c462	-0.1423507
159	0xbdfb22f8	-0.12262529
160	0xbdb7d0f3	-0.08975401
161	0xbdf9cfeb	-0.1219786
162	0x3e30cfcf	0.17266773
163	0xbd18f681	-0.03734446
164	0x3ebf22b8	0.37331176
165	0xbc174acf	-0.009234144
166	0xbe1acdf6	-0.1511763
167	0xbc4ffa48	-0.012693949
168	0xbdddc13e	-0.10827874
169	0xbd2c1852	-0.04201538
170	0x3d8aadc8	0.067714274
171	0x3cc8ba52	0.024502907
172	0x3c0e7722	0.008695396
173	0xbe5a1ad9	-0.21299304
174	0x3e2b491c	0.16727108
175	0xbd127055	-0.03575166
176	0x3d7e5dbd	0.062101115
177	0xbd45f95d	-0.048333514
178	0xbe853596	-0.26017445
179	0x3e756293	0.23963384
180	0xbdc9356d	-0.09824643
181	0xbdd9e3cb	-0.10639151
182	0xbc8ccd45	-0.017187724
183	0xbeca5c9e	-0.39523786
184	0x3f21a6e0	0.63145256
185	0xbd811a5b	-0.06303855
186	0x3ce40279	0.02783321
187	0x3ca3dd75	0.02000306
188	0x3e544215	0.20728333
189	0x3e355736	0.1770905
190	0xbd9a88d3	-0.075456284
191	0x3c97296b	0.018452367
192	0x3e385eec	0.1800496
193	0xbe8b314e	-0.27186054
194	0xbd82029d	-0.06348155
195	0x3dca3745	0.09873823
196	0xbe1caf7c	-0.15301317
197	0xbcb9130a	-0.022592086
198	0x3d30a821	0.04312909
199	0xbea5b0aa	-0.32361346
200	0xbd7b7ac1	-0.061396364
201	0x3e1cad7d	0.15300556
202	0xbdc0633b	-0.09393927
203	0xbde45592	-0.11149134
204	0x3da5a011	0.08087171
205	0xbdbb4d32	-0.09145583
206	0xbe172696	-0.14760813
207	0xbe8fbaba	-0.2807215
208	0xbdf6fed4	-0.12060323
209	0x3e1f6117	0.1556438
210	0xbdbe7b6b	-0.09300884
211	0xbdb17b1a	-0.08666058
212	0x3e830ff5	0.25598112
213	0x3e5a2e6d	0.21306773
214	0xbe18e75d	-0.14932008
215	0x3e246d08	0.16057217
216	0xbe25073a	-0.16116038
217	0xbef6b5a9	-0.4818547
218	0x3e455a00	0.19272614
219	0xbebb8ad3	-0.36629352
220	0x3e0c32d8	0.1369127
221	0xbc9a7420	-0.0188542
222	0x3e2613a3	0.16218428
223	0xbe41781f	-0.18893479
224	0x3c945858	0.018108532
225	0x3d84bf20	0.06481767
226	0x3ded5aed	0.11589608
227	0x3e8728ee	0.26398414
228	0x3d82ac1e	0.06380485
229	0xbcc21989	-0.023693817
230	0xbdb9ead6	-0.090779945
231	0x3e0d6602	0.13808444
232	0x3d1b5a3a	0.037927844
233	0x3c89d0ee	0.016823258
234	0xbdef07cc	-0.11671409
235	0xbdb95931	-0.09050215
236	0x3db6250c	0.08893785
237	0x3e6714a4	0.22566468
238	0x3eb1e907	0.34748098
239	0xbd82db88	-0.063895285
240	0xbd1ca7e8	-0.038246065
241	0xbe97dfd3	-0.29662952
242	0x3e6bba09	0.23020186
243	0xbd801a3b	-0.06255003
244	0xbe141746	-0.14462003
245	0x3e3899b4	0.18027383
246	0x3e725e32	0.23668745
247	0x3e4d0f1e	0.20025298
248	0x3ec01ac9	0.37520435
249	0xbd0b3f39	-0.03399584
250	0xbd943934	-0.07237473
251	0xbeca7591	-0.3954282
252	0xbe7d957f	-0.2476406
253	0xbebc3dab	-0.367658
254	0xbdf55ddd	-0.119807936
255	0xbda9590d	-0.08268938

layer1_2vm.0.bias f4 [32]
0	0xbda52273	-0.08063211
1	0xbd8d34dd	-0.068948485
2	0x3e5067a8	0.20352042
3	0xbe9e159e	-0.30875868
4	0xbd663130	-0.056199253
5	0x3e4fe885	0.20303543
6	0x3d1c54ae	0.038166694
7	0x3e2386e1	0.15969421
8	0x3e5b9087	0.21441852
9	0x3c9cc3d9	0.019136356
10	0x3d85bcf4	0.065301806
11	0xbe0a3c33	-0.13499527
12	0xbd65ac90	-0.05607277
13	0x3e2f4dfc	0.17119592
14	0xbe859912	-0.26093346
15	0xbe8525b4	-0.26005328
16	0xbe1b2d3e	-0.15153977
17	0xbbd682ad	-0.0065463395
18	0xbdb63ec4	-0.0889869
19	0x3d3a9ea1	0.045561437
20	0xbdbd47a6	-0.092421815
21	0x3d1a13cf	0.037616547
22	0xbe897d5f	-0.26853463
23	0xbe1b730b	-0.15180604
24	0xbd20518b	-0.039140265
25	0x3ddd2252	0.10797562
26	0xbdfc2092	-0.123109
27	0xbd596ebc	-0.05308412
28	0x3d5ae404	0.05344011
29	0xbcb1d3e7	-0.021707488
30	0x3c580847	0.013185567
31	0xbc2d57d6	-0.010580024

layer1_2vm.2.weight f4 [32]
0	0x3f80b9d6	1.0056713
1	0x3f752e2f	0.95773596
2	0x3f5fe506	0.8745884
3	0x3f672f85	0.90306884
4	0x3f87adf8	1.0599966
5	0x3f9a667f	1.2062529
6	0x3f6897bb	0.9085652
7	0x3f840d9e	1.0316656
8	0x3f61442c	0.8799465
9	0x3f45ec51	0.77313715
10	0x3f713878	0.9422679
11	0x3f9c6052	1.2216895
12	0x3f88df05	1.069306
13	0x3f6e87e1	0.93176085
14	0x3f6267e3	0.8843977
15	0x3f8b6c39	1.0892402
16	0x3f88ce36	1.068793
17	0x3f841f11	1.0321981
18	0x3f934ec5	1.1508414
19	0x3f7229b9	0.94594914
20	0x3f5d2ba7	0.86394733
21	0x3f8b84cf	1.0899905
22	0x3f81ac7f	1.0130767
23	0x3f9ca1a0	1.2236824
24	0x3f9492e2	1.1607325
25	0x3f538886	0.82630193
26	0x3f9fb23b	1.2476267
27	0x3f828a69	1.019849
28	0x3f870e4d	1.0551239
29	0x3f6a8e87	0.9162373
30	0x3f5adec2	0.8549615
31	0x3f71e915	0.9449628

layer1_2vm.2.bias f4 [32]
0	0x3e4ad426	0.1980749
1	0x3e2ba3f5	0.16761763
2	0x3b0440ff	0.0020180342
3	0xbd19041a	-0.037357427
4	0x3e934454	0.28763068
5	0x39806188	0.0002448673
6	0x3d30a568	0.043126494
7	0x3e08bd4f	0.13353465
8	0xbd008b2b	-0.03138272
9	0xbe2fb3a3	-0.1715837
10	0x3cc0f2c3	0.023553258
11	0xbdabc976	-0.08388035
12	0xbdceb59f	-0.10093235
13	0xbe8cf562	-0.27530962
14	0xbe2045ea	-0.1565167
15	0x3c52cf9c	0.012866881
16	0xbb2403b5	-0.0025026624
17	0xbe27e3b4	-0.16395456
18	0xbe08b850	-0.1335156
19	0xbd009749	-0.031394277
20	0x3ca3532f	0.019937126
21	0xbe408e43	-0.18804269
22	0x3cea3a33	0.028592205
23	0xbd0ba29e	-0.03409063
24	0x3da38a82	0.07985403
25	0xbc4d3f40	-0.012527287
26	0x3d9b61c8	0.0758701
27	0xbd8ee3ea	-0.06977065
28	0x3df42577	0.11921208
29	0x3c903d79	0.017607437
30	0xbdda463e	-0.10657929
31	0x3c836c24	0.016042776

layer1_2vm.2.running_mean f4 [32]
0	0xbf71cc34	-0.94452214
1	0xbf72a3f9	-0.9478145
2	0xbe42c226	-0.19019374
3	0xbf780876	-0.9688791
4	0xbfb9f53f	-1.4527968
5	0x3f0431fb	0.51638764
6	0xbeaf279f	-0.34209916
7	0x3ed60854	0.4180323
8	0x3f1ebefe	0.6201018
9	0xbec9c53a	-0.39408284
10	0x3e002f4e	0.12518045
11	0x3f453a55	0.7704213
12	0xbea9014c	-0.33008802
13	0x3f62771f	0.88463014
14	0xbd9c2cc0	-0.07625723
15	0xbee4dfae	-0.44701904
16	0xbe98d059	-0.29846457
17	0x3e277d24	0.16356331
18	0x3f591ce7	0.84809726
19	0x3d5b62f2	0.05356116
20	0xbf2ed0f9	-0.68287617
21	0x3eef4482	0.46731955
22	0xbf5d6ffe	-0.8649901
23	0xbf4461b6	-0.76711595
24	0x3dab2ae2	0.083577886
25	0x3f8dd881	1.1081697
26	0x3f140cd9	0.57832104
27	0x3fbfc926	1.4983261
28	0x3e61bbe9	0.22044338
29	0x3f0302f7	0.511764
30	0x3e4b81b2	0.19873694
31	0x3f126be6	0.5719589

layer1_2vm.2.running_var f4 [32]
0	0x3f903b27	1.1268052
1	0x3fed9d5a	1.8563645
2	0x3fa5c683	1.2951206
3	0x3fb0da5f	1.3816642
4	0x3fc5b4fe	1.544586
5	0x3f815e93	1.0106987
6	0x3f9aeb11	1.2102987
7	0x3f8dd670	1.1081066
8	0x3fcb2ab9	1.5872413
9	0x3f40125e	0.75028026
10	0x3f21462c	0.629977
11	0x3f9cf62b	1.2262625
12	0x3f672e1e	0.90304744
13	0x3f9e536e	1.2369211
14	0x3f8da941	1.1067277
15	0x3fcc7580	1.5973358
16	0x3f2ee45c	0.683172
17	0x3faa2bae	1.329458
18	0x3f929e31	1.1454526
19	0x3f568070	0.8378973
20	0x3f94e455	1.1632181
21	0x3fbd1c22	1.477421
22	0x3fa300e8	1.2734652
23	0x3fc167ec	1.510984
24	0x3f928b56	1.1448772
25	0x3f9b58da	1.213649
26	0x3fa99955	1.3249918
27	0x3fbbc28a	1.4668744
28	0x3fa394c9	1.2779781
29	0x3f9af9e3	1.2107509
30	0x3f534029	0.82519776
31	0x3f9a4ce8	1.205472

layer2.0.weight f4 [32, 64]
0	0xbd9f4d69	-0.07778437
1	0x3d9c445f	0.07630228
2	0xbd4b52e8	-0.049639612
3	0x3e35f27e	0.17768285
4	0x3e11220f	0.14173149
5	0x3e6cb626	0.23116359
6	0x3e882af3	0.26595268
7	0x3e871b21	0.26387885
8	0xbe09d2e2	-0.13459352
9	0xb9cebcb8	-0.00039431988
10	0x3d0e13b7	0.03468677
11	0x3d949e94	0.07256809
12	0xbd862550	-0.065500855
13	0x3e7a13da	0.24421635
14	0xbbd324ea	-0.0064436095
15	0xbe604041	-0.21899511
16	0x3dd2c206	0.10290913
17	0xbe8fadf9	-0.28062418
18	0xbe5041f9	-0.20337667
19	0x3c684da9	0.014178672
20	0x3e8e0942	0.27741438
21	0xbe62dab0	-0.22153735
22	0xbe163004	-0.14666754
23	0x3b5d59c8	0.0033775438
24	0x3e542d95	0.20720513
25	0x3c9754e8	0.018473104
26	0xbe63f4f0	-0.22261405
27	0x3e57c440	0.21070957
28	0xbe9e0ae7	-0.30867693
29	0x3e0ab410	0.13545251
30	0x3cc0dace	0.023541834
31	0x3d022a12	0.031778403
32	0x3d2d4150	0.042298615
33	0x3e65c7f5	0.22439559
34	0x3e05a264	0.13050228
35	0x3e27adee	0.16374943
36	0x3ece33f3	0.4027401
37	0x3e257765	0.16158827
38	0x3d691445	0.056904096
39	0x3dd066c2	0.101758495
40	0xbe62410c	-0.22095126
41	0x3dd068f2	0.10176267
42	0x3dbc7eca	0.092038706
43	0x3e077b3a	0.13230601
44	0xbcd46e71	-0.025931569
45	0x3e35d4ce	0.1775696
46	0x3eba6f3f	0.36413
47	0xbcfa4c9f	-0.030554114
48	0xbce1c9e1	-0.027562084
49	0xbe769cdf	-0.24083279
50	0x3df51d9e	0.1196854
51	0xbdcc2b37	-0.0996918
52	0xbc9cb601	-0.019129755
53	0x3e39910c	0.18121737
54	0x3e8789e0	0.26472378
55	0xbe48147c	-0.19539064
56	0xbcba0eba	-0.0227121
57	0xbeb8da0b	-0.36103854
58	0xbe34bdf9	-0.17650594
59	0x3de846d7	0.11341637
60	0xbeda6c9f	-0.42660996
61	0xbcb529df	-0.022114692
62	0x3e98396b	0.29731306
63	0xbe9bc1ab	-0.30421194
64	0x3e87fb13	0.26558742
65	0xbe25615f	-0.16150425
66	0xbb9cb426	-0.0047822176
67	0x3d6651b5	0.056230266
68	0x3e127713	0.14303236
69	0x3d14b948	0.03630951
70	0xbdfcc1d7	-0.123416595
71	0xbcba9e04	-0.022780426
72	0xbcbbaa7b	-0.02290844
73	0xbe0bcfd5	-0.136535
74	0x3e5ff725	0.21871622
75	0x3d76cfb7	0.060256686
76	0x3d3218f7	0.04348084
77	0xbb428950	-0.0029683895
78	0x3e84b4b0	0.25919104
79	0x3bf62e0a	0.0075128125
80	0x3dce660b	0.10078057
81	0x3d0ed532	0.034871288
82	0x3bde3da0	0.0067822486
83	0xbd5cd9a4	-0.053918496
84	0xbe87648a	-0.26443893
85	0x3d5d565b	0.054037433
86	0x3d3b1f67	0.045684244
87	0x3e753903	0.2394753
88	0x3db9c487	0.09070688
89	0x3d975c7f	0.07390689
90	0xbdbc4e2d	-0.09194598
91	0xbd305ce9	-0.043057356
92	0x3dc43b1d	0.095815875
93	0xbe8c9e25	-0.27464405
94	0x3ecaf76b	0.3964189
95	0xbcbae4da	-0.022814203
96	0xbe2d6f9e	-0.1693711
97	0x3dd2209b	0.10260125
98	0xbe16e2e0	-0.14734983
99	0xbe94ead3	-0.29085407
100	0x3dab99f2	0.08378972
101	0x3c103f1e	0.008804111
102	0x3d729212	0.059221335
103	0xbca14c35	-0.019689659
104	0x3d120b75	0.035655458
105	0x3f258767	0.6465973
106	0xbe2012ec	-0.15632218
107	0xbe810258	-0.251971
108	0x3e709d55	0.23497517
109	0x3e4932bd	0.19648261
110	0x3d88ffa9	0.06689388
111	0xbe8af397	-0.2713897
112	0xbd5be63a	-0.053686358
113	0xbe829700	-0.2550583
114	0x3e803f72	0.25048405
115	0x3d783de6	0.060605906
116	0xbcdd4b32	-0.027013395
117	0x3de9f339	0.11423344
118	0xbdf0e42c	-0.1176227
119	0xbe48e9e8	-0.19620478
120	0xbc9246c6	-0.017856013
121	0xbe16de71	-0.14733292
122	0xbde44f0c	-0.111478895
123	0xbd2e0909	-0.042489085
124	0xbda77ef8	-0.08178514
125	0x3d47d7e3	0.04878987
126	0x3ca6887b	0.02032875
127	0xbc425013	-0.0118599115
128	0xbe5e8925	-0.21732004
129	0xbc82b100	-0.01595354
130	0xbd7ac865	-0.061226267
131	0xbe04bf85	-0.12963684
132	0x3de828b4	0.113358885
133	0x3d47e207	0.04879954
134	0xbb8fe776	-0.004391606
135	0x3e43afca	0.19110027
136	0xbdc31f28	-0.09527427
137	0xbde40c59	-0.11135168
138	0x3e349c85	0.17637832
139	0xbe6b2ab8	-0.22965515
140	0x3e1470ae	0.14496109
141	0x3e8a20f5	0.2697827
142	0x3c6f45e6	0.014604067
143	0xbe1c1422	-0.15242055
144	0xbdce7a9e	-0.10081981
145	0x3cbe1ff9	0.023208605
146	0xbda7a1b8	-0.08185142
147	0x3e3ceb90	0.18449235
148	0x3e6c7dac	0.23094815
149	0x3dea6564	0.1144512
150	0x3bc4afce	0.006002403
151	0x3dba9a52	0.091114655
152	0xbdd7d450	-0.10538542
153	0xbeec58c7	-0.46161482
154	0xbd6bdecf	-0.057585534
155	0x3d79d848	0.060997277
156	0x3d883e2d	0.06652484
157	0x3de11d1d	0.10991881
158	0x3e611bf7	0.21983324
159	0xbe7a3099	-0.24432601
160	0x3e3f6ced	0.18693896
161	0x3e2c71c8	0.16840279
162	0x3eada5a4	0.33915436
163	0x3c3cb4c3	0.011517706
164	0x3e2297ed	0.15878268
165	0xbe039019	-0.12847938
166	0xbd125286	-0.03572323
167	0xbce083ee	-0.027406659
168	0xbe4e4928	-0.20145094
169	0xbd61914b	-0.055070203
170	0xbe765c98	-0.24058759
171	0xbe0ab39e	-0.13545081
172	0x3e34539e	0.17610022
173	0x3dd446dd	0.103650786
174	0xbe696550	-0.22792554
175	0x3e5de9be	0.21671197
176	0x3c8005ae	0.015627708
177	0x3eb0e8a4	0.3455249
178	0xbe2616dd	-0.16219659
179	0xbec277f1	-0.37982133
180	0xbddaeb09	-0.10689361
181	0xbcadd040	-0.021217465
182	0xbe164549	-0.14674868
183	0x3d1f2954	0.038857773
184	0xbc814e8e	-0.015784528
185	0xbe20dd23	-0.15709357
186	0xbdab33fb	-0.08359524
187	0x3e804305	0.25051132
188	0xbca2a2cd	-0.01985302
189	0x3e0fb731	0.14034726
190	0x3d3f355a	0.04668174
191	0x3e6754d4	0.22590953
192	0xbd53155c	-0.05153404
193	0xbd869d8c	-0.065730184
194	0x3e0874b1	0.13325764
195	0xbea15981	-0.315136
196	0xbd5b4b09	-0.053538356
197	0x3e1610a1	0.14654781
198	0xbed98ffe	-0.4249267
199	0xbe65aef7	-0.22430025
200	0x3cec9ae1	0.028882446
201	0x3e0a3880	0.13498116
202	0xbdfe0268	-0.12402803
203	0xbdc3ac69	-0.09554369
204	0xbe3c815c	-0.18408722
205	0xbe3583e0	-0.17726088
206	0x3e8d9670	0.27653837
207	0xbdd828c4	-0.105546504
208	0x3e175fdd	0.14782663
209	0x3e531fe2	0.20617631
210	0x3de24186	0.11047654
211	0x3d57e1c0	0.052705526
212	0xbda5ac01	-0.08089448
213	0x3eb7c468	0.35892034
214	0x3dfac6b0	0.12244928
215	0x3ebbcfdb	0.3668202
216	0xbe2efbc7	-0.17088233
217	0xbe216045	-0.1575938
218	0x3e08071f	0.13283966
219	0x3d182246	0.03714206
220	0xbe51be12	-0.20482662
221	0x3e5e19e6	0.21689567
222	0x3e3889a8	0.18021262
223	0x3d168834	0.036750987
224	0x3de38940	0.11110163
225	0x3e6eaef2	0.23308924
226	0xbe02c864	-0.12771755
227	0x3db61c8b	0.08892163
228	0xbef266d9	-0.47344092
229	0xbe2dca3b	-0.16971676
230	0xbd2a13e8	-0.04152289
231	0x3d98b920	0.07457185
232	0x3d922546	0.071360156
233	0x3dc37922	0.095445886
234	0xbe1f2bf2	-0.15544108
235	0x3d3fac8d	0.046795417
236	0x3ada5374	0.0016656951
237	0x3e8fc022	0.28076273
238	0x3dfde84a	0.12397821
239	0x3ceb1a2b	0.028699001
240	0xbe9045df	-0.28178307
241	0xbd9da5c7	-0.07697635
242	0x3da18911	0.078874715
243	0xbe807cac	-0.25095117
244	0xbe578872	-0.21048144
245	0xbcd0022c	-0.02539166
246	0x3dbdc635	0.092663206
247	0xbd9a6308	-0.0753842
248	0xbd55b60b	-0.052175563
249	0xbd877972	-0.06614961
250	0xbd47f905	-0.048821468
251	0x3e71dd19	0.23619498
252	0x3efe59d7	0.49677917
253	0x3e1038d2	0.14084175
254	0x3dd43520	0.10361695
255	0x3d49695c	0.049172744

layer2.0.bias f4 [32]
0	0xbdb2750b	-0.087137304
1	0xbe087254	-0.13324863
2	0xbd9c51c6	-0.076327845
3	0x3d832fab	0.06405576
4	0x3d74dbea	0.05978004
5	0xbd1d12f5	-0.038348157
6	0x3e506200	0.20349884
7	0xbe4b55ae	-0.19856903
8	0x3ececf9a	0.40392762
9	0xbd088f3c	-0.033339724
10	0x3e8e71fa	0.27821332
11	0x3b752dad	0.0037411258
12	0xbd9dd620	-0.07706857
13	0xbc7ce670	-0.0154358
14	0x3c30ee76	0.010799041
15	0x3e2490bb	0.16070835
16	0x3e24ae02	0.16082004
17	0xbe200617	-0.15627323
18	0x3e1271cf	0.14301227
19	0xbe38b88e	-0.18039152
20	0x3e1a1c3d	0.15049835
21	0xbd61f652	-0.05516655
22	0x3e1e3b15	0.15452226
23	0xbcdace8f	-0.026709823
24	0xbdb4b573	-0.08823671
25	0x3d3ce6fc	0.04611872
26	0xbc9366ea	-0.01799341
27	0xbe3bd0cd	-0.1834137
28	0x3de8d503	0.11368754
29	0x3c14bc24	0.009078059
30	0xbe02ac83	-0.1276112
31	0xbd1750e5	-0.03694238

layer2.2.weight f4 [32]
0	0x3f8a5cd4	1.0809579
1	0x3f6259d1	0.884183
2	0x3f880938	1.0627813
3	0x3f99decc	1.2021117
4	0x3f8a7b6f	1.0818919
5	0x3f83de35	1.0302187
6	0x3f85f49e	1.0465276
7	0x3f78bd65	0.97163993
8	0x3f7184bd	0.9434317
9	0x3f695e91	0.9115992
10	0x3f86f73e	1.0544202
11	0x3f09e14d	0.53859407
12	0x3f8dfed2	1.109339
13	0x3f6ce540	0.9253731
14	0x3f709765	0.9398101
15	0x3f853bcd	1.0408875
16	0x3f8d02ee	1.1016519
17	0x3f5e4822	0.86828816
18	0x3f8c677f	1.0969085
19	0x3f7ed7bd	0.9954794
20	0x3f8a0051	1.0781347
21	0x3f78e059	0.9721733
22	0x3f9051ce	1.1274965
23	0x3f57bb89	0.8427053
24	0x3f8e3072	1.1108534
25	0x3f4f8450	0.8106127
26	0x3f549fe9	0.83056504
27	0x3f89a20c	1.0752578
28	0x3f78eb70	0.9723425
29	0x3f8529d6	1.0403392
30	0x3f8a55c2	1.0807421
31	0x3f61ac73	0.8815376

layer2.2.bias f4 [32]
0	0x3ea0c01e	0.31396574
1	0xbdafd48e	-0.085854635
2	0x3e3e896c	0.1860711
3	0x3dd4e934	0.103960425
4	0x3e8350bd	0.25647536
5	0x3d88f200	0.06686783
6	0x3e18cffb	0.14923088
7	0x3dd70bf1	0.105003245
8	0x3e02071b	0.12698023
9	0xbd8ff7ec	-0.07029709
10	0x3e859ee9	0.260978
11	0xbe99860e	-0.29985088
12	0x3d19bfc1	0.037536386
13	0xbc36f0b2	-0.011165785
14	0x3e1c0a9b	0.1523842
15	0x3e18adbc	0.14910024
16	0xbe39c8fa	-0.18143073
17	0x3d13d143	0.03608824
18	0xbd82bdbe	-0.06383847
19	0xbc507bf6	-0.012724867
20	0xbdc35bcf	-0.095389955
21	0x3dd081f1	0.10181034
22	0x3ca4bebc	0.02011048
23	0xbe1580c1	-0.14599897
24	0x3cc3d9c7	0.023907555
25	0xbdc88278	-0.0979051
26	0xbd2bbe5f	-0.0419296
27	0x3c8322bb	0.016007772
28	0xbe538bb5	-0.20658763
29	0x3c1e6b8f	0.009669199
30	0x3d90dffa	0.0707397
31	0xbe2c6372	-0.1683481

layer2.2.running_mean f4 [32]
0	0x3f123d25	0.5712455
1	0xbd574b43	-0.05256201
2	0x3da89c1c	0.082329005
3	0x3e2be9c0	0.16788387
4	0xbf2f259d	-0.6841677
5	0x3e8e17e6	0.27752608
6	0xbf0b4283	-0.54398364
7	0xbe74a695	-0.23891671
8	0x3fa1c104	1.2637029
9	0xbeb35d0d	-0.3503193
10	0x3f44d28a	0.7688376
11	0xbf3206e5	-0.6954177
12	0x3e9386dd	0.2881383
13	0xbf238eac	-0.63889575
14	0x3e1a318e	0.15057966
15	0x3db91d6d	0.09038816
16	0x3fa913f7	1.3209218
17	0x3a2dcb7e	0.0006629749
18	0x3efe44ac	0.49661767
19	0xbe87bba4	-0.26510346
20	0xbf24cc2a	-0.6437403
21	0xbf6c0b2d	-0.9220455
22	0x3f0651b5	0.52468425
23	0x3f404d03	0.7511751
24	0xbf954940	-1.1662979
25	0xbe819942	-0.2531224
26	0x3f3fbd26	0.7489799
27	0xbf75b8ea	-0.9598528
28	0x3f3d89cc	0.74038386
29	0x3e846f7c	0.25866306
30	0xbfa186e1	-1.2619287
31	0xbf09b30f	-0.53788847

layer2.2.running_var f4 [32]
0	0x3f6c637a	0.9233929
1	0x3f7ef260	0.99588585
2	0x3f357fe2	0.7089826
3	0x3fa507a9	1.2892963
4	0x3fcf8610	1.6212788
5	0x3f43af04	0.7643893
6	0x3fcdb244	1.6070027
7	0x3f59d0d8	0.85084295
8	0x3f97cd66	1.1859558
9	0x3f3543e9	0.7080675
10	0x3f5729f4	0.8404839
11	0x3f6d805a	0.92773974
12	0x40088df9	2.1336653
13	0x3f5c0da2	0.859583
14	0x3f7cc523	0.98738307
15	0x3eed572f	0.46355578
16	0x3fc6821b	1.5508455
17	0x3f317045	0.69311935
18	0x3f542859	0.82874066
19	0x3fd7957b	1.6842493
20	0x3fa5b425	1.2945601
21	0x3fa430ba	1.282737
22	0x3f736259	0.9507194
23	0x3f9a0faf	1.2036036
24	0x3fa6b5a1	1.3024179
25	0x3f2cddc9	0.6752592
26	0x3f2af59a	0.6678101
27	0x3f9ea3f3	1.2393783
28	0x3fab0661	1.3361322
29	0x3f9b63fa	1.2139885
30	0x3f83c744	1.0295186
31	0x3f9ecd1e	1.2406347

fc_advantage.0.weight f4 [20, 32]
0	0xbd13a60d	-0.03604703
1	0xbe8e904d	-0.27844468
2	0x3f089092	0.53345597
3	0x3de96236	0.113956854
4	0x3d25f4ec	0.04051678
5	0xbce6de0b	-0.02818205
6	0xbdff2bfd	-0.12459562
7	0x3d837fba	0.06420846
8	0x3d3a505a	0.045486785
9	0x3c8087d4	0.015689768
10	0xbd133f26	-0.035948895
11	0x3bc117b5	0.0058927187
12	0xbd88edfa	-0.066860154
13	0x3d231d47	0.039822843
14	0x3e4bbeb6	0.19896969
15	0x3e34d0b5	0.1765774
16	0xbdbd821c	-0.09253332
17	0x3d4c2996	0.049844347
18	0xbd881cc3	-0.06646111
19	0xbdf08edd	-0.11745999
20	0x3e190674	0.14943868
21	0x3c88f8fe	0.016720291
22	0xbe9a211d	-0.30103388
23	0x3d1b7bca	0.03795985
24	0xbcb11d14	-0.02162031
25	0xbe218bce	-0.15775988
26	0x3d61a079	0.05508468
27	0x3e1e22da	0.15442982
28	0xbd2a9664	-0.04164733
29	0x3e2957fc	0.1653747
30	0xbee23a47	-0.44185087
31	0xbea63486	-0.32461947
32	0xbd982f51	-0.074309
33	0xbe3432ac	-0.17597455
34	0xbea44305	-0.32082382
35	0xbeedc014	-0.46435606
36	0xbe0e918a	-0.13922706
37	0xbe7442ae	-0.23853561
38	0x3c87ccc4	0.016577132
39	0xbf172a78	-0.5904918
40	0xbdfc01ad	-0.12305007
41	0x3e2b0b1f	0.16703461
42	0x3cbe68e3	0.023243373
43	0x3d769806	0.060203575
44	0x3ccd8572	0.025088046
45	0xbeaf5d62	-0.34250933
46	0x3d82de45	0.06390051
47	0xbe0f7cf8	-0.14012516
48	0xbd8bd428	-0.06827575
49	0xbedcfb9b	-0.4316071
50	0xbe9de16a	-0.3083604
51	0xbe66658c	-0.22499675
52	0x3e61dcb0	0.22056842
53	0xbe451b40	-0.19248676
54	0x3e1b43d1	0.15162589
55	0x3ba2ea79	0.004971799
56	0xbeaffe14	-0.34373534
57	0xbeac6106	-0.33667773
58	0xbd061a4f	-0.032739934
59	0x3e3b0d83	0.18266873
60	0x3df1d888	0.11808878
61	0x3c846810	0.016162902
62	0x3d4785c7	0.048711564
63	0x3da5e7c8	0.081008494
64	0xbd91f94c	-0.07127628
65	0x3be16a05	0.0068790936
66	0xbecacefc	-0.39611042
67	0xbe276f2b	-0.16351001
68	0x3aeb0e78	0.0017933389
69	0x3da1a9c7	0.078937106
70	0xbea15de7	-0.31516954
71	0xbe2630eb	-0.16229598
72	0xbe75e9ec	-0.24015015
73	0xbe85e21b	-0.26149067
74	0xbe180987	-0.14847384
75	0xbe5317ea	-0.20614591
76	0xbea17ac4	-0.31538975
77	0xbd428e7b	-0.04749916
78	0x3e8ac8d2	0.2710634
79	0x3d32a38e	0.04361301
80	0xbdee8ee6	-0.116483495
81	0xbe5f9c09	-0.21836866
82	0x3eeede70	0.4665408
83	0xbe3ddb6a	-0.18540731
84	0xbddbe4c5	-0.10736994
85	0xbc6ea598	-0.014565848
86	0xbe31727c	-0.17328829
87	0xbe103e8c	-0.1408636
88	0xbe40fab8	-0.18845642
89	0xbe9e1fe5	-0.3088371
90	0x3e050b5e	0.12992617
91	0xbd9b038b	-0.07569035
92	0x3e4c83d9	0.19972171
93	0xbe6bf112	-0.2304118
94	0x3e497926	0.1967512
95	0x3e908e3c	0.28233516
96	0xbe70ae08	-0.23503888
97	0xbeae41e0	-0.34034634
98	0xbec8a5b4	-0.3918892
99	0xbe6ca476	-0.23109612
100	0x3db3d179	0.08780188
101	0x3dd2431b	0.102667056
102	0x3cfc4eb5	0.03079925
103	0xbe8f6ab5	-0.28011099
104	0x3e6c39f7	0.23068987
105	0xbde091e6	-0.10965328
106	0x3ed73b4d	0.4203743
107	0xbbd9e3b4	-0.006649459
108	0xbdc77786	-0.09739594
109	0xbb6deae6	-0.003630334
110	0xbec02244	-0.37526143
111	0x3e414078	0.18872249
112	0x3e1f966b	0.15584724
113	0xbe885256	-0.26625317
114	0x3cbecc04	0.023290642
115	0xbd25d28c	-0.040483996
116	0x3e0ace4e	0.13555261
117	0x3bd44c90	0.0064788535
118	0xbe7f0a8e	-0.2490637
119	0x3e7c2bd2	0.24626091
120	0xbe2df14f	-0.16986583
121	0x3e256292	0.16150883
122	0xbe87408a	-0.26416427
123	0x3e2b292e	0.16714928
124	0x3dfaca7c	0.12245652
125	0xbed64573	-0.4184986
126	0x3e0dc84c	0.13845938
127	0xbdd45dc7	-0.10369449
128	0xbe7d60fb	-0.24744026
129	0xbd854e08	-0.06509024
130	0x3e912609	0.2834933
131	0x3e30af5b	0.17254393
132	0x3e31c185	0.17358978
133	0xbed384a2	-0.41312128
134	0xbe35c308	-0.1775018
135	0x3dc1f0f3	0.094697855
136	0x3dbbc841	0.09169055
137	0x3e901fc6	0.2814924
138	0x3d450ac8	0.048105985
139	0xbe97cd53	-0.29648837
140	0x3e913920	0.28363895
141	0x3e13ade9	0.1442181
142	0xbe4cc52b	-0.19997089
143	0xbe82b00e	-0.25524944
144	0x3d961f08	0.073301375
145	0xbce2d23c	-0.027688138
146	0xbe033c59	-0.1281599
147	0x3e5fd761	0.21859504
148	0xbe6f0c2d	-0.23344488
149	0x3bc142bf	0.0058978493
150	0xbee73e91	-0.45164922
151	0xbe5356f2	-0.20638636
152	0xbda339f6	-0.079700395
153	0x3edbcb67	0.4292862
154	0x3dca2c43	0.098717235
155	0xbe93f801	-0.2890015
156	0xbe3d94cc	-0.18513793
157	0x3e62d819	0.22152747
158	0xbe79306a	-0.24334875
159	0x3eadafbf	0.33923146
160	0x3c707cde	0.014678208
161	0x3ca05bf0	0.01957509
162	0xbf10c204	-0.56546044
163	0x3e788071	0.24267747
164	0x3e7e5bc4	0.24839693
165	0xbe4bba77	-0.1989535
166	0xbdbecf80	-0.09316921
167	0x3e50fda8	0.20409262
168	0x3d880ecb	0.066434465
169	0x3dee4c0d	0.11635599
170	0xbea15de9	-0.3151696
171	0x3f1c1506	0.6096958
172	0x3e78499d	0.24246831
173	0x3e07859b	0.1323456
174	0xbbe8e592	-0.007107445
175	0xbc238699	-0.009980821
176	0xbdd5458a	-0.10413654
177	0xbd5d90a4	-0.05409302
178	0xbe82e085	-0.2556192
179	0x3ebc074d	0.3672432
180	0xbea9950a	-0.3312152
181	0xbe95ca6a	-0.29255992
182	0x3c64b9a6	0.013960278
183	0x3d7ce472	0.0617413
184	0x3e940e8d	0.2891735
185	0x3e012cee	0.12614796
186	0x3d0c5a16	0.0342656
187	0xbe433f4a	-0.19067112
188	0x3d8ad266	0.067784116
189	0xbe085f3a	-0.13317576
190	0x3b994f16	0.004678617
191	0xbecc518e	-0.3990597
192	0x3ecb0f1c	0.39659965
193	0x3db374fe	0.08762549
194	0xbdbb1ac7	-0.09135967
195	0xbd91c836	-0.07118265
196	0xbe8225f1	-0.25419572
197	0x3ecdcbe5	0.40194622
198	0x3e18d599	0.14925231
199	0x3e89d919	0.26923445
200	0xbe3bf1ea	-0.18354002
201	0x3ee469dd	0.44612017
202	0xbc22ff53	-0.009948569
203	0xbd3e6a76	-0.046488248
204	0xbea9381d	-0.33050624
205	0xbf143e2c	-0.57907367
206	0xbe8f2d5a	-0.27964288
207	0xbebc2966	-0.36750335
208	0xbed5003e	-0.41601747
209	0xbe26cd3a	-0.16289225
210	0xbe3ea18b	-0.18616311
211	0x3e0654c9	0.1311828
212	0xbf1c69d9	-0.6109901
213	0xbd445643	-0.047933828
214	0x3d78462b	0.060613792
215	0x3e4d6bff	0.20060728
216	0x3d8c5b3d	0.0685334
217	0x3e8e8d2b	0.27842078
218	0xbdc5068f	-0.096203916
219	0x3e212635	0.15737231
220	0xbde06bfd	-0.10958097
221	0xbe1a4158	-0.15063989
222	0xbe73d311	-0.23810984
223	0xbd1f9965	-0.038964648
224	0x3ca25792	0.019817147
225	0x3e06087d	0.13089176
226	0xbd2741eb	-0.04083435
227	0xbdca6617	-0.09882753
228	0x3b2103e5	0.0024568972
229	0xbda5972f	-0.080854766
230	0x3e59113c	0.2119798
231	0xbdd04f51	-0.101713784
232	0x3e7ab6b8	0.24483764
233	0xbe892c0f	-0.26791427
234	0xbdccebd2	-0.10005917
235	0xbe7e77d7	-0.24850403
236	0xbf09f03a	-0.5388218
237	0xbd964f34	-0.073393255
238	0x3ee11658	0.4396236
239	0x3f23d954	0.6400349
240	0xbd10afef	-0.035324033
241	0x3d1fbba4	0.038997307
242	0xbe9c6bb9	-0.30550936
243	0x3eb6798f	0.35639617
244	0xbe8a2e0a	-0.2698825
245	0xbde5d114	-0.11221519
246	0x3e996953	0.29963169
247	0xbde6c4b3	-0.11267986
248	0xbea5fd7d	-0.3241996
249	0xbc975b68	-0.018476203
250	0xbdd86fa5	-0.105681695
251	0x3e453562	0.19258645
252	0x3e558aab	0.20853679
253	0x3ddeeb1d	0.10884688
254	0x3d160396	0.036624514
255	0x3dcf67a7	0.10127192

fc_advantage.0.bias f4 [20]
0	0xbe33cb56	-0.17558035
1	0xbe8976df	-0.26848504
2	0xbdefd05e	-0.11709665
3	0xbe81a367	-0.2531998
4	0xbe6141b4	-0.2199772
5	0xbda1c68b	-0.07899197
6	0xbee3a63d	-0.44462767
7	0xbd34c06b	-0.044128817
8	0xbb05bb04	-0.002040566
9	0xbe5b9f01	-0.21447374
10	0xbdd8d38a	-0.10587223
11	0xbdb0c898	-0.0863201
12	0x3d658389	0.056033645
13	0x3db4bcae	0.0882505
14	0xbe2601ea	-0.16211668
15	0x3e01018a	0.12598243
16	0x3ccc6001	0.024948122
17	0xbcfc134a	-0.030770916
18	0x3de20891	0.1103679
19	0x3d975274	0.073887736
