initial_model/mnist_model/global_model.pkl (torch, 121077 bytes, 14 tensors)

layer1.0.weight f4 [16, 1, 5, 5]
000000 19 da 05 3e 00 ca b9 bc c6 39 83 bd 8c f7 39 bd
       0.13071479 -0.022679329 -0.06407504 -0.045402095
000010 ba a6 b6 3d 78 a9 0d bd 40 cf d4 bc 0c c1 54 bd
       0.08918519 -0.034585446 -0.02597773 -0.051941916
000020 c0 89 9c bd 80 2c c9 3c e3 a4 0e be da e3 84 bd
       -0.07643461 0.024557352 -0.13930087 -0.06488772
000030 f2 4d f5 3d 4b b1 31 be ee 9a a7 3d f5 56 44 3e
       0.119777575 -0.17352788 0.08183847 0.19173796
000040 91 e3 00 3e 97 da 3e 3e 27 7b 38 be d6 6c e6 3d
       0.1258681 0.18638073 -0.18015729 0.112512276
000050 c0 58 b5 3c 80 3c 66 bc b0 ac 3f 3c a8 eb 4c bd
       0.022137046 -0.01405251 0.011698887 -0.050029427
000060 3b f2 40 3e e4 f8 69 3d f0 ac a4 bc b4 f0 03 be
       0.18842404 0.057122126 -0.020101994 -0.1288479
000070 41 20 40 3e 70 90 c7 3c 12 94 3a be 26 ed 8c 3d
       0.18762304 0.024360865 -0.18220547 0.0688117
000080 6a e6 84 bd 52 dd ea 3d 90 4b e3 bc d2 35 e2 3d
       -0.064892605 0.11467995 -0.027745992 0.11045422
000090 0c 47 6c 3d 49 c4 44 3e ec 60 51 bd f2 d1 83 3d
       0.057684943 0.19215502 -0.051117823 0.06436528
0000a0 9a 49 4a be 2c 40 0c 3d 44 0d 82 bd 89 f2 3b 3e
       -0.1975464 0.034240887 -0.063501865 0.18354239
0000b0 98 e6 1c 3d 80 0d 51 bb d3 83 2c 3e 54 2f 91 bd
       0.03830585 -0.0031898916 0.16847162 -0.07089105
0000c0 80 0a 24 3b a0 1e 6f bd e1 6c 21 3e 45 ad 37 be
       0.0025030673 -0.058378816 0.1576419 -0.17937191
0000d0 29 17 0a 3e 0b 97 14 be bc d8 08 be eb f8 31 3e
       0.13485397 -0.14510743 -0.13363928 0.17380111
0000e0 87 94 e6 bd 18 3e ab bc 29 19 3c 3e 00 ea f4 3c
       -0.11258798 -0.020903632 0.18368973 0.029896736
0000f0 e8 af 82 3c e7 fc f7 bd 44 4f 72 3d d4 68 08 be
       0.01595302 -0.12108784 0.059157625 -0.13321239
000100 30 14 9f 3c 40 fc a9 3b 4c 5e 31 bd 2f 75 36 3e
       0.019418806 0.0051875412 -0.04330282 0.1781814
000110 54 2b 35 bd 73 6e 24 3e cd c8 9d bd 40 1b 53 bd
       -0.044230774 0.16057758 -0.07704315 -0.05153966
000120 b0 a1 aa bc cc 60 49 3d 3b d7 41 3e 70 bf a2 bd
       -0.020829052 0.04916458 0.1892976 -0.0794667
000130 77 f0 36 be c0 95 0f be 75 62 3b 3e 1b 9a 25 3e
       -0.17865168 -0.14021969 0.18299277 0.16172068
000140 4b 40 2c 3e b7 fd b7 bd c2 50 ff 3d ca f7 b2 3d
       0.16821401 -0.08983939 0.12466575 0.08738668
000150 35 e2 07 3e 00 a9 5d bd c4 03 51 3d 7e ba d8 3d
       0.13269885 -0.05411625 0.05102898 0.105824456
000160 bb 78 2f 3e cf a8 2e 3e c8 3a 1f 3d 3f c1 2c 3e
       0.17135899 0.17056583 0.038874418 0.16870593
000170 d0 23 3a 3c d5 dc 01 3e 33 4e 03 3e 55 dd 2a 3e
       0.011361077 0.12681897 0.128228 0.16685994
000180 53 56 04 3e 20 d2 2f bd 8d f6 ec bd ee 32 e4 3d
       0.12923555 -0.042925 -0.11570463 0.111425266
000190 c0 37 eb 3c 32 d7 93 3d c0 06 21 3d 1a ac 90 bd
       0.028713107 0.072187796 0.039313078 -0.07064076
0001a0 3a 53 85 bd f4 56 30 3d 40 54 99 bb b8 8c 5b bd
       -0.06510015 0.043051675 -0.004679233 -0.053600997
0001b0 e9 fa 16 3e f3 9b 15 3e 05 bc 27 3e ce 94 e5 3d
       0.14744152 0.14610271 0.16380318 0.11210023
0001c0 11 d4 45 3e 25 bf 0d be 58 4b 21 bd 47 78 c6 bd
       0.19319178 -0.13842447 -0.039378494 -0.0969091
0001d0 76 af c2 3d 77 05 e7 bd 80 fa a1 3a b7 2f 3e 3e
       0.09506123 -0.11280339 0.001235798 0.1857289
0001e0 ba d5 dd bd b4 5b 8f bd e8 c2 64 bd 64 02 74 3d
       -0.10831781 -0.06999913 -0.05584994 0.059572592
0001f0 7a ae d2 bd 54 27 59 bd ac 51 63 bd 2c 21 15 bd
       -0.10287185 -0.05301602 -0.05549781 -0.03640859
000200 d8 55 ee bc a7 10 bb bd 6e d7 cd 3d 16 63 0c be
       -0.029093668 -0.091340356 0.100508556 -0.13709673
000210 08 5e 32 3d 2f 50 0a 3e 33 35 48 3e 8d f5 99 bd
       0.043546706 0.1350715 0.19551544 -0.07517538
000220 c0 4c b7 bb b7 70 9a bd 58 ee 8b bc 77 32 dd bd
       -0.005593866 -0.0754103 -0.017081425 -0.10800641
000230 60 e3 44 3d d7 87 a2 bd 58 95 19 be 82 a7 f6 3d
       0.048068404 -0.07936066 -0.14998376 0.12043668
000240 86 5f e9 3d b3 8d 01 3e c0 f7 2d 3d 00 18 3c ba
       0.11395173 0.1265171 0.0424726 -0.0007175207
000250 e3 9b f1 bd fe fe 0b be 74 cd 32 bd 57 1e 1a 3e
       -0.11797311 -0.1367149 -0.043652967 0.15050636
000260 88 77 11 be 81 3d 10 3e cb 55 3e be e7 57 2e 3e
       -0.14205754 0.14085962 -0.18587415 0.1702572
000270 60 a5 51 bd 3e 1b a9 3d 4a a9 e5 3d 60 ff 1e bd
       -0.051183105 0.08257149 0.1121393 -0.038817763
000280 24 e2 57 3d 31 87 38 3e 65 70 14 be 50 8f 03 3c
       0.0527059 0.18020321 -0.14496 0.008029774
000290 88 95 78 bd e2 aa d5 3d c3 a5 45 be e7 01 43 3e
       -0.06068948 0.10432984 -0.19301514 0.19043694
0002a0 93 e6 07 3e b3 64 1a 3e 4a 35 f7 bd 80 90 f8 bd
       0.13271551 0.15077476 -0.12070711 -0.12136936
0002b0 52 27 e1 3d bd 7c c6 bd c8 a8 1d 3d ae e2 8a 3d
       0.10993828 -0.09691761 0.03849104 0.06781517
0002c0 b1 3a 1d 3e ba a2 02 be 2d fa 35 be 12 49 1b be
       0.1535442 -0.12757388 -0.17771216 -0.15164593
0002d0 a6 ce 92 bd 92 a7 86 3d d8 71 b7 3c 2e 40 e2 3d
       -0.07168321 0.0657493 0.022393152 0.110473976
0002e0 00 4e 46 3b 18 d5 8d 3c fa 44 e0 3d 13 35 11 be
       0.0030258894 0.017313525 0.10950656 -0.14180402
0002f0 aa 7d 28 be 78 29 49 3d 40 63 6f bd 22 ed a1 3d
       -0.16454187 0.049111813 -0.05844426 0.079065576
000300 02 db e8 3d ad bc ea bd 52 a6 a4 3d 37 ba 35 3e
       0.113698974 -0.11461768 0.080395356 0.17746817
000310 e7 65 c9 bd 0c 38 7f 3d ea 35 98 3d e9 e1 0c 3e
       -0.098338895 0.06230931 0.07432158 0.13758053
000320 a0 12 2a bd 3e 15 fc 3d ee 7d a1 3d b8 71 71 bd
       -0.04152167 0.12308739 0.07885347 -0.05894634
000330 e0 41 d7 bd 68 2a ce 3c a8 ab 82 3c 00 86 7b 3b
       -0.105106115 0.025166705 0.015950993 0.003837943
000340 60 f6 dd bb cc 10 5b 3d c5 b2 0b 3e aa d7 3d be
       -0.006773755 0.053482816 0.13642414 -0.185393
000350 74 83 98 bd 8c 61 0c bd ba db f8 3d f0 96 dc bd
       -0.07446948 -0.034272715 0.121512845 -0.107709765
000360 e7 cb eb bd ca a4 e3 3d e1 74 34 3e c3 bc a4 bd
       -0.11513501 0.111154154 0.17622711 -0.08043816
000370 b2 47 07 be 50 5e ef bc 02 d6 a5 3d b8 b6 2b bd
       -0.13210943 -0.029219776 0.080974594 -0.0419223
000380 80 6a 10 3c d6 2c b1 3d 42 c1 2e be 31 eb 42 3e
       0.008814454 0.0865113 -0.1706591 0.19035031
000390 92 aa e6 3d 91 b6 44 3e d9 28 22 3e b5 df 18 be
       0.112630025 0.19210269 0.15835895 -0.14929087
0003a0 40 e5 ba bb 91 d9 16 3e 40 38 21 bd ba 31 9b bd
       -0.0057035983 0.14731432 -0.039360285 -0.07577844
0003b0 59 3e 22 3e b0 37 b8 bd 5e 2f 22 be 11 30 07 3e
       0.15844096 -0.089949965 -0.15838382 0.1320193
0003c0 28 2b 3a bd 76 72 1f be 38 f9 38 3d aa b6 b2 bd
       -0.045451313 -0.15571007 0.04515955 -0.08726247
0003d0 25 9b 07 be 22 15 a6 3d c2 de 9e 3d 00 4d 99 3a
       -0.13242777 0.081094995 0.077573314 0.0011695921
0003e0 a3 f4 2d 3e 06 61 0d be 40 27 dc bb ef 8f 35 3e
       0.16987853 -0.13806543 -0.006718546 0.17730688
0003f0 70 22 a4 bd f1 7e 2f 3e 06 39 d5 3d ae b3 07 be
       -0.08014381 0.17138268 0.10411267 -0.13252136

layer1.0.bias f4 [16]
000000 d6 9a 87 3d 4d fc bd bd 8c 3e 6f bd 9d 68 e0 bd
       0.066213295 -0.09276638 -0.05840926 -0.109574534
000010 32 cb b3 3d a0 a7 23 3d f3 71 f9 bd 90 6b 3a be
       0.08778991 0.03995478 -0.12179937 -0.18205094
000020 e6 2f ba 3d a8 60 0c bd fd 46 45 be 06 45 1e be
       0.09091167 -0.034271866 -0.19265361 -0.15456018
000030 9e 86 19 be 51 4f 0b 3e 4a c4 c0 bd ad bf 27 be
       -0.14992759 0.13604476 -0.09412439 -0.16381712

layer1.1.weight f4 [16]
000000 00 00 80 3f 00 00 80 3f 00 00 80 3f 00 00 80 3f
       1.0 1.0 1.0 1.0
000010 00 00 80 3f 00 00 80 3f 00 00 80 3f 00 00 80 3f
       1.0 1.0 1.0 1.0
000020 00 00 80 3f 00 00 80 3f 00 00 80 3f 00 00 80 3f
       1.0 1.0 1.0 1.0
000030 00 00 80 3f 00 00 80 3f 00 00 80 3f 00 00 80 3f
       1.0 1.0 1.0 1.0

layer1.1.bias f4 [16]
000000 00 00 00 00 00 00 00 00 00 00 00 00 00 00 00 00
       0.0 0.0 0.0 0.0
000010 00 00 00 00 00 00 00 00 00 00 00 00 00 00 00 00
       0.0 0.0 0.0 0.0
000020 00 00 00 00 00 00 00 00 00 00 00 00 00 00 00 00
       0.0 0.0 0.0 0.0
000030 00 00 00 00 00 00 00 00 00 00 00 00 00 00 00 00
       0.0 0.0 0.0 0.0

layer1.1.running_mean f4 [16]
000000 00 00 00 00 00 00 00 00 00 00 00 00 00 00 00 00
       0.0 0.0 0.0 0.0
000010 00 00 00 00 00 00 00 00 00 00 00 00 00 00 00 00
       0.0 0.0 0.0 0.0
000020 00 00 00 00 00 00 00 00 00 00 00 00 00 00 00 00
       0.0 0.0 0.0 0.0
000030 00 00 00 00 00 00 00 00 00 00 00 00 00 00 00 00
       0.0 0.0 0.0 0.0

layer1.1.running_var f4 [16]
000000 00 00 80 3f 00 00 80 3f 00 00 80 3f 00 00 80 3f
       1.0 1.0 1.0 1.0
000010 00 00 80 3f 00 00 80 3f 00 00 80 3f 00 00 80 3f
       1.0 1.0 1.0 1.0
000020 00 00 80 3f 00 00 80 3f 00 00 80 3f 00 00 80 3f
       1.0 1.0 1.0 1.0
000030 00 00 80 3f 00 00 80 3f 00 00 80 3f 00 00 80 3f
       1.0 1.0 1.0 1.0

layer2.0.weight f4 [32, 16, 5, 5]
000000 45 b7 16 bd e0 21 75 3b 68 75 1b bc 6a 45 e3 bc
       -0.036795873 0.0037404224 -0.009488441 -0.02774306
000010 7c 46 55 3c 2d 79 b6 bc c0 5d 93 ba b0 c9 d6 3b
       0.013017293 -0.022274578 -0.001124315 0.0065548047
000020 40 d6 2b bd 33 4b 10 3d 4a 9d d6 bc b0 37 37 3b
       -0.04195237 0.035227966 -0.026198048 0.0027956776
000030 aa e9 9b 3c 60 32 00 3b 00 03 28 bb b0 23 1c bb
       0.019032318 0.0019561276 -0.0025636554 -0.0023824982
000040 a0 34 ef bc e7 40 eb bc 6a be 03 bd 36 23 c9 3c
       -0.029199898 -0.028717471 -0.032164015 0.024552923
000050 f9 33 2d 3d 62 52 aa 3c 3d 8d d3 bc b8 d9 44 3c
       0.042285893 0.020791236 -0.025824184 0.012014799
000060 cc 63 62 bc 0e 61 e0 3c 50 2a 97 bb f2 48 92 3c
       -0.013817739 0.02739003 -0.0046131983 0.017857049
000070 6a e7 c6 3c 73 61 10 3d bd 3c 4a 3d 9a ef bd bc
       0.024280269 0.035249185 0.04937433 -0.02318554
000080 90 10 9d bc c0 a2 ca bb 60 1d 2e bc 00 2d b8 39
       -0.019172937 -0.006183952 -0.010627121 0.00035128742
000090 53 7d 09 3d 50 89 54 3b be 96 e8 3c f0 0f c4 bb
       0.033566784 0.0032430477 0.028392192 -0.005983345
0000a0 70 87 15 bd 5e 41 85 3c c0 5a 58 bc 32 93 db 3c
       -0.036506116 0.016266521 -0.01320523 0.026803587
0000b0 c0 00 8c bc 78 e5 35 bc 42 2d e5 3c 00 9e 9b 3b
       -0.017090201 -0.011102073 0.027975682 0.0047490597
0000c0 66 8e a5 3c 80 56 10 ba aa 80 aa 3c de 82 c0 3c
       0.020209502 -0.00055060536 0.020813305 0.023499902
0000d0 74 82 3a bc 11 77 1e 3d 53 d0 29 3d 20 1b 5f 3b
       -0.0113836415 0.03868777 0.04145844 0.0034043267
0000e0 9a c7 8d 3c a0 5f f7 ba 06 23 12 bd cc 8f 21 bc
       0.017307092 -0.0018873103 -0.035677932 -0.009860944
0000f0 ea 05 f8 3c 1e b1 dd 3c 24 45 58 3c a0 a7 d9 3a
       0.030276258 0.027061995 0.013200078 0.0016605742
000100 24 4e 79 3c 51 a3 28 3d 80 04 c3 3b f9 fd 24 3d
       0.015216384 0.041171376 0.005951464 0.04028127
000110 80 4d 2b ba 10 17 f9 bb f8 19 23 bd 50 0b 47 3b
       -0.0006534681 -0.007601626 -0.039819688 0.0030371733
000120 a8 ea 7f bc 18 95 b4 bb 4c 06 38 3c a0 9d fd ba
       -0.015619911 -0.0055109374 0.01123197 -0.0019349344
000130 3c ca 8e bc 35 9c 4a bd 8d 79 39 bd b4 24 8f bc
       -0.017430417 -0.049465377 -0.045281935 -0.017473556
000140 6c 73 26 3c 26 4c 1e bd ed 51 f9 bc 7d 73 1b bd
       0.010159355 -0.03864684 -0.030434573 -0.037951935
000150 fb c4 4b bd 17 f3 b2 bc 83 ad c9 bc 0d 10 09 bd
       -0.049748402 -0.02184443 -0.02461887 -0.033462573
000160 67 53 14 3d 0b 1b 44 3d 4f 4e 2f 3d 0d dc a6 bc
       0.03621235 0.047877353 0.04279929 -0.0203686
000170 8e 2f 8c 3c 3a 2b e7 bc 60 57 d6 ba d5 89 17 3d
       0.01711252 -0.028218854 -0.0016352944 0.03699668
000180 80 ef 5f 3b 73 00 f8 bc c1 2a 41 3d 48 69 4c 3c
       0.0034169853 -0.030273652 0.047159914 0.012476273
000190 2e f0 b2 3c 4a 80 9c 3c 8d c8 39 bd 50 8e 5d 3b
       0.021843042 0.019104142 -0.045357276 0.0033806749
0001a0 1f e0 27 3d b7 01 1f 3d e9 65 1e 3d 89 f3 15 3d
       0.040985223 0.038819995 0.038671408 0.036609206
0001b0 ac d9 58 bc 93 e1 25 bd 87 3b 11 3d 7f e3 35 3d
       -0.013235491 -0.040498327 0.03545716 0.04440641
0001c0 c3 0a c1 bc 57 f8 14 3d c8 15 5d bc fd 4f 00 bd
       -0.023564702 0.036369648 -0.013493963 -0.031326283
0001d0 fa 2a 11 bd fa e5 c3 bc b0 a1 96 bc ff cb 3d 3d
       -0.035441376 -0.023913372 -0.018387645 0.046337124
0001e0 7a a3 fb bc d1 2b 28 3d a7 83 42 bd 9e c1 01 bd
       -0.0307176 0.04105741 -0.047488835 -0.03167879
0001f0 40 d8 52 bc 51 51 47 3d 30 b4 bd 3b 77 b9 06 3d
       -0.012868941 0.048661534 0.0057893023 0.032891717
000200 ad 00 11 bd 68 96 ef bb c7 17 df bc 9c d2 0a bd
       -0.035401035 -0.007311631 -0.027233018 -0.03389226
000210 c8 0a 27 bc f8 69 45 bd ad d8 e2 bc d8 f9 a3 bb
       -0.010195442 -0.048196763 -0.02769121 -0.005004149
000220 00 16 24 bb 42 5e d2 3c 4d b8 a0 bc 94 f3 73 3c
       -0.0025037527 0.025679711 -0.019619131 0.0148896165
000230 00 a5 1c bd 35 6a 16 3d 3a 32 28 bd 1f f2 02 3d
       -0.038243294 0.03672238 -0.041063525 0.031969186
000240 b2 d4 c5 3c 2a a9 23 bd 00 ea 0b ba fb 92 3e 3d
       0.024149273 -0.03995625 -0.0005337298 0.04652689
000250 a5 42 23 bd b5 4b 0a bd 33 bb 9b bc 54 34 3a 3c
       -0.03985848 -0.033763606 -0.019010162 0.011365015
000260 5a 98 3f bd c0 7b 96 ba 54 4c 93 bc f2 8f f3 3c
       -0.046776153 -0.0011480972 -0.017980732 0.029731724
000270 bc 5c 76 3c d0 3b da 3b 22 6f b2 3c 26 f9 9e 3c
       0.015036758 0.0066599622 0.021781508 0.019405913
000280 ee e2 8f 3c a9 97 1e 3d f4 ba 4f bc 7f b5 33 3d
       0.017564263 0.038718853 -0.01267885 0.04387426
000290 11 44 1b 3d ba ab f9 bc 00 41 77 bc bc bb 96 bc
       0.03790671 -0.030477393 -0.015091181 -0.018400066
0002a0 c8 06 75 bc 8a a2 95 3c 8a d4 ee 3c 08 57 1e bc
       -0.01495523 0.018265981 0.02915408 -0.009664305
0002b0 fb 33 0b 3d c0 ea ae bb b4 a9 2f bc ba f4 f5 bc
       0.03398512 -0.005338043 -0.010721613 -0.030023921
0002c0 00 f6 e5 3b 93 a7 06 3d f0 31 b2 bc e8 17 1d bd
       0.007017851 0.032874655 -0.021752328 -0.038352877
0002d0 99 89 0b 3d 5e 28 b4 3c 4d c4 3b 3d e5 c9 19 3d
       0.03406677 0.021991905 0.045841504 0.037546057
0002e0 a2 82 c7 3c ed cc 28 3d 38 22 09 bd 5b 0d 22 bd
       0.024354283 0.041211057 -0.0334799 -0.039563518
0002f0 bf 68 20 3d 90 69 eb bb 90 67 95 3b 0f 7b 39 bd
       0.039162394 -0.007184215 0.0045594648 -0.045283373
000300 d6 60 0a bd fb 04 45 3d da 45 bc bc 59 78 04 3d
       -0.033783756 0.048100453 -0.022982527 0.032341335
000310 06 42 b0 3c b4 4a 38 3c d0 73 b8 bc a8 27 64 bc
       0.021515857 0.011248279 -0.022516161 -0.01392547
000320 ac 31 6f 3c 1b 9d 29 bd 3f 04 41 bd 20 55 1e 3c
       0.014599245 -0.041409593 -0.04712319 0.00966385
000330 2a 59 87 bc db 11 18 bd 54 90 7b bc 8c b6 6f 3c
       -0.016522009 -0.037126403 -0.015354235 0.014630925
000340 a8 3a 59 bc e8 ce d6 bb 42 e8 04 bd 00 37 d5 ba
       -0.013258614 -0.006555427 -0.03244806 -0.0016267002
000350 ce ea 0d bd d8 6d 1a bc ca 2e 38 bd d0 aa 8f bc
       -0.034647755 -0.009425603 -0.044966497 -0.017537504
000360 2a c7 b4 bc 0d 74 04 3d 58 9b 93 3b d2 55 f3 3c
       -0.022067625 0.032337237 0.0045046024 0.029704008
000370 21 d8 2a 3d d4 49 7d 3c c0 46 20 3c 40 45 e2 bc
       0.041710023 0.0154594965 0.009782493 -0.027620912
000380 9d a6 0a 3d 36 22 b2 3c a0 76 05 bb 13 a3 15 3d
       0.0338503 0.021744829 -0.0020364895 0.036532473
000390 08 64 49 bc 98 a5 54 bc 72 4d bd 3c ca 01 2e bd
       -0.012291916 -0.012978934 0.023108218 -0.042482175
0003a0 1c ff 7e 3c 40 fc fe ba 70 18 c8 bb 00 32 49 39
       0.0155637525 -0.0019453838 -0.006106429 0.0001918748
0003b0 58 08 4a bc b3 13 3d 3d e7 08 d8 bc 28 5f 65 bc
       -0.012331091 0.046161365 -0.026371432 -0.013999738
0003c0 d9 c4 00 3d 4d 5f 30 bd 00 18 a6 b9 8c 0c 06 3c
       0.03143773 -0.043059636 -0.0003167987 0.008181702
0003d0 69 02 48 3d ac 34 60 3c cd 89 f7 bc b8 02 06 bc
       0.048830424 0.013684433 -0.030217076 -0.008179359
0003e0 5e 45 c6 3c 40 c2 08 bc 9a c2 e0 bc 4d 83 c1 bc
       0.024202999 -0.008347094 -0.027436543 -0.02362218
0003f0 1f d0 4b 3d d6 57 f6 3c d4 fe 21 bc c5 a4 21 bd
       0.049759027 0.03007118 -0.009887416 -0.039463777

layer2.0.bias f4 [32]
000000 40 60 05 bc a2 9e a6 3c 9d a7 2a 3d d8 c1 9e 3b
       -0.008140624 0.020339314 0.041663755 0.0048448853
000010 a2 a7 b3 3c 4f 90 0a 3d c0 8f c0 ba 92 81 e5 3c
       0.02193052 0.03382903 -0.0014691278 0.028015886
000020 b1 e1 35 3d e8 8c dd bb 58 12 02 3c 53 3c 2b bd
       0.04440469 -0.006761182 0.007938944 -0.041805577
000030 40 b7 fb bb 28 f7 1b bc 90 96 a3 3b 52 3b 03 bd
       -0.007681757 -0.009519376 0.0049923137 -0.032038994
000040 68 34 46 bc 5e 9f c3 3c 07 e8 3c 3d b9 e1 39 3d
       -0.012097456 0.023879703 0.046119716 0.04538128
000050 74 87 53 3c ae ca 81 3c ad e4 2d 3d a3 3a 2a bd
       0.0129107125 0.015843716 0.04245441 -0.041559827
000060 e8 c9 05 bd e8 16 f8 bb d0 e7 13 3b d8 f4 94 bb
       -0.032663256 -0.00757109 0.002256859 -0.004545789
000070 07 eb f0 bc 42 da d6 3c b5 57 1c 3d 80 45 ca bb
       -0.029408945 0.02622712 0.03816958 -0.006172836

layer2.1.weight f4 [32]
000000 00 00 80 3f 00 00 80 3f 00 00 80 3f 00 00 80 3f
       1.0 1.0 1.0 1.0
000010 00 00 80 3f 00 00 80 3f 00 00 80 3f 00 00 80 3f
       1.0 1.0 1.0 1.0
000020 00 00 80 3f 00 00 80 3f 00 00 80 3f 00 00 80 3f
       1.0 1.0 1.0 1.0
000030 00 00 80 3f 00 00 80 3f 00 00 80 3f 00 00 80 3f
       1.0 1.0 1.0 1.0
000040 00 00 80 3f 00 00 80 3f 00 00 80 3f 00 00 80 3f
       1.0 1.0 1.0 1.0
000050 00 00 80 3f 00 00 80 3f 00 00 80 3f 00 00 80 3f
       1.0 1.0 1.0 1.0
000060 00 00 80 3f 00 00 80 3f 00 00 80 3f 00 00 80 3f
       1.0 1.0 1.0 1.0
000070 00 00 80 3f 00 00 80 3f 00 00 80 3f 00 00 80 3f
       1.0 1.0 1.0 1.0

layer2.1.bias f4 [32]
000000 00 00 00 00 00 00 00 00 00 00 00 00 00 00 00 00
       0.0 0.0 0.0 0.0
000010 00 00 00 00 00 00 00 00 00 00 00 00 00 00 00 00
       0.0 0.0 0.0 0.0
000020 00 00 00 00 00 00 00 00 00 00 00 00 00 00 00 00
       0.0 0.0 0.0 0.0
000030 00 00 00 00 00 00 00 00 00 00 00 00 00 00 00 00
       0.0 0.0 0.0 0.0
000040 00 00 00 00 00 00 00 00 00 00 00 00 00 00 00 00
       0.0 0.0 0.0 0.0
000050 00 00 00 00 00 00 00 00 00 00 00 00 00 00 00 00
       0.0 0.0 0.0 0.0
000060 00 00 00 00 00 00 00 00 00 00 00 00 00 00 00 00
       0.0 0.0 0.0 0.0
000070 00 00 00 00 00 00 00 00 00 00 00 00 00 00 00 00
       0.0 0.0 0.0 0.0

layer2.1.running_mean f4 [32]
000000 00 00 00 00 00 00 00 00 00 00 00 00 00 00 00 00
       0.0 0.0 0.0 0.0
000010 00 00 00 00 00 00 00 00 00 00 00 00 00 00 00 00
       0.0 0.0 0.0 0.0
000020 00 00 00 00 00 00 00 00 00 00 00 00 00 00 00 00
       0.0 0.0 0.0 0.0
000030 00 00 00 00 00 00 00 00 00 00 00 00 00 00 00 00
       0.0 0.0 0.0 0.0
000040 00 00 00 00 00 00 00 00 00 00 00 00 00 00 00 00
       0.0 0.0 0.0 0.0
000050 00 00 00 00 00 00 00 00 00 00 00 00 00 00 00 00
       0.0 0.0 0.0 0.0
000060 00 00 00 00 00 00 00 00 00 00 00 00 00 00 00 00
       0.0 0.0 0.0 0.0
000070 00 00 00 00 00 00 00 00 00 00 00 00 00 00 00 00
       0.0 0.0 0.0 0.0

layer2.1.running_var f4 [32]
000000 00 00 80 3f 00 00 80 3f 00 00 80 3f 00 00 80 3f
       1.0 1.0 1.0 1.0
000010 00 00 80 3f 00 00 80 3f 00 00 80 3f 00 00 80 3f
       1.0 1.0 1.0 1.0
000020 00 00 80 3f 00 00 80 3f 00 00 80 3f 00 00 80 3f
       1.0 1.0 1.0 1.0
000030 00 00 80 3f 00 00 80 3f 00 00 80 3f 00 00 80 3f
       1.0 1.0 1.0 1.0
000040 00 00 80 3f 00 00 80 3f 00 00 80 3f 00 00 80 3f
       1.0 1.0 1.0 1.0
000050 00 00 80 3f 00 00 80 3f 00 00 80 3f 00 00 80 3f
       1.0 1.0 1.0 1.0
000060 00 00 80 3f 00 00 80 3f 00 00 80 3f 00 00 80 3f
       1.0 1.0 1.0 1.0
000070 00 00 80 3f 00 00 80 3f 00 00 80 3f 00 00 80 3f
       1.0 1.0 1.0 1.0

fc.weight f4 [10, 1568]
000000 28 f4 12 3c 28 a3 61 bb 25 5f 3a bc 24 7a b4 bc
       0.008969344 -0.0034429524 -0.011375223 -0.022030897
000010 a0 ba 5a 3a 00 63 3e ba 9c 6e a8 3c 5e 91 a8 3c
       0.00083438493 -0.0007262677 0.020560555 0.020577129
000020 74 e2 0b 3c 20 35 f7 bb 20 c4 5c 3b a4 c7 bd 3c
       0.008537877 -0.007544175 0.0033686236 0.023166485
000030 0b 23 2e bc 20 07 a4 3a d4 92 cb bb 00 29 3b bb
       -0.010628472 0.001251433 -0.0062125716 -0.0028558373
000040 28 89 5b 3c 91 7a 4e bc 58 3c 72 3c 50 77 52 3c
       0.0133994 -0.012602464 0.014784895 0.012845829
000050 52 70 8b bc b8 29 f5 3b 00 d0 e4 b8 28 dc 26 bc
       -0.017021332 0.00748178 -0.0001091063 -0.010184325
000060 89 40 47 bc 64 0b 23 3c 00 68 64 b7 ec bb 8a 3b
       -0.0121613825 0.009951446 -1.3614073e-05 0.004233828
000070 0c 21 35 bc 3c 5a ba 3c 6c e7 95 bc d6 67 b6 bc
       -0.011055242 0.022748105 -0.018298827 -0.02226631
000080 98 9d 4e 3b fc df 40 3c 19 73 c9 bc c0 76 01 bc
       0.0031527039 0.011772152 -0.024591016 -0.007901847
000090 50 c9 24 3c 8c 0a 2b 3c c2 4d ac 3c 6e b2 cc 3c
       0.010057762 0.010439526 0.021033172 0.024987426
0000a0 49 ed 8e bc 34 9f a0 3c 80 a9 93 3a d4 37 65 3c
       -0.01744713 0.019607164 0.0011265725 0.013990361
0000b0 44 77 c4 3c fd 25 20 bc fc 1a 60 bc c0 7f 15 3b
       0.023982652 -0.009774682 -0.013678309 0.002281174
0000c0 50 bc bb 3c d1 f7 b8 bc ec 0c c3 bc 5c 7b b8 bc
       0.022916943 -0.022579106 -0.023809873 -0.02251976
0000d0 c4 89 9d 3c a8 18 ee bb a4 04 86 bc e8 64 3f bc
       0.01923073 -0.007266123 -0.016359635 -0.011681773
0000e0 70 6d be bb b8 ad 9e 3b 30 3d cb 3b ca 79 03 bc
       -0.005811386 0.004842486 0.0062023625 -0.008024642
0000f0 00 bc 96 b7 28 d8 2e bb da 83 05 bc 47 ac bd bc
       -1.7968938e-05 -0.0026679132 -0.008149112 -0.023153437
000100 48 2d 0b bb a0 e6 cc bb 27 38 ce bc 9c 2f 98 3b
       -0.0021236707 -0.0062530786 -0.02517326 0.0046443474
000110 4b 64 bd bc 14 53 a1 3b 44 90 db bb 98 f5 92 3b
       -0.023119112 0.0049232338 -0.0067005474 0.0044848435
000120 80 ae 71 3c 1b 0b a6 bc 9c 3f 74 3c 86 bc a2 bc
       0.014751077 -0.020268967 0.014907744 -0.019865286
000130 70 37 2b 3c bf 93 8c bc 48 69 c8 3c 54 47 aa bc
       0.010450229 -0.017160295 0.024464265 -0.020785965
000140 1a f0 92 3c ac 85 a6 3c 3e a9 8d bc 68 07 f7 3b
       0.017936755 0.020327412 -0.017292615 0.0075387247
000150 40 42 f7 3b 10 f9 ef ba 78 5e b4 bc 70 cf 0b bc
       0.0075457394 -0.0018308479 -0.022017702 -0.008533344
000160 a8 4d af 3c b4 91 b8 bc 08 d0 34 bb 3c 45 a0 3c
       0.021399334 -0.022530414 -0.0027589817 0.019564264
000170 48 78 04 3b 64 dc cc bb 51 8d 7f bc b4 f5 0b bc
       0.0020213295 -0.0062518585 -0.015597657 -0.008542467
000180 34 6c 9d 3c 44 79 42 3c 50 72 d2 bb 0c 2f b2 3b
       0.019216634 0.011869732 -0.0064223185 0.0054377373
000190 f4 b4 ef bb b4 f0 8e 3c 18 2d 8f bc 40 e9 a0 3c
       -0.0073152725 0.01744876 -0.017477557 0.019642472
0001a0 28 bb 4f 3c c8 02 f7 3b ce 1e c1 3c fc 49 97 3c
       0.012678899 0.0075381733 0.02357426 0.018467896
0001b0 00 3f 20 3c 98 e8 8d 3c 1a f8 a2 3c e0 09 cf 3b
       0.009780645 0.017322823 0.019893695 0.006318316
0001c0 12 9f b4 3c c8 4f c2 bb 5a 87 9e bc d6 e2 b8 bc
       0.022048507 -0.005929921 -0.01935165 -0.022569101
0001d0 6c 87 b3 bb 00 1a 42 3b 9e ed 02 bc e8 75 a3 bc
       -0.00547879 0.0029617548 -0.007991223 -0.019953683
0001e0 78 26 7f bb 13 21 69 bc b8 a9 bc bb e4 f4 81 3c
       -0.0038932841 -0.014229077 -0.0057575367 0.015863843
0001f0 c2 e5 95 bc e1 29 74 bc da 79 a9 bc 2a 93 ce 3c
       -0.018298034 -0.014902563 -0.020687986 0.025216658
000200 6a 83 69 bc c0 e1 35 3a c6 40 83 bc 4e c0 07 bc
       -0.014252523 0.00069382414 -0.016022097 -0.008285595
000210 20 ad a2 ba 04 eb 7f 3c 2d 28 2a bc 13 09 90 bc
       -0.0012411214 0.015619997 -0.010385555 -0.017582452
000220 2c 08 2f bc 56 3c 76 bc 40 3f 94 bb 5d bc c1 bc
       -0.010683101 -0.015029034 -0.0045241416 -0.023649389
000230 e0 ee b7 3c d0 da eb ba 54 87 63 3c 48 65 91 3c
       0.022452772 -0.0017994288 0.013887245 0.01774849
000240 48 5d 0d 3c ec a5 a7 bc 2c 60 9d 3b 20 0f 9f ba
       0.008628197 -0.02046486 0.0048027243 -0.0012135245
000250 70 67 b9 3a 42 b4 c8 3c 00 7c 1b bb 48 03 13 bc
       0.0014145207 0.024500016 -0.0023725033 -0.00897295
000260 64 a2 84 bb 80 aa c6 3c 00 95 8e bc 69 6f 6a bc
       -0.004047679 0.024251223 -0.017405033 -0.014308789
000270 70 af 9c 3b 80 33 c8 3b f0 0c d6 bb 32 25 13 bc
       0.004781656 0.006109655 -0.006532304 -0.008981036
000280 58 df 41 3c 28 16 68 3c c0 1e 31 3c 6f 7a 22 bc
       0.011833034 0.014165439 0.010810554 -0.009916886
000290 9c 3e 0e 3c 6a d0 8c bc 30 40 aa 3b b0 c4 70 3c
       0.008681919 -0.017189223 0.00519564 0.014695331
0002a0 80 61 0d 3b 18 7c c8 3b e4 b9 de bb 5a 87 87 3c
       0.0021573007 0.0061183088 -0.0067970622 0.016544033
0002b0 ab 5c b8 bc 40 10 e2 3a 98 df fd 3b 00 7d a9 39
       -0.022505125 0.0017247275 0.0077476017 0.00032327324
0002c0 40 f3 54 bb c8 5b 52 3c 68 20 8a 3c 47 af a5 bc
       -0.003249362 0.012839265 0.016861156 -0.02022518
0002d0 58 57 10 3b e0 ac 48 3b f6 d5 cc bc 74 63 34 3c
       0.0022024717 0.003062062 -0.025004368 0.01101004
0002e0 cc db 84 3c b0 9f 4a bb e4 6c b1 3c a5 6a 42 bc
       0.016218089 -0.0030917935 0.021658368 -0.011866246
0002f0 2c 02 d6 bb 2c 5c e5 bb dc ce c2 3c 78 0a 9a bc
       -0.0065310206 -0.006999513 0.023780279 -0.01880382
000300 60 3b 4a 3c 8a c7 37 bc b0 fb bf ba d4 e6 62 3c
       0.012343258 -0.011217007 -0.0014647152 0.013848979
000310 5a 9f 60 bc 44 43 7f 3c d8 36 93 3c 29 77 24 bc
       -0.013709867 0.015580002 0.017970487 -0.010038176
000320 46 80 7a bc ee ef 3f bc 52 d9 82 3c 00 68 07 3a
       -0.015289372 -0.011714919 0.015972767 0.00051653385
000330 2c 76 b3 3b fe cd b6 3c 4c 59 a1 3c 95 33 7d bc
       0.0054767337 0.022315022 0.0196959 -0.015454193
000340 3e ff 9f 3c 24 dc 43 3c 3e 28 b0 bc 50 75 e4 bb
       0.019530889 0.011954341 -0.021503564 -0.0069719926
000350 38 2c 4d 3c 79 89 93 bc e0 5b 1d bc 2a b1 bc 3c
       0.01252275 -0.018009888 -0.009604424 0.023033697
000360 da 36 54 bc 5c 01 39 3c 48 98 b6 3c 70 c4 c6 3a
       -0.012952531 0.011291828 0.02228941 0.0015164744
000370 8c 75 b8 bb d7 07 4f bc 91 0b c4 bc 40 10 a9 bc
       -0.005629247 -0.0126361465 -0.023931297 -0.020637631
000380 ce 19 a3 3c 80 b8 02 bb 90 78 a1 3c d0 25 11 bb
       0.019909766 -0.0019946396 0.019710809 -0.0022147782
000390 70 68 21 3b 20 01 01 3a a0 25 0b bb f7 b1 40 bc
       0.00246289 0.0004921127 -0.0021232143 -0.01176118
0003a0 3f 70 a0 bc 26 eb bf 3c 9c 6a 82 bb 10 dc 87 bc
       -0.019584773 0.023427557 -0.003979994 -0.016584426
0003b0 30 b4 ae 3a 1d 8d 91 bc 24 c0 48 3c b2 6a 93 3c
       0.0013328847 -0.017767483 0.012252841 0.017995212
0003c0 48 bc 7f bb e8 03 73 bb 86 98 a9 3c 04 6f 05 bc
       -0.0039022136 -0.0037081186 0.020702612 -0.008144144
0003d0 a6 d5 91 3c 24 e2 38 3c 00 e4 40 3c 16 10 0c bc
       0.01780207 0.011284385 0.011773109 -0.008548757
0003e0 40 05 34 3c 10 52 87 3a 50 38 1b 3b f0 ab 96 3b
       0.01098758 0.0010324139 0.0023684688 0.0045981333
0003f0 58 d4 6d bc 6b f7 be bc a0 74 2b 3c ca b6 0a bc
       -0.014515959 -0.023311337 0.010464817 -0.008466432

fc.bias f4 [10]
000000 5c f5 34 3c 7c 5a 8e bc 1f 32 c2 bc 4c 9f 9d bb
       0.011044826 -0.01737713 -0.02370554 -0.0048102494
000010 72 51 bb bc e0 55 08 3c 7e 63 8b 3c 42 fc 94 3c
       -0.022865985 0.008321255 0.017015215 0.018186692
000020 a8 f2 95 bb 1c 84 bb 3b
       -0.004576046 0.005722536
