models/clients/client-4/sub_model.pkl (torch, 42501 bytes, 27 tensors)

layer1_task.0.weight f4 [32, 3]
-0.07082191 0.06268218 -0.2349207 -0.19760618 0.024457373 -0.25135252 -0.35747916 0.11233779
0.17652279 -0.17072365 0.22867507 0.25531203 0.12841609 -0.24172626 0.027909927 0.15294299
-0.09316967 -0.01132786 -0.32042724 -0.2409155 -0.03732566 -0.060147613 0.2213857 0.05301517
0.1571621 0.2702568 -0.051692527 0.050982468 -0.15368323 -0.13864869 -0.050940473 0.17456552
0.18500808 -0.13018863 0.5551373 -0.0076252483 -0.38078982 -0.28169024 0.08985828 -0.21148401
0.2871139 -0.09803332 -0.17418496 -0.21282843 -0.20551527 0.22242506 0.0221974 0.32303384
0.116723284 0.23248474 0.5810625 0.006216759 0.037550416 -0.17258084 0.20782754 -0.00023761939
0.22696778 0.027603325 -0.42928764 -0.123286046 -0.480353 -0.08260144 -0.0523671 0.18253188
-0.58925056 0.017022412 -0.011039989 0.23743252 0.046915054 -0.12575682 0.06628916 -0.18754207
-5.3823176e-05 -0.08929256 -0.1364959 0.39005673 -0.21047445 -0.2998354 0.29265094 0.19601086
0.103679515 0.039587975 -0.082867585 0.15853944 -0.24921016 0.09836173 -0.20980436 0.14482474
-0.3315448 -0.19374265 0.21494028 0.075826414 -0.2693758 0.253688 -0.78910255 0.43860143
00000000: 140b 91bd 845f 803d 0d8f 70be 4659 4abe
00000010: d45a c83c 47b1 80be 8207 b7be 5b11 e63d
00000020: 64c2 343e 2ed2 2ebe cc29 6a3e 42b8 823e
00000030: 827f 033e 1787 77be 5ca3 e43c 169d 1c3e
00000040: bdcf bebd 7d98 39bc 0a0f a4be 8eb2 76be
00000050: cbe2 18bd 585d 76bd efb2 623e 6f26 593d
00000060: 1aef 203e 195f 8a3e 8bbb 53bd fed2 503d
00000070: 235f 1dbe ecf9 0dbe f5a6 50bd 4ec1 323e
00000080: c272 3d3e 2b50 05be 7a1d 0e3f 38dd f9bb
00000090: e2f6 c2be b439 90be 9e07 b83d 448f 58be
000000a0: 9800 933e b1c5 c8bd 8b5d 32be b2ef 59be
000000b0: 9872 52be 65c3 633e 52d7 b53c b164 a53e
000000c0: 9e0c ef3d 7b10 6e3e 83c0 143f f4b5 cb3b
000000d0: 77ce 193d 08b9 30be bed0 543e 7829 79b9
000000e0: 3e6a 683e 5e20 e23c 97cb dbbe 657d fcbd
000000f0: d4f0 f5be f22a a9bd e27e 56bd a3e9 3a3e
00000100: 20d9 16bf 9672 8b3c 12e1 34bc 8321 733e
00000110: 002a 403d 65c6 00be 9cc2 873d 070b 40be
00000120: 32c0 61b8 05df b6bd 95c5 0bbe 84b5 c73e
00000130: 9d86 57be 0784 99be 58d6 953e 12b7 483e
00000140: ed55 d43d 0027 223d 7bb6 a9bd 2a58 223e
00000150: f330 7fbe e071 c93d f4d6 56be f04c 143e
00000160: 3dc0 a9be 7964 46be 4e19 5c3e e14a 9b3d
00000170: a0eb 89be 65e3 813e a002 4abf 5e90 e03e

layer1_task.0.bias f4 [32]
-0.09002565 -0.088998534 -0.14987072 0.08616016 -0.053557876 0.09656813 -0.05707104 -0.22087678
-0.22206098 -0.010252952 0.1482668 0.0024695762 -0.11123335 -0.15353304 0.09728692 -0.1102054
-0.061278995 0.0064576725 -0.058774397 0.06906358 -0.03708671 0.31440842 -0.06846543 -0.09308627
-0.02039426 0.03480357 0.10776603 0.10530437 0.04254436 0.23871997 -0.047831487 0.004797717
00000000: 5e5f b8bd dd44 b6bd b677 19be bd74 b03d
00000010: 815f 5bbd 83c5 c53d 53c3 69bd 862d 62be
00000020: f463 63be fffb 27bc 41d3 173e 9dd8 213b
00000030: 50ce e3bd c437 1dbe 5d3e c73d 5eb3 e1bd
00000040: afff 7abd e29a d33b 6cbd 70bd 3571 8d3d
00000050: 3ce8 17bd 24fa a03e 9a37 8cbd 04a4 bebd
00000060: dd11 a7bc 308e 0e3d 70b4 dc3d d1a9 d73d
00000070: ff42 2e3d 0273 743e f3ea 43bd 2b36 9d3b

layer1_task.2.weight f4 [32]
0.9230627 1.009581 1.071107 0.98087054 0.7995506 1.0770146 1.1275582 0.8361137
0.97032017 1.1104484 1.1040009 1.091832 1.0820767 0.98268235 1.1341914 0.927601
1.0614083 1.2504497 0.99694407 0.94574386 0.92319506 0.8951252 0.771812 1.197911
1.103449 1.0370206 1.0378695 0.9014757 1.2060205 1.0929043 1.0294863 1.0474114
00000000: d64d 6c3f f339 813f 091a 893f 551a 7b3f
00000010: 59af 4c3f 9ddb 893f d453 903f 8c0b 563f
00000020: e766 783f 2c23 8e3f e74f 8d3f 27c1 8b3f
00000030: 7d81 8a3f 1291 7b3f 2f2d 913f 4277 6d3f
00000040: 3adc 873f bc0e a03f ba37 7f3f 451c 723f
00000050: 8356 6c3f ed26 653f 7995 453f 2655 993f
00000060: d13d 8d3f 17bd 843f e8d8 843f 1dc7 663f
00000070: e15e 9a3f 4ae4 8b3f 35c6 833f 9411 863f

layer1_task.2.bias f4 [32]
-0.07673065 -0.0071635772 0.12379826 -0.0070517967 -0.08332458 0.1477594 -0.043941244 -0.012902325
-0.13648325 -0.1921685 0.026903553 -0.114072174 -0.14869033 0.023415701 0.20055017 0.09341078
-0.01729389 -0.2344106 -0.023733715 0.061527763 -0.054534115 0.20279206 0.014050669 -0.06799478
0.015595691 0.04552076 -0.1363328 0.18649107 -0.24238624 0.048383545 -0.01968416 -0.23581317
00000000: f624 9dbd 71bc eabb f189 fd3d c212 e7bb
00000010: 14a6 aabd 3d4e 173e bcfb 33bd 4664 53bc
00000020: 44c2 0bbe d2c7 44be d764 dc3c ac9e e9bd
00000030: 4742 18be 49d2 bf3c 065d 4d3e 274e bf3d
00000040: eaab 8dbc 5509 70be 356d c2bc 8904 7c3d
00000050: 2a5f 5fbd b9a8 4f3e c734 663c d940 8bbd
00000060: 1285 7f3c fa73 3a3d d39a 0bbe 84f7 3e3e
00000070: 1934 78be d32d 463d ad40 a1bc 0279 71be

layer1_task.2.running_mean f4 [32]
-4731.8057 -13607.477 -23565.297 -11472.261 7835.6577 9639.656 -21692.246 -4128.9194
10398.79 3668.8315 -3665.7898 -8469.007 -24637.107 -13291.055 -11573.356 14332.3
7669.015 539.209 13548.942 2449.05 -31062.037 12639.408 -718.3792 -8515.259
110.73732 25542.32 19172.562 2432.069 -16100.547 9662.833 13510.814 16521.35
00000000: 72de 93c5 e89d 54c6 981a b8c6 0b41 33c6
00000010: 43dd f445 a09e 1646 7e78 a9c6 5b07 81c5
00000020: 297b 2246 4e4d 6545 a31c 65c5 0754 04c6
00000030: 377a c0c6 38ac 4fc6 6dd5 34c6 33f1 5f46
00000040: 1fa8 ef45 60cd 0644 c5b3 5346 cd10 1945
00000050: 13ac f2c6 a27d 4546 4598 33c4 090d 05c6
00000060: 8279 dd42 a48c c746 20c9 9546 1b01 1845
00000070: 3092 7bc6 55fb 1646 421b 5346 b312 8146

layer1_task.2.running_var f4 [32]
1.6850602e+07 1.4416154e+08 4.318098e+08 9.394309e+07 4.761526e+07 7.0892264e+07 3.4251062e+08 1.3099401e+07
8.3085064e+07 1.043913e+07 9.627892e+06 5.327782e+07 4.766456e+08 1.3293569e+08 1.0118414e+08 1.6337331e+08
4.387608e+07 253867.27 1.4191099e+08 4.680235e+06 7.57311e+08 1.2382113e+08 409507.9 5.324857e+07
57772.1 4.8231914e+08 2.8343242e+08 4.7615835e+06 1.9627099e+08 7.3263544e+07 1.4653128e+08 2.1435531e+08
00000000: 558f 804b b07b 094d 28e7 cd4d a62e b34c
00000010: 47a3 354c 5d37 874c 6152 a34d 89e1 474b
00000020: e178 9e4c da49 1f4b f4e8 124b 1f3d 4b4c
00000030: 4748 e34d 018e fd4c 52fe c04c 10ce 1b4d
00000040: bc5f 274c d1ea 7748 3d56 074d 56d4 8e4a
00000050: 988e 344e 892b ec4c 7df4 c748 8e20 4b4c
00000060: 1aac 6147 d9fc e54d af26 874d df4f 914a
00000070: b92d 3b4d 37bd 8b4c 3dbe 0b4d d76c 4c4d

layer1_1vm.0.weight f4 [64, 40]
0.12685518 -0.10054784 0.0049237497 -0.05708047 0.11172835 0.11799341 0.009326639 -0.34064347
-0.18952797 -0.07111251 -0.17829922 -0.20136273 -0.09619381 -0.21499994 0.12694795 0.32728273
0.0039198627 -0.12765694 0.21163075 -0.10435411 0.618533 -0.2591357 -0.009578828 -0.02203106
-0.18769585 0.009704799 0.058852997 -0.22620392 -0.0020475993 -0.25244415 -0.31523937 0.06445775
0.08630187 0.042377584 0.17951794 0.18817219 0.03600498 0.10151625 0.03202992 0.031415522
0.13017324 -0.2966301 -0.08288964 0.08710569 -0.124010704 0.10625702 0.038500626 0.20038997
-0.26510796 -0.13986748 -0.15126422 -0.18093418 0.12100811 0.13607359 -0.24914256 -0.0061649946
0.13304253 0.18045345 -0.06685486 0.12272195 -0.048012815 -0.11670646 -0.25234163 0.07872666
-0.40147606 0.018519977 0.039544154 0.13942197 0.1605056 -0.17521708 0.050319698 0.051003627
0.24202943 -0.21997462 0.09469901 -0.104826786 -0.3768952 0.25919437 0.35576218 -0.009398664
0.11346759 0.062717006 -0.12052132 0.33159557 -0.08486913 0.08310665 -0.05072931 0.028969904
-0.1929934 -0.070308335 -0.09518677 0.091114126 -0.12273755 0.13431588 0.05498392 -0.09555243
-0.059609 0.20477213 -0.14925587 0.20163481 0.116198614 -0.14287649 0.19865292 -0.06515679
0.2483266 0.27304053 0.12827012 0.19708513 -0.2423309 -0.08185943 0.00019827281 -0.17151865
0.089711264 0.055209354 -0.009719584 0.21106283 -0.13693166 -0.08018997 0.16524592 -0.30292627
-0.15659134 0.053119 0.19222693 -0.4029458 0.35618123 0.08744718 0.021170205 -0.12484397
-0.129566 0.068025105 -0.12679031 -0.08907318 -0.19633488 0.12729198 -0.21185581 -0.1599474
-0.17012598 -0.084245816 0.09512761 0.17387348 -0.08044482 0.2625655 0.08015682 0.080287054
-0.33243206 0.18882488 0.22530478 0.007307463 0.12308957 0.20457548 -0.07908552 0.09439179
-0.3153154 -0.13018364 -0.1872025 -0.2584323 0.036775608 0.17329063 -0.22579066 0.2752038
-0.009661659 -0.039702192 -0.2798335 -0.24080774 -0.28999516 0.088482976 -0.09421326 0.27592734
0.17328158 0.07721675 -0.19723289 0.086562306 0.22191674 0.0012688796 -0.25204033 -0.037754543
-0.09085565 0.13432176 0.1410645 0.34453234 -0.11012259 -0.16562696 0.1927416 0.17843683
0.13549647 0.21131718 0.17099075 -0.13892514 -0.32825753 0.21856081 0.23829027 0.01353415
0.12440784 0.42201543 -0.009100843 0.21410146 -0.29222777 0.071107864 0.10796989 0.31728384
-0.1649086 -0.13124676 0.06310447 0.07846309 0.19205472 0.03830001 -0.0653843 0.021319192
-0.092573464 0.013053731 -0.13721932 -0.3310219 0.061699715 0.19685417 0.08819635 0.0592747
0.20613882 0.28709635 -0.10299919 -8.1656966e-05 -0.17974834 0.14110634 0.044042315 0.4365133
-0.090924926 -0.006792075 -0.009181282 0.13354644 0.044954587 -0.25184527 -0.07896792 0.071515605
-0.36024725 -0.36393353 -0.024384383 -0.079888694 -0.3238452 -0.016053258 0.25840548 0.27818465
-0.018798126 -0.2534625 0.06501628 0.12968083 -0.0054296474 -0.03027614 -0.0666989 -0.19201057
6.365252e-05 -0.16171607 -0.044840276 0.15724584 -0.37044632 -0.12118174 -0.063112624 0.24184927
00000000: 53e6 013e 07ec cdbd 6857 a13b 36cd 69bd
00000010: d5d1 e43d 87a6 f13d c2ce 183c d268 aebe
00000020: 9f13 42be 70a3 91bd 1294 36be 0832 4ebe
00000030: 4301 c5bd f228 5cbe a5fe 013e 9a91 a73e
00000040: 3172 803b 80b8 02be bbb5 583e 9cb7 d5bd
00000050: 2e58 1e3f 6fad 84be 84f0 1cbc 7b7a b4bc
00000060: 5733 40be e100 1f3c d70f 713d 00a2 67be
00000070: 0431 06bb 5c40 81be 0e67 a1be 6d02 843d
00000080: 09bf b03d 1e94 2d3d 8dd3 373e 36b0 403e
00000090: f579 133d c0e7 cf3d ce31 033d 90ad 003d
000000a0: 224c 053e e7df 97be 0bc2 a9bd 7864 b23d
000000b0: 53f9 fdbd 489d d93d d5b2 1d3d 0733 4d3e
000000c0: 3bbc 87be 6c39 0fbe 02e5 1abe cf46 39be
000000d0: 1ad3 f73d e056 0b3e 3a1f 7fbe b903 cabb
000000e0: 4d3c 083e cac8 383e 33eb 88bd a555 fb3d
000000f0: 16a9 44bd cc03 efbd ec32 81be 713b a13d
00000100: 458e cdbe 35b7 973c 0df9 213d a2c4 0e3e
00000110: 945b 243e 1b6c 33be 071c 4e3d 2ee9 503d
00000120: 90d6 773e 0741 61be 8ef1 c13d 6daf d6bd
00000130: 68f8 c0be 20b5 843e 7626 b63e dbfc 19bc
00000140: b261 e83d c671 803d e2d3 f6bd e5c6 a93e
00000150: decf adbd d233 aa3d 89c9 4fbd 4b52 ed3c
00000160: 10a0 45be d1fd 8fbd 48f1 c2bd 0b9a ba3d
00000170: d35d fbbd 1a8a 093e d236 613d feb0 c3bd
00000180: 9128 74bd c9af 513e 88d6 18be 5b79 4e3e
00000190: 8af9 ed3d 374e 12be ac6b 4b3e ec70 85bd
000001a0: 5449 7e3e f8cb 8b3e 3e59 033e afd0 493e
000001b0: 9725 78be eba5 a7bd 74e7 4f39 96a2 2fbe
000001c0: 8aba b73d 3423 623d e43e 1fbc db20 583e
000001d0: d037 0cbe a43a a4bd 3a36 293e 2719 9bbe
000001e0: 7b59 20be 4f93 593d 23d7 443e e94e cebe
000001f0: 635d b63e 8217 b33d 236d ad3c 32ae ffbd
00000200: f3ac 04be bf50 8b3d 52d5 01be 006c b6bd
00000210: 030c 49be d458 023e bbf0 58be 40c9 23be
00000220: 8135 2ebe 1289 acbd 44d2 c23d e40b 323e
00000230: 41c0 a4bd fc6e 863e 4229 a43d 8a6d a43d
00000240: 8934 aabe 4f5b 413e 4cb6 663e 7173 ef3b
00000250: 6216 fc3d 3c7c 513e 97f7 a1bd 7c50 c13d
00000260: 0571 a1be dc4e 05be 03b2 3fbe 3d51 84be
00000270: 05a2 163d 1973 313e ab35 67be 83e7 8c3e
00000280: ef4b 1ebc c49e 22bd 5646 8fbe 4e96 76be
00000290: 3f7a 94be 9036 b53d e2f2 c0bd 5946 8d3e
000002a0: ba70 313e d123 9e3d 6bf7 49be 9447 b13d
000002b0: 243e 633e 8950 a63a 6e0b 81be 82a4 1abd
000002c0: 8712 babd a58b 093e 3673 103e 8b66 b03e
000002d0: f487 e1bd 1d9a 29be 0e5e 453e 25b8 363e
000002e0: 96bf 0a3e 8863 583e 3318 2f3e 6442 0ebe
000002f0: 5f11 a8be 68ce 5f3e 5d02 743e 57be 5d3c
00000300: 8ac9 fe3d 6812 d83e b41b 15bc 6a3d 5b3e
00000310: e19e 95be 00a1 913d 511f dd3d 0773 a23e
00000320: cddd 28be 8d65 06be eb3c 813d 42b1 a03d
00000330: fea9 443e 79e0 1c3d 34e8 85bd 96a5 ae3c
00000340: 2897 bdbd 51df 553c 3983 0cbe b47b a9be
00000350: d7b8 7c3d 2494 493e 4aa0 b43d 07ca 723d
00000360: 0e16 533e 4bfe 923e 3df1 d2bd 403f abb8
00000370: f30f 38be 2e7e 103e b765 343d ac7e df3e
00000380: d936 babd 0e90 debb 166d 16bc 66c0 083e
00000390: 4d22 383d ddf1 80be efb9 a1bd c676 923d
000003a0: 5472 b8be 7f55 babe c2c1 c7bc af9c a3bd
000003b0: 0acf a5be 1f82 83bc b94d 843e 386e 8e3e
000003c0: 87fe 99bc d6c5 81be 4127 853d 0dcb 043e
000003d0: 2feb b1bb ab05 f8bc 6f99 88bd 6b9e 44be
000003e0: 307d 8538 e698 25be 70aa 37bd 0e05 213e
000003f0: 24ab bdbe 222e f8bd 3141 81bd 56a7 773e

layer1_1vm.0.bias f4 [64]
-0.047298234 0.017603774 0.15529035 0.028298602 0.05437664 -0.10048562 0.076994136 -0.08050104
-0.045517825 -0.07503527 -0.061379265 -0.09188526 0.08457617 0.04392278 0.07142584 -0.035225365
0.1031219 -0.062688485 -0.065836914 -0.23309262 -0.111772284 0.1981725 -0.07542392 0.14700104
-0.24963067 -0.022339575 0.03317845 -0.14041285 0.14251986 0.094248675 0.08174671 0.014711557
-0.06947625 0.015483386 -0.09694219 -0.05429428 -0.09262566 0.1223301 -0.07278077 0.012449843
0.04756786 0.1641901 -0.11970544 -0.028413074 -0.0664682 -0.009711361 -0.037246022 0.03473049
0.11042346 0.120628625 -0.05504327 -0.09976806 0.021149129 -0.09092094 0.16938555 0.3187475
0.08911845 0.15161152 0.17014594 -0.08762776 -0.100537114 -0.009115698 -0.027751734 -0.14179668
00000000: cbbb 41bd ca35 903c 6f04 1f3e 78d2 e73c
00000010: 0aba 5e3d 68cb cdbd 1aaf 9d3d bbdd a4bd
00000020: e670 3abd 17ac 99bd d368 7bbd 572e bcbd
00000030: 4536 ad3d 5fe8 333d b647 923d 7948 10bd
00000040: 9331 d33d d262 80bd 81d5 86bd d5af 6ebe
00000050: dee8 e4bd bbed 4a3e db77 9abd 7187 163e
00000060: 2f9f 7fbe 7c01 b7bc 20e6 073d 63c8 0fbe
00000070: baf0 113e 7305 c13d d26a a73d be08 713c
00000080: 9049 8ebd 07ae 7d3c a089 c6bd ae63 5ebd
00000090: 86b2 bdbd 3488 fa3d 160e 95bd 6dfa 4b3c
000000a0: 84d6 423d 7321 283e 2028 f5bd 89c2 e8bc
000000b0: 7b20 88bd 661c 1fbc 498f 18bd 8f41 0e3d
000000c0: b225 e23d 240c f73d 0d75 61bd 3253 ccbd
000000d0: f040 ad3c c234 babd 6873 2d3e df32 a33e
000000e0: bc83 b63d 0d40 1b3e bd3a 2e3e 2f76 b3bd
000000f0: 67e6 cdbd 025a 15bc 9b57 e3bc 2633 11be

layer1_1vm.2.weight f4 [64]
0.956406 0.97819906 1.0543097 1.1601392 0.9525811 0.99253356 1.0088422 1.051769
0.8812269 1.0376046 1.1105182 1.0480518 0.97836834 0.99797 0.8733859 1.024475
1.0277989 0.96813345 0.9755185 1.120431 1.0012778 1.1041746 1.109588 1.1584078
0.90621823 0.92918205 0.9148168 0.9942932 0.8727665 0.80587673 0.9021285 0.96005034
1.1033242 1.1981676 1.0226116 0.90448487 1.247994 1.0432445 1.0176252 0.95690674
1.305819 0.9945699 0.8627334 0.93772805 1.1870466 0.8808153 1.0059534 0.89909196
0.8892788 1.1142824 1.0864455 0.96459854 1.1007057 1.0734044 0.7986242 1.0116627
0.95074016 1.1147803 0.9012046 1.0195862 1.1219088 1.0772065 0.7981638 1.0454923
00000000: 06d7 743f 416b 7a3f 9ff3 863f 717f 943f
00000010: 5bdc 733f ae16 7e3f be21 813f 5ea0 863f
00000020: 1698 613f 3ad0 843f 7625 8e3f 9026 863f
00000030: 5976 7a3f f67a 7f3f 3896 5f3f ff21 833f
00000040: ea8e 833f 98d7 773f 95bb 793f 486a 8f3f
00000050: df29 803f 9855 8d3f fb06 8e3f b546 943f
00000060: ebfd 673f e0de 6d3f 6f31 6a3f 008a 7e3f
00000070: a06d 5f3f f04d 4e3f e5f1 663f dcc5 753f
00000080: ba39 8d3f 8e5d 993f f0e4 823f 528c 673f
00000090: 44be 9f3f 0989 853f 8b41 823f d7f7 743f
000000a0: 1425 a73f 229c 7e3f 19dc 5c3f f20e 703f
000000b0: 25f1 973f 1d7d 613f 15c3 803f e42a 663f
000000c0: c7a7 633f cea0 8e3f a510 8b3f eeef 763f
000000d0: ede3 8c3f 5165 893f a372 4c3f 2a7e 813f
000000e0: b563 733f 1fb1 8e3f 58b5 663f cd81 823f
000000f0: b59a 8f3f e7e1 893f 7654 4c3f b1d2 853f

layer1_1vm.2.bias f4 [64]
0.010858899 -0.0059336126 0.024077095 -0.1577074 0.2526549 0.15235578 -0.099183716 -0.08058155
-0.019172808 -0.042734895 0.031451304 -0.08844755 -0.026587214 0.25881213 -0.10256583 0.07451681
-0.024771456 -0.08126089 0.13164994 0.17836463 0.060407966 -0.19105871 -0.21138631 -0.07746573
-0.08629317 0.09139604 -0.12969215 0.07185988 -0.08400856 0.15652476 -0.0008215519 -0.1968029
-0.23176584 -0.006792173 -0.1570825 0.081917666 -0.29896942 -0.0368917 0.097553015 -0.12854733
-0.03854876 -0.10004076 0.0011475385 0.12592062 -0.3112207 -0.00077985885 0.25676674 0.024871297
0.0578704 -0.15873711 0.09460153 -0.097487934 0.11979712 -0.18544462 0.0007344295 0.12486713
0.24783285 -0.082637705 0.019319577 0.030221466 0.019004004 -0.059808962 -0.10011011 0.05817769
00000000: 86e9 313c c06e c2bb 543d c53c 0c7e 21be
00000010: fc5b 813e 2703 1c3e d520 cbbd f107 a5bd
00000020: 4b10 9dbc c90a 2fbd 15d3 003d fd23 b5bd
00000030: 6ecd d9bc 0683 843e 090e d2bd 459c 983d
00000040: 82ed cabc 1c6c a6bd 3ecf 063e 38a5 363e
00000050: 586e 773d e5a4 43be a775 58be 5aa6 9ebd
00000060: 79ba b0bd d92d bb3d 05ce 04be 462b 933d
00000070: ae0c acbd 0748 203e 6a5d 57ba b386 49be
00000080: 0654 6dbe e090 debb 3cda 20be 73c4 a73d
00000090: 8512 99be c01b 17bd e0c9 c73d e9a1 03be
000000a0: 4ee5 1dbd 2ce2 ccbd 0169 963a 56f1 003e
000000b0: 5258 9fbe 716f 4cba ee76 833e e4be cb3c
000000c0: 8309 6d3d fb8b 22be 72be c13d c1a7 c7bd
000000d0: 3158 f53d 32e5 3dbe bb86 403a 56ba ff3d
000000e0: e5c7 7d3e f53d a9bd 1744 9e3c 0293 f73c
000000f0: 49ae 9b3c 3efa 74bd 8806 cdbd bb4b 6e3d

layer1_1vm.2.running_mean f4 [64]
-91681.68 -379107.56 19248.031 112595.82 145105.14 -182551.5 -292657.0 -423513.28
223161.02 -55251.062 143120.98 93738.58 -418904.7 174598.67 -76036.945 -109239.984
-143015.14 -139214.73 -353619.72 116283.164 220830.22 42883.453 -220313.62 45951.91
-16384.525 -98742.445 150207.45 -64711.01 -100405.28 190022.27 -125009.77 -116991.984
143624.98 -334511.25 -86291.95 -3568.8953 52678.49 -190779.05 93767.664 270477.6
-170938.56 68898.55 -99105.8 29831.846 84742.96 191469.53 179976.1 -223169.73
342686.3 -8552.377 -89611.836 -325630.4 -144745.56 177220.2 -15652.085 204665.44
295302.2 379366.03 241909.86 -556618.4 -122389.92 198398.0 100436.74 335576.84
00000000: d710 b3c7 721c b9c8 1060 9646 e9e9 db47
00000010: 49b4 0d48 e045 32c8 20e6 8ec8 29cb cec8
00000020: 41ee 5948 10d3 57c7 3fc4 0b48 4a15 b747
00000030: 168b ccc8 ab81 2a48 7982 94c7 fe5b d5c7
00000040: c9a9 0bc8 aff3 07c8 77aa acc8 951d e347
00000050: 8ea7 5748 7483 2747 6826 57c8 e97f 3347
00000060: 0d01 80c6 39db c0c7 ddaf 1248 03c7 7cc7
00000070: a41a c4c7 9191 3948 e328 f4c7 fe7f e4c7
00000080: 3f42 0c48 e855 a3c8 fa89 a8c7 530e 5fc5
00000090: 7dc6 4d47 c34e 3ac8 d523 b747 b311 8448
000000a0: a4ee 26c8 4691 8647 e690 c1c7 b10f e946
000000b0: 7b83 a547 62fb 3a48 06c2 2f48 6ff0 59c8
000000c0: ca53 a748 82a1 05c6 eb05 afc7 cdff 9ec8
000000d0: 645a 0dc8 0d11 2d48 5790 74c6 5cde 4748
000000e0: c630 9048 c13c b948 773d 6c48 a6e4 07c9
000000f0: f60a efc7 80bf 4148 5f2a c447 1bdb a348

layer1_1vm.2.running_var f4 [64]
2.1287287e+09 3.768421e+10 8.9376456e+07 3.2018004e+09 5.049572e+09 8.89207e+09 2.1337969e+10 4.687592e+10
1.2850358e+10 7.804828e+08 4.974129e+09 2.4216384e+09 4.47153e+10 8.1755894e+09 1.4964393e+09 3.2802166e+09
5.458297e+09 4.8019077e+09 3.09478e+10 3.494916e+09 1.1463331e+10 4.5251965e+08 1.1864629e+10 5.311226e+08
6.7710296e+07 2.5493102e+09 5.5261076e+09 1.1233164e+09 2.7346012e+09 9.442032e+09 3.7863365e+09 3.6177032e+09
5.1732884e+09 2.7025607e+10 1.8964444e+09 1.2864162e+08 7.549081e+08 8.715549e+09 2.228549e+09 1.9576607e+10
7.464733e+09 1.263709e+09 2.3335685e+09 2.1557003e+08 1.9504972e+09 1.0301821e+10 7.7664845e+09 1.3144776e+10
2.8966818e+10 4.2734196e+07 2.0741234e+09 2.5420976e+10 5.449697e+09 7.5375217e+09 6.1597244e+07 1.0810821e+10
2.2456787e+10 3.6436718e+10 1.6342649e+10 7.3667215e+10 4.151509e+09 9.919191e+09 2.553081e+09 3.0395054e+10
00000000: a5c3 fd4e 7762 0c51 d978 aa4c 99d7 3e4f
00000010: 2d7d 964f 8e80 0450 f2fa 9e50 5ca0 2e51
00000020: 3a7c 3f50 e414 3a4e 983d 944f 4557 104f
00000030: d593 2651 cca6 f34f b463 b24e 2284 434f
00000040: 80ab a24f a61b 8f4f 3e94 e650 3050 504f
00000050: 23d1 2a50 37c7 d74d f8cb 3050 4d42 fd4d
00000060: ab25 814c 63f3 174f dbb0 a44f e5e8 854e
00000070: b4fe 224f 7eb2 0c50 e9ae 614f c5a1 574f
00000080: 0f2d 9a4f 415b c950 e412 e24e 4a5d f54c
00000090: effb 334e 2edf 0150 f6d4 044f 6adb 9150
000000a0: 6577 de4f 57a5 964e 6e17 0b4f 6795 4d4d
000000b0: 7384 e84e 5482 1950 9375 e74f 57df 4350
000000c0: d2d1 d750 9d04 234c 3941 f74e aa66 bd50
000000d0: e369 a24f baa2 e04f 8ff9 6a4c 0218 2150
000000e0: ec50 a750 c3bc 0751 4286 7350 4437 8951
000000f0: 0073 774f b6ce 1350 ed2c 184f f775 e250

layer1_2vm.0.weight f4 [32, 64]
0.21478245 0.024870088 0.090973035 0.019150617 0.05704664 -0.1925267 0.33646628 0.029993277
0.0037854463 -0.07208544 0.24162298 -0.08402384 -0.0037475298 -0.19660054 0.35036242 -0.11598898
-0.11894181 -0.07295439 0.2254356 0.09965789 -0.32058984 -0.2206659 -0.06626166 0.13649113
0.03371124 -0.115084216 -0.09746137 0.018758163 0.122412935 -0.10437504 0.023170687 -0.01261377
-0.43356484 0.29726368 0.24420628 -0.25461677 -0.18561783 0.17680779 -0.29490623 -0.060860515
0.19508225 0.20754091 0.07781375 0.22350512 -0.24945748 -0.122343905 -0.07538573 -0.11470637
-0.10314174 0.21430066 -0.051302087 -0.29314318 0.07355622 -0.0040757526 0.13098222 -0.087661125
-0.2894663 0.29067308 -0.16839458 -0.3534163 0.076028176 -0.140947 -0.16047417 -0.24851197
-0.22114126 0.15560448 0.18479025 -0.2297597 0.36138377 -0.0807746 -0.33203164 -0.18492965
0.19908829 -0.3183171 0.13683341 -0.14860462 0.001895549 -0.21833341 -0.24493831 -0.060037993
-0.16816862 0.16748331 0.45039272 0.22474635 -0.16260786 -0.050415106 -0.21226333 -0.060114574
0.13493285 -0.07635558 0.029493213 -0.20140114 -0.065027915 0.24180263 -0.19252235 0.11901388
0.475998 -0.30542946 -0.34996527 -0.15153876 0.19878986 -0.4286107 -0.014729362 0.1363736
-0.11366563 0.0030631046 -0.26559782 -0.18361849 -0.11481447 -0.20374921 -0.033349577 -0.08075412
-0.40103218 -0.31817594 0.08816669 0.12109952 -0.10940489 -0.12899041 -0.0418717 0.19666792
0.021527994 -0.31746393 -0.14009182 0.21435499 -0.045096025 -0.05996152 -0.069480814 0.14996158
-0.18027334 0.009094342 -0.029626701 0.13151187 -0.045589935 0.10594438 -0.25804356 -0.27005297
0.20633842 -0.34755796 0.15353078 0.113580346 -0.2504018 0.13232477 -0.08132921 0.25821176
0.08589551 0.01682875 -0.111151434 -0.047346037 -0.17176501 0.22077318 -0.23739284 0.20000015
-0.39883402 0.35459235 -0.27367055 0.17213921 -0.118546285 0.03820401 -0.064184904 -0.028945653
-0.1034327 0.32752752 -0.004033034 -0.08810796 0.12702742 0.07741111 0.10049835 0.036110558
-0.15571584 -0.43085814 -0.09433908 -0.08424141 0.01172844 0.12506191 0.11532196 -0.18024218
0.14320308 -0.25313592 -0.2912682 0.09011227 -0.3729186 0.019360617 -0.0802622 -0.3363101
0.2791139 0.08849064 0.21614794 0.05094278 0.112219326 0.18571514 -0.1901707 -0.09588439
0.043095924 -0.1304779 -0.032772865 0.009314527 -0.13388656 -0.018419 0.10959988 -0.08645149
-0.033879686 -0.05777148 -0.046910077 -0.20993249 0.32360762 0.013621872 -0.16199158 -0.21971264
-0.067508854 0.05032875 0.1344511 -0.2174907 0.32455972 0.0801736 0.016857835 0.01661224
-0.105737716 -0.54669875 0.029880578 -0.13141479 -0.09379106 -0.10195004 -0.023778155 -0.23543553
0.0072037117 0.038049392 -0.07662185 0.012723921 0.21209253 0.10671796 0.097081095 -0.15936133
0.24850193 0.07438541 0.026141467 -0.22889768 0.054651346 0.09788831 0.102039956 -0.09592386
-0.24146298 -0.23425038 0.082477234 -0.12360515 -0.21028632 0.1811713 0.2778982 0.034550887
0.22856015 0.0041144905 0.12340057 -0.33916578 0.011347364 -0.35573652 -0.16108951 0.005867077
00000000: eeef 5b3e 5bbc cb3c 1250 ba3d c1e1 9c3c
00000010: bda9 693d b825 45be 4f45 ac3e 76b4 f53c
00000020: 4015 783b 88a1 93bd 046c 773e b114 acbd
00000030: 1e99 75bb a751 49be b462 b33e a18b edbd
00000040: c497 f3bd 1c69 95bd 97d8 663e 7019 cc3d
00000050: 5a24 a4be 3ef6 61be 31b4 87bd 55c4 0b3e
00000060: cc14 0a3d 46b1 ebbd d499 c7bd b8aa 993c
00000070: a2b3 fa3d 95c2 d5bd 74d0 bd3c fca9 4ebc
00000080: 36fc ddbe f232 983e 3611 7a3e 215d 82be
00000090: 9a12 3ebe 1a0d 353e f3fd 96be e048 79bd
000000a0: a4c3 473e 9b85 543e d15c 9f3d 87de 643e
000000b0: c871 7fbe 718f fabd d563 9abd 2ceb eabd
000000c0: fa3b d3bd a271 5b3e 2322 52bd dd16 96be
000000d0: a5a4 963d e48d 85bb 3420 063e ad87 b3bd
000000e0: ed34 94be 1ad3 943e a16f 2cbe fbf2 b4be
000000f0: a9b4 9b3d 6954 10be 5753 24be ec79 7ebe
00000100: db72 62be c856 1f3e a839 3d3e 2046 6bbe
00000110: 4b07 b93e 276d a5bd 0d00 aabe 335e 3dbe
00000120: cddd 4b3e 75fa a2be 0f1e 0c3e cf2b 18be
00000130: 1274 f83a cb92 5fbe 1cd1 7abe 66ea 75bd
00000140: 6534 2cbe bf80 2b3e e099 e63e e823 663e
00000150: ad82 26be 1280 4ebd 8f5b 59be b33a 76bd
00000160: d62b 0a3e 5060 9cbd c09b f13c 1a3c 4ebe
00000170: 5b2d 85bd 1c9b 773e 9424 45be 8dbd f33d
00000180: 03b6 f33e 4061 9cbe a62e b3be fa2c 1bbe
00000190: 928f 4b3e dd72 dbbe 6c53 71bc 85a5 0b3e
000001a0: 87c9 e8bd 5ebe 483b 70fc 87be 7c06 3cbe
000001b0: d923 ebbd a2a3 50be 9199 08bd 6b62 a5bd
000001c0: 1754 cdbe f5e7 a2be bd90 b43d 0603 f83d
000001d0: ac0f e0bd 1016 04be a981 2bbd 5163 493e
000001e0: 7a5b b03c a28a a2be 3b74 0fbe e07f 5b3e
000001f0: 9cb6 38bd 369a 75bd f54b 8ebd 878f 193e
00000200: 9399 38be 6f00 153c b2b3 f2bc 0cab 063e
00000210: 83bc 3abd 5ef9 d83d 491e 84be 6244 8abe
00000220: 614a 533e 1ef3 b1be 2c37 1d3e d09c e83d
00000230: aa34 80be 2580 073e ee8f a6bd 5534 843e
00000240: fce9 af3d 72dc 893c 5da3 e3bd ebed 41bd
00000250: 2be3 2fbe 5d12 623e 1c17 73be d7cc 4c3e
00000260: f933 ccbe 218d b53e 8c1e 8cbe 4345 303e
00000270: 65c8 f2bd cf7b 1c3d 6073 83bd 6f1f edbc
00000280: 86d4 d3bd b0b1 a73e 8b27 84bb f271 b4bd
00000290: 7a13 023e b789 9e3d 14d2 cd3d aae8 133d
000002a0: f973 1fbe 7099 dcbe d934 c1bd c386 acbd
000002b0: a528 403c 3b10 003e eb2d ec3d 6891 38be
000002c0: d4a3 123e 089b 81be 1b21 95be c88c b83d
000002d0: 30ef bebe 289a 9e3c 8260 a4bd d630 acbe
000002e0: 04e8 8e3e 953a b53d e355 5d3e 60a9 503d
000002f0: 3fd3 e53d 1c2c 3e3e 1cbc 42be 095f c4bd
00000300: 5a85 303d 009c 05be d73c 06bd f59b 183c
00000310: 8f19 09be 71e3 96bc e775 e03d 7b0d b1bd
00000320: 6dc5 0abd caa1 6cbd c824 40bd 8bf8 56be
00000330: e6af a53e 462e 5f3c 1fe1 25be 5afc 60be
00000340: 1542 8abd 8525 4e3d 8dad 093e e2b5 5ebe
00000350: b12c a63e 0e32 a43d 7119 8a3c 6416 883c
00000360: 048d d8bd 73f4 0bbf 1dc8 f43c 9991 06be
00000370: 8715 c0bd 2fcb d0bd 68ca c2bc 0316 71be
00000380: 1d0d ec3b aed9 1b3d ebeb 9cbd fe77 503c
00000390: c92e 593e f28e da3d 74d2 c63d 9e2f 23be
000003a0: 4a77 7e3e 6157 983d a126 d63c 2764 6abe
000003b0: 17da 5f3d ab79 c83d 53fa d03d bb73 c4bd
000003c0: 1242 77be 55df 6fbe d3e9 a83d b224 fdbd
000003d0: 4c55 57be f884 393e ac48 8e3e 3b85 0d3d
000003e0: ac0b 6a3e d9d2 863b 70b9 fc3d 23a7 adbe
000003f0: 4bea 393c 1923 b6be a6f4 24be 9c40 c03b

layer1_2vm.0.bias f4 [32]
-0.17495123 -0.14596537 -0.13925749 -0.14601427 0.105091035 -0.18249059 0.08054945 -0.033807017
-0.16264386 -0.18165627 0.09363192 0.08699449 0.08728211 0.046661515 -0.09789547 -0.12812163
0.22630125 0.052492835 -0.09041629 -0.094690435 0.28910094 0.020106731 0.0795523 -0.040528793
0.07440229 0.13483076 0.16623893 0.091950625 -0.16994517 0.17786936 0.05361252 0.11506489
00000000: 6a26 33be f277 15be 8499 0ebe c484 15be
00000010: f839 d73d d0de 3abe 1cf7 a43d 3a79 0abd
00000020: 1d8c 26be 1a04 3abe 18c2 bf3d 2b2a b23d
00000030: f6c0 b23d 2520 3f3d 6c7d c8bd 5132 03be
00000040: 84bb 673e ba02 573d 2d2c b9bd 0fed c1bd
00000050: 0a05 943e dfb6 a43c 51ec a23d 8501 26bd
00000060: 3a60 983d 1311 0a3e 8a3a 2a3e 9c50 bc3d
00000070: 1b06 2ebe 6323 363e cd98 5b3d 24a7 eb3d

layer1_2vm.2.weight f4 [32]
1.0649705 1.1266974 1.1016366 1.0866857 0.811063 1.1075237 1.0730667 1.2353952
1.149637 1.060343 1.074195 1.0284764 1.0797983 0.7906092 1.001791 0.96090585
0.77566046 0.7749938 1.1174737 1.092133 1.0391134 1.0975274 0.9967762 0.9407571
1.1067176 0.9169825 1.0051669 0.8733389 1.0693355 0.952683 1.1535214 0.93741775
00000000: f450 883f 9f37 903f 6e02 8d3f 8418 8b3f
00000010: d3a1 4f3f 56c3 8d3f 405a 893f 6e21 9e3f
00000020: 4e27 933f 52b9 873f 397f 893f 1da5 833f
00000030: d536 8a3f 5d65 4a3f b03a 803f edfd 753f
00000040: af91 463f fe65 463f 6109 8f3f 04cb 8b3f
00000050: ab01 853f c77b 8c3f ba2c 7f3f 75d5 703f
00000060: eca8 8d3f 5dbf 6a3f 4fa9 803f 2393 5f3f
00000070: fcdf 883f 08e3 733f 97a6 933f 9cfa 6f3f

layer1_2vm.2.bias f4 [32]
-0.04418892 -0.02812534 -0.12308771 0.013820971 0.086080864 -0.115857854 -0.06434042 0.06289799
-0.07988098 0.066388994 -0.017775496 0.0646338 0.010224005 -0.15503904 -0.028877983 0.08729246
-0.15062504 0.17198172 0.29033548 0.08586917 0.12980627 0.05752065 -0.14054957 0.049773846
-0.25034887 0.010733526 -0.11452434 0.09553767 -0.28025243 0.22118135 -0.023119485 0.042520963
00000000: 71ff 34bd 1d67 e6bc 6915 fcbd 5b71 623c
00000010: 2a4b b03d e246 edbd e9c4 83bd a9d0 803d
00000020: a498 a3bd f4f6 873d eb9d 91bc ba5e 843d
00000030: 9682 273c 8ec2 1ebe 8591 ecbc 64c6 b23d
00000040: 733d 1abe fa1b 303e daa6 943e 2ddc af3d
00000050: efeb 043e c69a 6b3d 3aec 0fbe a9df 4b3d
00000060: ba2d 80be acdb 2f3c bd8b eabd 41a9 c33d
00000070: 3f7d 8fbe 5d7d 623e 1365 bdbc 762a 2e3d

layer1_2vm.2.running_mean f4 [32]
-0.59721124 -1.3212746 -0.5347746 -0.77945083 -0.27687854 -0.13572961 0.004163331 0.2768744
0.16291985 -0.6432194 0.1776265 0.9049522 0.8570242 -0.17204738 -0.82898533 -0.2933021
-0.24149473 0.12184238 -0.38865 -0.098042466 -0.6853169 1.0517516 -0.8163076 -0.0033968228
0.16992766 0.7613585 0.82344764 0.9514196 0.38231802 0.9095184 1.4114176 -0.51897156
00000000: d6e2 18bf 871f a9bf fde6 08bf 178a 47bf
00000010: 06c3 8dbe b4fc 0abe 8d6c 883b 7bc2 8d3e
00000020: 76d4 263e 07aa 24bf b9e3 353e f3aa 673f
00000030: f065 5b3f 302d 30be 6238 54bf b12b 96be
00000040: 654a 77be 7f88 f93d 22fd c6be 7dca c8bd
00000050: ee70 2fbf cc9f 863f 89f9 50bf 3b9d 5ebb
00000060: 8401 2e3e 64e8 423f 77cd 523f 3c90 733f
00000070: 30bf c33e 33d6 683f 55a9 b43f 52db 04bf

layer1_2vm.2.running_var f4 [32]
0.9504642 1.6260847 1.283217 1.0221795 0.671119 1.0821272 1.1483886 0.7614436
1.0984305 0.7208323 0.6838709 1.3399465 1.1114701 0.80599016 0.95235956 1.3009082
0.7098467 1.112186 0.8993608 0.9780371 1.1500235 1.281868 1.1285497 0.75590473
1.1992656 0.70996237 0.8900891 1.0163339 1.0607808 1.1199218 1.1656829 0.79376006
00000000: 9f51 733f 8b23 d03f 7440 a43f c7d6 823f
00000010: 74ce 2b3f 2583 8a3f 66fe 923f f8ed 423f
00000020: 5f99 8c3f 7788 383f 2a12 2f3f 5e83 ab3f
00000030: a744 8e3f 5f55 4e3f d6cd 733f 2984 a63f
00000040: 83b8 353f 1c5c 8e3f 823c 663f a460 7a3f
00000050: f833 933f 4014 a43f 5174 903f f982 413f
00000060: 8981 993f 18c0 353f e1dc 633f 3b17 823f
00000070: aac7 873f 9959 8f3f 1935 953f dc33 4b3f

layer2.0.weight f4 [32, 64]
-0.12981705 -0.09174042 0.059288125 0.192865 0.10222377 0.15225442 0.5584407 -0.046017807
0.11369613 -0.09954436 0.13216105 0.054877963 -0.085954964 -0.060373582 0.06157693 -0.04008647
0.4005023 -0.006565496 -0.1168602 0.057775848 0.111518204 0.2608861 -0.08733842 0.019300252
0.19016603 -0.061789032 -0.16393517 0.2274671 -0.3380054 0.07980889 0.03176919 0.04749526
-0.06893249 0.30957198 -0.03287747 0.2078829 0.07029832 0.1580933 -0.035447523 0.042328026
0.156932 -0.2041992 0.04864652 0.20200624 0.066889346 -0.14055948 0.26834357 -0.04751608
-0.10859705 0.009245515 -0.11368816 -0.14783883 0.077662915 0.04532364 0.5106874 -0.04926901
0.07869665 -0.10348641 -0.11240457 0.030316925 -0.15202658 0.013421455 0.31157094 -0.3271527
0.15011768 -0.034560163 -0.04450279 -0.13325076 0.39410776 -0.10028812 -0.007339094 0.024577849
-0.42055517 0.0064639775 -0.024813576 -0.007846134 -0.18587573 -0.21119861 0.35186607 0.08301201
0.20901598 -0.03656774 0.13025685 0.049167957 -0.53376716 0.0049222447 -0.18062788 0.2101244
-0.021358227 -0.11668725 -0.116341 0.04546838 -0.03121409 -0.0826727 0.3552944 0.07609795
-0.23939545 0.002518911 -0.04323735 -0.07273634 -0.2771 0.09222679 -0.17233865 0.083471134
0.041324385 0.21362354 0.001467228 -0.24912287 -0.035438634 0.13139938 0.017332312 -0.28522193
0.05375715 -0.034710824 0.13044983 0.22988088 -0.06897346 0.10765356 -0.072048746 -0.08422121
-0.086674795 0.02349977 -0.16849068 -0.11602972 -0.17352444 0.010085195 -0.2344885 0.17923792
0.042104423 -0.34294567 0.0075838873 0.19000737 0.20820202 -0.12014525 -0.14096205 0.122885495
-0.023947164 0.030837838 0.07996984 -0.16259596 0.24230602 0.12787762 0.047677714 -0.11921047
-0.20520037 0.2129786 0.047388032 0.11665176 0.27684826 0.07399154 0.008993867 0.27921906
0.1391291 -0.17167671 -0.18755616 0.009999443 0.0180488 0.23046957 -0.038758874 -0.16001676
0.17801355 -0.034431268 0.43399146 -0.14904304 -0.1347542 0.07140076 -0.022963248 0.009528964
-0.09186905 0.07237044 -0.15726958 -0.11860113 0.19169833 0.23322488 -0.10390586 0.07341641
-0.08191762 0.214047 -0.1370939 -0.24711218 0.17460828 0.019497864 -0.036446 -0.16242331
-0.2084328 -0.074828066 0.07974224 -0.036506396 -0.1418098 0.2071187 -0.01916122 0.17585278
-0.21995154 -0.32917574 0.2285065 -0.049576055 0.27916136 0.1439724 -0.10062613 -0.24256617
0.1771579 0.37319976 -0.09781195 -0.031841043 -0.14128578 -0.10568453 0.07720562 -0.050665833
0.13930899 0.103204355 0.22381482 0.3848631 -0.32847923 0.30410242 0.0953642 0.06574721
-0.26879373 0.04442494 0.13049212 -0.15879506 -0.23995371 0.13753907 0.084713764 -0.107313566
-0.045521084 0.2966651 -0.10118762 0.016201101 -0.41870022 0.116831616 -0.26971194 -0.090422176
0.18543927 0.103006914 0.06751044 0.110755935 -0.07397691 0.42636964 0.20824502 -0.1880924
0.026065748 -0.17961715 0.15830417 0.060223546 0.13725692 0.07644131 0.046711657 0.013217344
0.113235444 0.040511366 0.025497826 0.23137785 0.10873803 0.12662448 0.34321666 -0.0038871255
00000000: c3ee 04be 67e2 bbbd 1bd8 723d 677e 453e
00000010: b25a d13d 95e8 1b3e f8f5 0e3f 2b7d 3cbd
00000020: 84d9 e83d eadd cbbd 3a55 073e b7c7 603d
00000030: 2809 b0bd 4a4a 77bd 1738 7c3d b631 24bd
00000040: a30e cd3e 5f23 d7bb 6754 efbd 5ea6 6c3d
00000050: a863 e43d dd92 853e 7cde b2bd 901b 9e3c
00000060: e2ba 423e 7f16 7dbd 9fde 27be 23ed 683e
00000070: 0b0f adbe d872 a33d 6920 023d 648a 423d
00000080: 7a2c 8dbd 3880 9e3e 87aa 06bd 41df 543e
00000090: 91f8 8f3d 36e3 213e 6c31 11bd 2760 2d3d
000000a0: c8b2 203e 9819 51be 9341 473d b9da 4e3e
000000b0: 48fd 883d d3ee 0fbe 5464 893e 39a0 42bd
000000c0: 2168 debd 807a 173c 57d5 e8bd 1063 17be
000000d0: bc0d 9f3d 48a5 393d 69bc 023f 4dce 49bd
000000e0: b62b a13d aff0 d3bd 5e34 e6bd 335b f83c
000000f0: dbac 1bbe aae5 5b3c 3a86 9f3e 8f80 a7be
00000100: 73b8 193e f58e 0dbd 8f48 36bd e372 08be
00000110: 7ec8 c93e dc63 cdbd c87c f0bb 7c57 c93c
00000120: 0253 d7be c6cf d33b d745 cbbc 128d 00bc
00000130: 3556 3ebe 7344 58be ca27 b43e 3302 aa3d
00000140: 4908 563e 0ec8 15bd 0d62 053e 5764 493d
00000150: f7a4 08bf c84a a13b 84f6 38be da2a 573e
00000160: 73f7 aebc baf9 eebd 3144 eebd 0d3d 3a3d
00000170: b1b4 ffbc 4e50 a9bd 26e9 b53e 3ed9 9b3d
00000180: 1524 75be 5014 253b a619 31bd caf6 94bd
00000190: 0de0 8dbe 66e1 bc3d 8b79 30be eaf2 aa3d
000001a0: c243 293d 21c0 5a3e 0150 c03a 111a 7fbe
000001b0: 1a28 11bd 8f8d 063e 7efc 8d3c 9c08 92be
000001c0: 7530 5c3d f02c 0ebd a494 053e e565 6b3e
000001d0: f541 8dbd 7879 dc3d 4b8e 93bd 2b7c acbd
000001e0: 8e82 b1bd 9782 c03c d288 2cbe fda0 edbd
000001f0: 64b0 31be 603c 253c c11d 70be 258a 373e
00000200: b075 2c3d 9396 afbe 4282 f83b 4b91 423e
00000210: e932 553e b60e f6bd 5b58 10be 64ab fb3d
00000220: d82c c4bc a29f fc3c 3ac7 a33d 8e7f 26be
00000230: 121f 783e 5af2 023e b549 433d 9e24 f4bd
00000240: 0c20 52be 1017 5a3e f419 423d 1ee7 ee3d
00000250: 0ebf 8d3e e088 973d 035b 133c cdf5 8e3e
00000260: dc77 0e3e 05cc 2fbe b90e 40be b4d4 233c
00000270: 14db 933c 3700 6c3e a0c1 1ebd 6fdb 23be
00000280: 2f49 363e cd07 0dbd 2134 de3e bd9e 18be
00000290: 01fd 09be 903a 923d 6c1d bcbc 5f1f 1c3c
000002a0: d725 bcbd f436 943d 470b 21be 26e5 f2bd
000002b0: 914c 443e 81d2 6e3e 98cc d4bd 585b 963d
000002c0: 6dc4 a7bd 232f 5b3e 5862 0cbe fa0a 7dbe
000002d0: 83cc 323e fcb9 9f3c 6748 15bd 4c52 26be
000002e0: 686f 55be 753f 99bd e64f a33d bb87 15bd
000002f0: 9736 11be ed16 543e fef7 9cbc c012 343e
00000300: fa3a 61be b989 a8be 9cfd 693e 4310 4bbd
00000310: 3dee 8e3e 806d 133e 1315 cebd 4463 78be
00000320: e168 353e 0a14 bf3e a251 c8bd c16b 02bd
00000330: 38ad 10be 2271 d8bd fb1d 9e3d fa86 4fbd
00000340: 04a7 0e3e ce5c d33d b62f 653e c70c c53e
00000350: 6e2e a8be 50b3 9b3e 4e4e c33d 79a6 863d
00000360: 559f 89be edf6 353d ba9f 053e 2c9b 22be
00000370: 6db6 75be 0bd7 0c3e 697e ad3d 37c7 dbbd
00000380: 5174 3abd 7de4 973e 743b cfbd 2cb8 843c
00000390: e05f d6be 6a45 ef3d af17 8abe 432f b9bd
000003a0: cbe3 3d3e 4af5 d23d ea42 8a3d 02d4 e23d
000003b0: 3581 97bd 1f4d da3e 2f3e 553e 4b9b 40be
000003c0: d687 d53c 8fed 37be 7d1a 223e f7ac 763d
000003d0: 148d 0c3e 438d 9c3d b954 3f3d 8f8d 583c
000003e0: fce7 e73d 3fef 253d d1e0 d03c 51ee 6c3e
000003f0: 0bb2 de3d d9a9 013e 18ba af3e 25bf 7ebb

layer2.0.bias f4 [32]
0.09950839 -0.08840281 -0.02509686 0.015013039 -0.08384831 0.053248513 0.049704533 0.0108064115
-0.003814081 -0.054230694 -1.5579513e-05 -0.039557744 -0.013418593 -0.04180144 0.0654861 -0.08787954
-0.099646896 -0.082323566 0.17567281 0.06810001 -0.05892177 0.038906686 -0.029574921 -0.0035084942
-0.012847997 0.028973784 0.03184509 0.08234252 -0.13308875 0.009083539 0.07464854 0.19380426
00000000: 0ecb cb3d 880c b5bd ee97 cdbc 40f9 753c
00000010: aab8 abbd 1d1b 5a3d fb96 4b3d 600d 313c
00000020: a9f5 79bb 0121 5ebd c0b0 82b7 4d07 22bd
00000030: a9d9 5bbc fd37 2bbd 941d 863d 30fa b3bd
00000040: ac13 ccbd 4299 a8bd 93e3 333e 0578 8b3d
00000050: f457 71bd 9e5c 1f3d 1b47 f2bc c4ee 65bb
00000060: 6880 52bc 6e5a ed3c ff6f 023d 32a3 a83d
00000070: 6b48 08be 20d3 143c 55e1 983d a074 463e

layer2.2.weight f4 [32]
1.3115572 1.3261447 1.0866724 0.9800107 0.9852263 0.9002127 0.9165511 0.7760139
1.1273856 0.8834541 0.94980675 0.80515885 0.91742486 0.97435117 0.9396954 0.962648
0.8480152 0.949848 0.97756845 0.99924564 0.9284828 0.9031502 1.1187351 0.9488932
1.1041131 0.96106136 0.89600134 1.2183032 0.75444114 1.0697441 0.98025846 0.89068705
00000000: 1be1 a73f 1cbf a93f 1518 8b3f fbe1 7a3f
00000010: ca37 7c3f 5774 663f 18a3 6a3f d9a8 463f
00000020: 2c4e 903f 0c2a 623f 8926 733f e41e 4e3f
00000030: 5bdc 6a3f 146f 793f e18f 703f 1970 763f
00000040: 8617 593f 3d29 733f ed41 7a3f 90ce 7f3f
00000050: 0cb1 6d3f da34 673f b632 8f3f aaea 723f
00000060: 9453 8d3f 1e08 763f 5860 653f 5cf1 9b3f
00000070: 0e23 413f 60ed 883f 38f2 7a3f 1104 643f

layer2.2.bias f4 [32]
0.07525176 -0.12988871 -0.08256844 0.4118914 0.1883136 0.0358191 -0.04874258 0.001776897
0.021339543 -0.097280174 0.08236259 -0.12680686 -0.09298721 0.22639212 -0.10559079 0.09254689
-0.3598075 0.18890855 -0.08895708 0.0685439 -0.16881612 -0.04024111 0.094885334 0.05338374
-0.23843814 -0.042013552 0.058111787 0.16102588 -0.108007595 0.033010256 0.49936527 0.08583493
00000000: 981d 9a3d 8c01 05be a419 a9bd 6ee3 d23e
00000010: 48d5 403e 0cb7 123d 4da6 47bd c5e6 e83a
00000020: 44d0 ae3c d43a c7bd b8ad a83d a8d9 01be
00000030: 1470 bebd 56d3 673e fc3f d8bd 3989 bd3d
00000040: b038 b8be 3e71 413e 212f b6bd bf60 8c3d
00000050: 22de 2cbe ddd3 24bd 3e53 c23d e9a8 5a3d
00000060: 2129 74be 6716 2cbd a006 6e3d f8e3 243e
00000070: 1633 ddbd c335 073d ceac ff3e 39ca af3d

layer2.2.running_mean f4 [32]
1.3081931 -0.48192257 0.36564186 0.99095136 -0.8112736 0.39922252 0.040037263 -0.36594635
1.352993 0.5080896 0.815782 -0.586608 0.61877936 -0.56890696 0.111676216 -0.06570658
0.28369197 0.3820652 0.7842292 1.1127386 -1.837817 -0.4241403 -0.3507639 -0.037770707
-0.71124357 -0.658181 -0.29060775 -0.7532993 -0.008217486 -0.05695777 -1.3431671 -0.24263766
00000000: df72 a73f 8ebe f6be 6935 bb3e fdae 7d3f
00000010: a0af 4fbf e566 cc3e 1dfe 233d 525d bbbe
00000020: e02e ad3f 2912 023f 17d7 503f f12b 16bf
00000030: 5368 1e3f e3a3 11bf 80b6 e43d 2c91 86bd
00000040: 1340 913e 0d9e c33e 3fc3 483f 386e 8e3f
00000050: 963d ebbf eb28 d9be 5397 b3be 75b5 1abd
00000060: 0f14 36bf 8d7e 28bf 8aca 94be 39d8 40bf
00000070: a2a2 06bc 8d4c 69bd e6ec abbf 0276 78be

layer2.2.running_var f4 [32]
1.2642312 0.5804371 0.51741695 2.7606816 0.7333303 0.9084474 0.48283058 0.49778494
1.6711222 0.92671233 0.9534427 0.6212264 1.4658685 0.7611656 0.63400364 0.6285693
0.6566995 0.6522024 1.1271458 1.840351 2.3755307 0.9625938 0.43897825 0.8430112
1.0715618 0.7638271 0.8903388 1.2563611 1.2538471 0.70581186 1.4311787 1.3316015
00000000: 54d2 a13f 8797 143f 7075 043f 02af 3040
00000010: 89bb 3b3f 0290 683f 9235 f73e abdd fe3e
00000020: 55e7 d53f 053d 6d3f d214 743f b108 1f3f
00000030: 94a1 bb3f c0db 423f 104e 223f ebe9 203f
00000040: 751d 283f bdf6 263f 5046 903f 9f90 eb3f
00000050: b208 1840 8c6c 763f c2c1 e03e 95cf 573f
00000060: f028 893f 2c8a 433f 3eed 633f 71d0 a03f
00000070: 107e a03f 16b0 343f dd30 b73f eb71 aa3f

fc_advantage.0.weight f4 [20, 32]
-0.08904365 -0.2974999 0.6576676 -0.18362644 -0.35361075 -0.15017565 0.1319976 0.023797983
0.2153471 0.03045216 0.016120894 0.00082400884 -0.042297084 -0.04383061 0.2754385 0.23063023
-0.013714387 0.23921822 0.11149612 -0.1031309 -0.058892965 -0.0020056714 -0.3856866 -0.10554952
0.14588971 -0.14187591 -0.0440907 0.097167104 -0.2841719 0.054431837 -0.14877802 -0.38137272
-0.0711852 -0.22989242 -0.6442076 -0.4310432 0.07987451 -0.33833265 -0.3665183 -0.31755653
0.010526005 0.21967703 0.15020487 -0.06215149 0.3733839 -0.3700041 -0.10197067 -0.093803644
0.061306614 -0.31038907 -0.085647725 -0.10188567 0.09786292 -0.33787265 0.20747116 -0.084413074
-0.21883027 -0.31178987 0.2110054 0.19885725 0.073481895 0.22856139 -0.04781621 0.034984462
0.12851778 0.22806875 -0.35233793 0.12432475 0.17422684 0.069336854 -0.19447568 -0.28947338
0.0423006 -0.25407562 0.20392391 -0.23881991 -0.043062184 -0.18622507 0.089674726 -0.03452933
0.01478357 0.084894426 0.06090374 -0.22154598 0.18659306 -0.2884065 -0.40100023 -0.17686962
-0.15133777 -0.40981472 0.15861969 0.00081331574 0.44029447 -0.2785593 0.10220836 0.041934986
-0.3260425 -0.06391334 -0.17107171 -0.3550413 0.10872772 0.11234815 -0.0281164 -0.2438723
0.22663903 0.02434287 0.45777878 -0.092683785 -0.13240759 -0.1172657 -0.06689273 0.2441849
0.20442522 -0.16718675 0.12282993 -0.0069045 0.120907776 -0.20496342 -0.05078781 -0.013547847
-0.2214448 0.077748336 -0.30970854 0.035963047 0.16230932 -0.37771207 0.06513406 -0.29680037
-0.0710226 0.012651724 0.21234357 0.20776607 0.4221009 -0.38958007 -0.4071018 0.32573292
-0.04060005 0.19975476 -0.007531466 -0.05298754 0.2257602 -0.08205205 -0.35979924 -0.15353964
0.053910412 0.24626885 -0.117268264 0.21252276 -0.343579 0.19955847 -0.25683883 -0.27925035
0.13625416 -0.02840823 0.089306325 -0.4572063 0.0949301 0.24735342 -0.09892448 0.23641843
-0.07625843 0.11743981 -0.3302799 0.075638525 0.44750044 -0.19998473 0.08678759 0.2126541
0.063101865 -0.10844475 -0.30388916 0.58123505 0.4495685 -0.043525968 -0.16231626 -0.0081993025
0.030899368 0.0017072959 -0.29952407 0.40149948 -0.4883177 -0.5007828 -0.17978269 -0.05864253
0.26617634 0.33311313 -0.011614749 -0.23406485 -0.05158489 -0.0098126875 0.20024522 -0.08182409
0.14956062 0.14029892 -0.17681018 -0.08945973 -0.056279764 0.4881331 0.06510366 0.04089841
-0.25360984 0.16688848 0.14801796 -0.0483145 -0.0430313 -0.34383968 -0.32369706 -0.26140225
-0.25419468 -0.24533653 -0.07744143 0.24836878 -0.47316048 0.15417 -0.022498468 0.23788732
0.17910756 0.36776307 -0.26273283 0.020882178 -0.2867044 -0.40233484 -0.26973012 -0.03602398
-0.21243256 -0.14199245 0.049623217 -0.19281845 0.16230483 -0.12385109 0.19419743 0.13627733
-0.09014718 -0.34806845 -0.06817209 -0.18049736 -0.45839798 -0.004407873 0.37692827 0.22363353
0.161786 -0.34887365 -0.015011484 0.43200448 0.46587318 -0.22425456 0.18355374 0.1108081
-0.39651647 0.20010628 -0.14457138 0.16822627 0.21758375 -0.120450735 0.2105882 -0.117431164
00000000: 845c b6bd e851 98be e75c 283f 9208 3cbe
00000010: 780c b5be a5c7 19be 612a 073e fdf3 c23c
00000020: f383 5c3e cf76 f93c f70f 843c 4c02 583a
00000030: b53f 2dbd ba87 33bd 4606 8d3e 552a 6c3e
00000040: 4fb2 60bc 9ff5 743e 1458 e43d 4b36 d3bd
00000050: c039 71bd 9571 03bb b778 c5be 592a d8bd
00000060: 1d64 153e eb47 11be 7398 34bd 8cff c63d
00000070: fb7e 91be ebf3 5e3d 4459 18be 4943 c3be
00000080: 8cc9 91bd eb68 6bbe caea 24bf b2b1 dcbe
00000090: 3f95 a33d f039 adbe 49a8 bbbe c596 a2be
000000a0: 4475 2c3c 04f3 603e 4ecf 193e 9092 7ebd
000000b0: 2d2c bf3e 2d71 bdbe 00d6 d0bd 201c c0bd
000000c0: a51c 7b3d 51eb 9ebe 1368 afbd 6fa9 d0bd
000000d0: 5b6c c83d a5fd acbe 5273 543e c3e0 acbd
000000e0: 0b15 60be eca2 9fbe cd11 583e 3ca1 4b3e
000000f0: ad7d 963d ff0b 6a3e eeda 43bd de4b 0f3d
00000100: 2a9a 033e db8a 693e a365 b4be f99d fe3d
00000110: 8568 323e 7b00 8e3d a224 47be db35 94be
00000120: 6543 2d3d 3316 82be 6ed1 503e 358d 74be
00000130: f961 30bd c9b1 3ebe 62a7 b73d a06e 0dbd
00000140: c936 723c 21dd ad3d 3376 793d f3dc 62be
00000150: 4012 3f3e 04aa 93be e74f cdbe 4f1d 35be
00000160: 4af8 1abe 3cd3 d1be 336d 223e b234 553a
00000170: 476e e13e 539f 8ebe 9e52 d13d 05c4 2b3d
00000180: 0bef a6be ffe4 82bd 6c2d 2fbe f9c7 b5be
00000190: a4ac de3d c916 e63d 5d54 e6bc a9b9 79be
000001a0: 1014 683e b36a c73c fb61 ea3e ffd0 bdbd
000001b0: db95 07be 0029 f0bd 0eff 88bd 9b0b 7a3e
000001c0: d854 513e 0133 2bbe 428e fb3d 253f e2bb
000001d0: 7f9e f73d eee1 51be e106 50bd caf7 5dbc
000001e0: 6dc2 62be 853a 9f3d 1e92 9ebe fd4d 133d
000001f0: 6a34 263e 7a63 c1be 0265 853d 38f6 97be
00000200: 4c74 91bd 2d49 4f3c 9870 593e a1c0 543e
00000210: 9c1d d83e 0a77 c7be a66f d0be 77c6 a63e
00000220: 3d4c 26bd 838c 4c3e 84ca f6bb 7609 59bd
00000230: af2d 673e e80a a8bd 9b37 b8be 7f39 1dbe
00000240: 2ad1 5c3d e72d 7c3e 582a f0bd 919f 593e
00000250: 96e9 afbe 0e59 4c3e 6180 83be e7f9 8ebe
00000260: 3686 0b3e 60b8 e8bc 3ce6 b63d f216 eabe
00000270: b66a c23d 374a 7d3e eb98 cabd ac17 723e
00000280: 612d 9cbd 4884 f03d 721a a9be 5fe8 9a3d
00000290: c71e e53e ccc8 4cbe b1bd b13d ffc1 593e
000002a0: 8d3b 813d 4818 debd 5c97 9bbe d2cb 143f
000002b0: d82d e63e 4948 32bd 3c36 26be 5e56 06bc
000002c0: ac20 fd3c 58c7 df3a 385b 99be 5791 cd3e
000002d0: c704 fabe 4d33 00bf f418 38be 2633 70bd
000002e0: 4448 883e ce8d aa3e ca4b 3ebc b2ae 6fbe
000002f0: ad4a 53bd 65c5 20bc 150d 4d3e 6393 a7bd
00000300: 6b26 193e 85aa 0f3e ba0d 35be aa36 b7bd
00000310: 9c85 66bd 95ec f93e 1155 853d 1785 273d
00000320: 26d9 81be d0e4 2a3e 0592 173e 6de5 45bd
00000330: 9741 30bd c10b b0be 9fbb a5be 84d6 85be
00000340: ce25 82be 8039 7bbe 9d99 9ebd 6354 7e3e
00000350: 1742 f2be bede 1d3e b54e b8bc bc98 733e
00000360: f967 373e 714b bc3e eb84 86be 1a11 ab3c
00000370: ebca 92be d5fe cdbe 111a 8abe e18d 13bd
00000380: ec87 59be 7866 11be b741 4b3d 3372 45be
00000390: 3d33 263e a4a5 fdbd b1db 463e 498c 0b3e
000003a0: 169f b8bd 0736 b2be cf9d 8bbd 4dd4 38be
000003b0: 24b3 eabe eb6f 90bb befc c03e 3000 653e
000003c0: 3bab 253e 919f b2be baf2 75bc b12f dd3e
000003d0: ee86 ee3e fda2 65be 83f5 3b3e 5bef e23d
000003e0: 3504 cbbe a9e8 4c3e 850a 14be 8243 2c3e
000003f0: 46ce 5e3e e0ae f6bd 6fa4 573e c07f f0bd

fc_advantage.0.bias f4 [20]
0.10716972 -0.042242244 -0.15609947 -0.11424856 -0.0030549439 -0.2812695 -0.054507416 -0.08146786
-0.029819574 -0.0041390895 0.1663692 -0.08599697 -0.047845937 0.009269374 0.16818729 -0.0304428
-0.020747148 0.020744976 -0.11910709 -0.10550589
00000000: cc7b db3d 3406 2dbd 8ad8 1fbe 26fb e9bd
00000010: 7435 48bb 8e02 90be 2b43 5fbd 9fd8 a6bd
00000020: 2e48 f4bc 33a1 87bb b05c 2a3e 2e1f b0bd
00000030: 1afa 43bd 93de 173c 4a39 2c3e 2e63 f9bc
00000040: ecf5 a9bc 5ef1 a93c 6bee f3bd 7913 d8bd

fc_value.0.weight f4 [1, 32]
0.7222361 -0.34165806 0.14991395 0.47973433 0.5272037 0.13171127 0.03195142 0.029000739
0.48960814 -0.15644383 0.22102149 -0.37692085 -0.18641435 0.30388513 0.27925825 0.1497576
-0.27360854 -0.023210175 -0.1281508 0.35684657 -0.114881575 0.17469122 0.41036603 0.02273649
0.014656951 -0.20503923 0.1745472 0.43194965 -0.029864512 0.034195602 0.27886555 0.31045082
00000000: 77e4 383f ceed aebe 0b83 193e bd9f f53e
00000010: d2f6 063f 52df 063e 7edf 023d f592 ed3c
00000020: ebad fa3e d032 20be 7553 623e c5fb c0be
00000030: 67e3 3ebe d596 9b3e f0fa 8e3e 0e5a 193e
00000040: 6b16 8cbe 4423 bebc f739 03be 98b4 b63e
00000050: 0847 ebbd 41e2 323e 7f1b d23e e041 ba3c
00000060: b523 703c cef5 51be 80bc 323e 8128 dd3e
00000070: 6ca6 f4bc b010 0c3d 77c7 8e3e 69f3 9e3e
