models/clients/client-10/sub_model.pkl (torch, 42501 bytes, 27 tensors)

layer1_task.0.weight f4 [32, 3]
0.19657174 -0.00088011613 -0.31990892 -0.41507652 -0.028247202 0.17030847 -0.3958936 0.114930764
0.48890293 -0.086504914 0.056653593 0.2560028 0.10413504 -0.58346456 0.12744094 0.03336301
-0.06281209 0.062409382 -0.23976117 -0.14705311 0.23493138 -0.273775 0.08468239 0.011719723
-0.09702993 0.33465892 0.0003655753 0.11978634 -0.24948767 -0.18568051 0.08968387 0.03782921
0.21753943 0.2025748 0.39052278 -0.13323198 -0.19109012 -0.2637734 0.19553764 -0.1813768
0.385976 0.081862696 -0.011877997 -0.22164759 -0.50692487 0.14731655 0.398082 0.4487808
0.18203603 0.31141117 0.41114438 0.00023023941 0.15640834 -0.23559684 0.12783141 -0.0043822997
0.0033279445 0.35569337 -0.3574579 -0.06810735 -0.44706547 0.05150586 0.054897755 0.18707232
-0.25628522 0.08394405 0.27779195 -0.002457494 0.026018517 -0.23233661 0.07293634 0.124907434
-0.08149824 0.18128937 0.011192517 0.15685175 -0.050434474 -0.2454715 0.21986356 0.081169195
0.09780346 0.10437249 -0.12732019 -0.032685008 -0.24018688 -0.09353225 0.048640836 0.248141
-0.34496602 0.16149488 0.213861 0.2762984 -0.20894489 -0.0005952813 -0.75504524 0.3223491
00000000: 1a4a 493e 98b7 66ba 1acb a3be e984 d4be
00000010: ad66 e7bc 5865 2e3e 91b2 cabe d260 eb3d
00000020: 7c51 fa3e 7d29 b1bd 990d 683d cd12 833e
00000030: c044 d53d ef5d 15bf e17f 023e a7a7 083d
00000040: a0a3 80bd fba0 7f3d f483 75be 1795 16be
00000050: da91 703e 3d2c 8cbe f66d ad3d 1504 403c
00000060: a1b7 c6bd 6a58 ab3e b0aa bf39 8a52 f53d
00000070: b279 7fbe 0823 3ebe 2dac b73d cdf2 1a3d
00000080: a8c2 5e3e c56f 4f3e 9af2 c73e f76d 08be
00000090: 21ad 43be 4f0d 87be 053b 483e d7ba 39be
000000a0: a59e c53e a1a7 a73d ee9b 42bc 96f7 62be
000000b0: d4c5 01bf 26da 163e 67d1 cb3e 99c6 e53e
000000c0: a767 3a3e 4971 9f3e 8481 d23e 6c6c 7139
000000d0: 8229 203e 4c40 71be 3de6 023e 6599 8fbb
000000e0: a519 5a3b 711d b63e b904 b7be de7b 8bbd
000000f0: c4e5 e4be cff7 523d 78dc 603d e38f 3f3e
00000100: d137 83be dcea ab3d bf3a 8e3e e80d 21bb
00000110: c924 d53c a6e9 6dbe a65f 953d 78cf ff3d
00000120: 8de8 a6bd eca3 393e d260 373c bf9d 203e
00000130: 6194 4ebd e25c 7bbe ea23 613e 093c a63d
00000140: 2e4d c83d 3ec1 d53d 3960 02be b7e0 05bd
00000150: 8df3 75be d68d bfbd 9d3b 473d ad18 7e3e
00000160: 639f b0be ea5e 253e 61fe 5a3e fc76 8d3e
00000170: a6f5 55be a70c 1cba a54a 41bf f10a a53e

layer1_task.0.bias f4 [32]
0.25754374 -0.13461597 -0.006011301 0.09910206 0.025899895 -0.089255564 -0.043469563 0.14396165
-0.03005417 -0.13087715 -0.031857323 0.11958607 0.12165291 0.02435681 0.009103453 0.19348437
0.12450256 -0.06991679 -0.06480515 -0.040692914 -0.051499885 -0.026405247 -0.049701992 -0.027779745
0.07238512 -0.076070264 -0.040230446 0.05881287 0.08069101 0.1430571 -0.07861501 -0.13202523
00000000: c6dc 833e c5d8 09be 73fa c4bb 05f6 ca3d
00000010: 042c d43c 9fcb b6bd 240d 32bd af6a 133e
00000020: 2a34 f6bc a904 06be d37c 02bd 8be9 f43d
00000030: 2925 f93d ef87 c73c a626 153c c420 463e
00000040: 33fb fe3d 8930 8fbd 90b8 84bd 9dad 26bd
00000050: 8bf1 52bd d14f d8bc 5194 4bbd 5992 e3bc
00000060: a63e 943d baca 9bbd aec8 24bd c4e5 703d
00000070: 5441 a53d 8f7d 123e e800 a1bd 9f31 07be

layer1_task.2.weight f4 [32]
1.0920693 1.2754436 1.0066705 0.8917678 0.8132353 0.92358154 0.8777861 1.1231548
1.0062544 1.0040971 1.0070686 1.1787847 0.9064805 1.037126 1.0652789 0.95875007
0.86774635 0.8364091 1.0196724 1.0041938 1.0151219 1.0171252 1.1682956 0.974026
0.8826045 0.90671885 0.98102397 1.0378537 1.2431374 1.0993025 1.0806681 1.0895896
00000000: edc8 8b3f bc41 a33f 94da 803f e54a 643f
00000010: 3030 503f d76f 6c3f 97b6 603f 89c3 8f3f
00000020: f2cc 803f 4186 803f a0e7 803f 6be2 963f
00000030: 1b0f 683f 8bc0 843f 0f5b 883f a570 753f
00000040: a024 5e3f e81e 563f a084 823f 6c89 803f
00000050: 84ef 813f 2931 823f b68a 953f c559 793f
00000060: 5ef2 613f ba1e 683f 6324 7b3f 64d8 843f
00000070: 201f 9f3f f2b5 8c3f 5553 8a3f ac77 8b3f

layer1_task.2.bias f4 [32]
0.12613665 -0.10964255 -0.06828145 -0.007937549 0.08306266 0.069718085 0.029089961 0.14684203
-0.008817337 0.09563043 -0.023865096 -0.0023847225 0.12808424 0.105137795 -0.07505139 -0.06452443
0.04995373 -0.037902944 -0.1082835 0.08436603 -0.008250556 -0.05372301 0.122785784 -0.009941679
0.10802069 0.020008003 -0.10499785 0.09876179 0.058848545 0.03689765 0.035161365 -0.018791126
00000000: f729 013e 468c e0bd 25d7 8bbd 7e0c 02bc
00000010: c21c aa3d 5bc8 8e3d 124e ee3c c25d 163e
00000020: 9876 10bc e3d9 c33d bc80 c3bc 0149 1cbb
00000030: 8428 033e 7c52 d73d 8bb4 99bd 6225 84bd
00000040: 489c 4c3d 1e40 1bbd bdc3 ddbd 19c8 ac3d
00000050: 572d 07bc a90c 5cbd 1d77 fb3d 6de2 22bc
00000060: f439 dd3d d3e7 a33c 1d09 d7bd 9f43 ca3d
00000070: 2c0b 713d fe21 173d 5d05 103d d9ef 99bc

layer1_task.2.running_mean f4 [32]
13048.703 -26784.957 -25814.166 -5661.901 7397.641 2248.3762 -15727.91 -18801.29
-5864.477 7591.0776 5707.055 13267.429 -12386.327 -11757.937 -833.8595 9659.315
12219.237 219.88454 8271.521 23135.682 -29109.773 12623.322 18192.703 -15238.423
-5338.8647 10069.722 14378.616 5949.369 -15212.879 16296.699 14295.666 -499.18286
00000000: d0e2 4b46 ea41 d1c6 55ac c9c6 35ef b0c5
00000010: 212d e745 0586 0c45 a4bf 75c6 94e2 92c6
00000020: d143 b7c5 9f38 ed45 7158 b245 b74d 4f46
00000030: 4f89 41c6 bfb7 37c6 0277 50c4 43ed 1646
00000040: f3ec 3e46 71e2 5b43 163e 0146 5dbf b446
00000050: 8c6b e3c6 4a3d 4546 6821 8e46 b119 6ec6
00000060: ebd6 a6c5 e356 1d46 77aa 6046 f4ea b945
00000070: 84b3 6dc6 cca2 7e46 aa5e 5f46 6897 f9c3

layer1_task.2.running_var f4 [32]
1.29320424e+08 5.6691866e+08 5.370189e+08 2.5853976e+07 4.1681904e+07 3.980517e+06 1.9657424e+08 2.6574267e+08
2.6527186e+07 4.669964e+07 2.6466902e+07 1.4000843e+08 1.2122355e+08 1.069332e+08 558346.25 7.168182e+07
1.2124981e+08 49281.543 5.4519424e+07 4.1995123e+08 6.520937e+08 1.2798969e+08 2.6271078e+08 1.8875504e+08
2.2366224e+07 7.694765e+07 1.5889237e+08 2.8483956e+07 1.8171099e+08 2.0544275e+08 1.6021216e+08 367619.16
00000000: bda8 f64c f829 074e 0809 004e 0c40 c54b
00000010: fc00 1f4c 94f3 724a c277 3b4d 956e 7d4d
00000020: e962 ca4b 1e25 324c 2bed c94b bf85 054d
00000030: 3037 e74c 7af5 cb4c a450 0849 e4b8 884c
00000040: 0244 e74c 8b81 4047 a0f9 4f4c 943f c84d
00000050: a478 1b4e f71e f44c 608a 7a4d c602 344d
00000060: 08a4 aa4b 18c4 924c 1588 174d ba50 d94b
00000070: 094b 2d4d ecec 434d 4cca 184d 6580 b348

layer1_1vm.0.weight f4 [64, 40]
0.12434358 0.11119554 -0.084551394 -0.019357774 0.20096996 -0.07335539 0.04705818 -0.10707196
-0.1078615 -0.00825184 -0.20064236 -0.13449867 0.0028222385 0.05765268 -0.13088804 0.03702065
0.012237382 -0.13700137 0.21717842 -0.2250641 0.19056341 -0.03706602 -0.15586403 -0.089020014
-0.1757656 -0.22297707 0.06868999 -0.17669863 0.018535007 -0.13751447 -0.3806918 -0.1528806
-0.1087702 0.09697251 0.053791154 -0.18061133 -0.0053609447 0.048982523 0.21879587 0.18218142
-0.23310557 -0.14337626 -0.06922593 0.18285128 0.099844754 0.25052306 0.013934654 -0.08132691
-0.30507234 -0.06391966 -0.02836604 -0.13360524 -0.00893352 0.036586486 -0.11781773 -0.2649912
0.27814558 0.37939882 0.122573525 0.40412617 0.0065814136 -0.033667013 -0.09403248 -0.006320449
-0.18641384 -0.02833677 0.14988893 0.34066874 0.1830835 -0.116273545 0.051944442 -0.053518977
0.037451316 0.1584006 0.06407008 0.06012812 -0.2299972 0.11605135 0.16196845 -0.10979818
0.005664415 -0.3277846 0.07146697 0.11559345 -0.072959594 -0.045211904 0.15607081 0.04027822
-0.45425078 -0.21511568 0.0016567394 0.20862025 -0.04966284 -0.039096434 -0.06485372 -0.021821415
-0.19701557 0.30716103 -0.075759515 0.2153665 0.038181018 -0.04097788 -0.024398293 0.057087313
0.1881288 -0.04192887 0.09098876 -0.033238795 -0.14231534 -0.0598031 0.080182865 0.086366735
0.19440793 0.17460068 0.20464568 0.30203307 0.059969258 0.062460497 0.15430881 -0.3377257
-0.078480944 0.16175336 0.004753228 -0.085411474 0.07080598 0.014533105 -0.15139145 0.07674124
-0.041895915 -0.32486162 -0.021216854 -0.04495648 -0.037179843 0.13601616 -0.3270056 -0.023134938
-0.033132657 -0.040334016 0.09055453 0.1743389 -0.246005 0.0145300105 0.045147818 0.066185236
-0.21017228 -0.055434875 0.027958585 0.035416983 0.1709548 0.13555267 -0.17415325 -0.050628692
-0.37883526 -0.16104382 -0.23134948 -0.010603778 -0.109846115 0.0933391 -0.043995652 -0.13757685
-0.076277226 -0.07946528 -0.39082935 -0.21508558 -0.29054117 -0.12584023 -0.08845907 0.040957186
-0.016895855 0.07659429 0.24547555 -0.11683228 0.14644818 -0.08611369 -0.016944407 0.0831887
-0.23802456 0.14446288 0.27506238 0.12625778 -0.06672922 -0.17341526 0.11316364 0.26916817
0.20114443 -0.17443223 -0.0924944 -0.26319915 0.007886525 0.23322128 0.20044822 0.10031196
0.085239 0.32029837 0.09953583 -0.02574999 -0.2640439 -0.027072482 0.2361895 0.042852107
-0.067868575 -0.01136456 0.16786633 -0.1941846 -0.022102311 -0.093574345 -0.01475152 0.025495596
-0.06283855 0.08712155 -0.06060417 -0.0951459 0.19631782 0.04975432 -0.087309524 0.16116472
0.2493957 0.3773754 -0.162826 0.022849185 -0.19331242 0.19240421 0.11838465 0.13657953
0.2507734 -0.20533356 -0.08701768 0.06452839 -0.016948506 0.06347339 0.014798294 -0.057991344
0.008564848 -0.35229352 0.22748269 -0.12164396 -0.30634087 -0.19188793 0.3011232 0.22966944
-0.058330934 -0.3182074 0.00016594486 0.13441391 -0.086773954 -0.17316924 -0.078503676 -0.14686765
-0.06847983 -0.2395295 -0.19162662 0.1447254 -0.35507303 -0.13783596 0.07390531 0.17435518
00000000: d9a7 fe3d 7dba e33d 4829 adbd 3294 9ebc
00000010: 12cb 4d3e 5a3b 96bd 14c0 403d 8b48 dbbd
00000020: 7de6 dcbd ba32 07bc 3175 4dbe 05ba 09be
00000030: 4ef5 383b 3725 6c3d 8407 06be f7a2 173d
00000040: 4d7f 483c 164a 0cbe 0564 5e3e 3477 66be
00000050: 0e23 433e 8ad2 17bd d29a 1fbe 2050 b6bd
00000060: e6fb 33be 1a54 64be 56ad 8c3d 7cf0 34be
00000070: bad6 973c 98d0 0cbe 09ea c2be bb8c 1cbe
00000080: e9c2 debd 8699 c63d 1d54 5c3d 2df2 38be
00000090: ddaa afbb e6a1 483d 060c 603e c48d 3a3e
000000a0: 3ab3 6ebe 3ad1 12be 53c6 8dbd 5e3d 3b3e
000000b0: 687b cc3d 8f44 803e 2d4e 643c b98e a6bd
000000c0: 7132 9cbe 50e8 82bd e65f e8bc d0cf 08be
000000d0: e65d 12bc b6db 153d 6c4a f1bd edac 87be
000000e0: 1969 8e3e 9040 c23e d407 fb3d a0e9 ce3e
000000f0: e6a8 d73b 6ce6 09bd 1a94 c0bd c51b cfbb
00000100: 45e3 3ebe 8422 e8bc 7c7c 193e 226c ae3e
00000110: 3e7a 3b3e d320 eebd b2c3 543d b736 5bbd
00000120: 8d66 193d c433 223e 2d37 833d e748 763d
00000130: 6384 6bbe 55ac ed3d 0fdb 253e dedd e0bd
00000140: 8f9c b93b 62d3 a7be 465d 923d 42bc ec3d
00000150: d76b 95bd 1e30 39bd 07d1 1f3e c6fa 243d
00000160: 8f93 e8be 4947 5cbe f326 d93a 8ca0 553e
00000170: 436b 4bbd 9523 20bd 07d2 84bd d3c2 b2bc
00000180: 73be 49be 3644 9d3e ce27 9bbd 0989 5c3e
00000190: b363 1c3d 6cd8 27bd eede c7bc 63d4 693d
000001a0: d6a4 403e 9bbd 2bbd 5158 ba3d 6725 08bd
000001b0: 1dbb 11be 18f4 74bd ea36 a43d 0be1 b03d
000001c0: df12 473e 85ca 323e a38e 513e 14a4 9a3e
000001d0: 53a2 753d 94d6 7f3d 2103 1e3e 62ea acbe
000001e0: 9eba a0bd aca2 253e f7c0 9b3b 36ec aebd
000001f0: ba02 913d 431c 6e3c 5c06 1bbe 832a 9d3d
00000200: 0d9b 2bbd 4354 a6be f8ce adbc 4924 38bd
00000210: e449 18bd d247 0b3e 476d a7be 7b85 bdbc
00000220: 1cb6 07bd 4835 25bd a774 b93d e685 323e
00000230: bce8 7bbe 480f 6e3c ebec 383d 208c 873d
00000240: 6737 57be ae0f 63bd 6709 e53c 6611 113d
00000250: c60e 2f3e 52ce 0a3e 3b55 32be 0860 4fbd
00000260: b2f6 c1be ace8 24be e1e6 6cbe 78bb 2dbc
00000270: 00f7 e0bd 9228 bf3d c934 34bd f2e0 0cbe
00000280: 3c37 9cbd b1be a2bd c91a c8be 653f 5cbe
00000290: d0c1 94be 43dc 00be 072a b5bd b9c2 273d
000002a0: 2d69 8abc 78dd 9c3d f15d 7b3e c345 efbd
000002b0: 83f6 153e 605c b0bd ffce 8abc d65e aa3d
000002c0: b6bc 73be 14ee 133e fad4 8c3e b849 013e
000002d0: 54a9 88bd c593 31be 57c2 e73d 69d0 893e
000002e0: cef8 4d3e 5d9e 32be b46d bdbd 0ac2 86be
000002f0: 7c36 013c 8fd1 6e3e 4c42 4d3e 5b70 cd3d
00000300: c991 ae3d 26fe a33e 71d9 cb3d a5f1 d2bc
00000310: c330 87be 1cc7 ddbc a9db 713e b185 2f3d
00000320: aefe 8abd 6b32 3abc 27e5 2b3e 54d8 46be
00000330: e80f b5bc e8a3 bfbd 5cb0 71bc 24dc d03c
00000340: 7fb1 80bd c96c b23d 143c 78bd dbdb c2bd
00000350: 8a07 493e 30cb 4b3d 56cf b2bd 5d08 253e
00000360: 9661 7f3e 5937 c13e dcbb 26be 372e bb3c
00000370: b1f3 45be 9c05 453e a773 f23d 81db 0b3e
00000380: 5f65 803e f642 52be 5336 b2bd 7627 843d
00000390: 98d7 8abc 56fe 813d 8b74 723c 5588 6dbd
000003a0: 9453 0c3c d15f b4be 39f1 683e 7820 f9bd
000003b0: b6d8 9cbe 457e 44be d22c 9a3e 772e 6b3e
000003c0: 6bec 6ebd 15ec a2be 7c01 2e39 cda3 093e
000003d0: 8bb6 b1bd 4753 31be 89c6 a0bd 7964 16be
000003e0: 273f 8cbd 3947 75be c539 44be e532 143e
000003f0: 22cc b5be df24 0dbe ab5b 973d 2a8a 323e

layer1_1vm.0.bias f4 [64]
-0.051155757 -0.014593452 0.12716672 0.064858355 0.06593497 0.22067879 0.07177677 -0.0085104825
-0.1899561 0.008594756 0.044195436 0.058150943 -0.11057721 -0.0010918793 0.1428114 -0.015561672
-0.093102224 -0.07203164 0.09953911 0.059020236 -0.09950934 0.08097264 0.18372817 0.14265451
-0.12191352 -0.09064967 -0.1061695 -0.14063323 -0.006504706 0.050707176 0.12834804 -0.14052133
0.027044253 0.06369592 -0.14082047 -0.062503375 -0.1775832 -0.084399365 -0.008323794 0.13742658
-0.034892663 -0.2903305 -0.015510601 0.21906266 0.18085092 -0.23033583 0.06982278 0.13761625
0.1469105 0.12770335 0.053081896 0.0081382515 0.1090351 -0.058326717 -0.0071359426 -0.042853408
0.09002912 -0.038733006 -0.16166767 0.10198751 0.047258332 0.023623863 0.11489008 0.09906759
00000000: b388 51bd 6019 6fbc fe37 023e 75d4 843d
00000010: ea08 873d 9ff9 613e b3ff 923d 8d6f 0bbc
00000020: da83 42be 05d1 0c3c 4606 353d af2f 6e3d
00000030: 4e76 e2bd 641d 8fba 273d 123e 62f6 7ebc
00000040: 61ac bebd 5385 93bd 29db cb3d 34bf 713d
00000050: 8ecb cbbd fcd4 a53d 3d23 3c3e 0614 123e
00000060: ccad f9bd 89a6 b9bd 656f d9bd 2802 10be
00000070: 6e25 d5bb 54b2 4f3d ab6d 033e d3e4 0fbe
00000080: e98b dd3c 0273 823d 3e33 10be c501 80bd
00000090: 5fd8 35be 93d9 acbd 8660 08bc 8eb9 0c3e
000000a0: 9ceb 0ebd 33a6 94be 2d20 7ebc f651 603e
000000b0: fc30 393e 28dd 6bbe 3fff 8e3d 46eb 0c3e
000000c0: b56f 163e abc4 023e 676c 593d 4d56 053c
000000d0: cb4d df3d ffe7 6ebd a0d4 e9bb 0e87 2fbd
000000e0: 3061 b83d 80a6 1ebd 368c 25be d4de d03d
000000f0: f491 413d d586 c13c 7e4b eb3d f3e3 ca3d

layer1_1vm.2.weight f4 [64]
1.2201059 1.0662618 0.75402915 1.0961423 0.82537377 1.1752989 0.9999426 1.1214142
0.8777144 1.0732355 0.87548256 0.92226946 1.166071 0.99662006 0.83821917 0.80919516
1.0923917 0.93772894 1.0043666 0.74308556 1.0559883 1.0306146 0.9642871 0.95031875
1.1229284 1.1751549 0.87882274 0.8725624 0.96072674 1.0356097 1.1119369 1.003379
1.0564944 1.2101614 1.2924876 0.86060697 0.8504837 1.0215718 1.06165 1.1445426
1.1319615 0.8613809 1.0972503 0.96782553 1.0450852 1.1230575 0.7408637 1.0622802
0.9913131 1.1144662 0.9767145 0.96299255 0.8615907 1.2676483 1.1397507 1.040446
1.0950003 1.0818566 0.8061571 1.0441014 0.8808425 0.90465695 1.1547478 0.7708172
00000000: 6e2c 9c3f 447b 883f 0e08 413f 644e 8c3f
00000010: b24b 533f 3270 963f 3dfc 7f3f 808a 8f3f
00000020: e4b1 603f c85f 893f a01f 603f da19 6c3f
00000030: d141 953f 7e22 7f3f 8895 563f 6a27 4f3f
00000040: 7ed3 8b3f 010f 703f 168f 803f db3a 3e3f
00000050: a02a 873f 2eeb 833f 85db 763f 1748 733f
00000060: 1ebc 8f3f 7a6b 963f 87fa 603f 4060 5f3f
00000070: 30f2 753f dc8e 843f f353 8e3f b96e 803f
00000080: 353b 873f 92e6 9a3f 3c70 a53f bd50 5c3f
00000090: 4db9 593f ddc2 823f 26e4 873f 5f80 923f
000000a0: 1de4 903f 7583 5c3f b372 8c3f 6ac3 773f
000000b0: 5ac5 853f 59c0 8f3f 3ea9 3d3f ccf8 873f
000000c0: b2c6 7d3f d4a6 8e3f f609 7a3f ae86 763f
000000d0: 3591 5c3f 4d42 a23f 5ae3 913f 562d 853f
000000e0: f828 8c3f 477a 8a3f 5060 4e3f 1da5 853f
000000f0: e57e 613f 9997 673f c7ce 933f 4754 453f

layer1_1vm.2.bias f4 [64]
-0.22801687 -0.01022484 -0.113503285 -0.039557796 -0.20189816 -0.009465554 -0.14734297 0.17475396
-0.09841032 -0.084496506 0.14307982 -0.013463658 -0.042186152 -0.15685523 -0.06630168 0.10123144
0.047411833 -0.18948904 -0.0723667 -0.10490398 0.059506554 -0.04408268 0.12700686 -0.0029460806
0.04548084 -0.072768174 -0.032484785 0.105509415 0.12664084 0.11427017 0.11463574 0.04169825
0.006653358 -0.015547154 -0.21982805 0.123530634 -0.03499012 0.054682396 0.014240582 -0.106945395
-0.07754375 -0.005148386 0.064843036 0.059412558 0.019308826 0.007718511 -0.18158522 0.090710506
-0.21417981 0.13710548 -0.0880883 -0.020242942 -0.19876306 -0.04940765 0.2296147 0.28800654
0.048501436 0.009412206 -0.02628509 0.17056204 -0.24333887 0.07678287 -0.16485196 0.18025817
00000000: 417d 69be 1686 27bc 6974 e8bd 5b07 22bd
00000010: 64be 4ebe 6915 1bbc 13e1 16be b4f2 323e
00000020: 5a8b c9bd 810c adbd 8483 123e ad96 5cbc
00000030: 63cb 2cbd a89e 20be 2dc9 87bd 6e52 cf3d
00000040: e932 423d 6a09 42be fe34 94bd e6d7 d6bd
00000050: 25bd 733d 0a90 34bd 160e 023e 0813 41bb
00000060: 1e4a 3a3d 7b07 95bd c40e 05bd 5215 d83d
00000070: 23ae 013e 7b06 ea3d 25c6 ea3d c9cb 2a3d
00000080: 6a04 da3b 7db9 7ebc 9b1a 61be a1fd fc3d
00000090: cd51 0fbd a6fa 5f3d 5451 693c 3006 dbbd
000000a0: 42cf 9ebd cbb3 a8bb 6dcc 843d 955a 733d
000000b0: 8b2d 9e3c 90eb fc3b 7af1 39be 6ec6 b93d
000000c0: f451 5bbe 6165 0c3e a367 b4bd 87d4 a5bc
000000d0: 8b88 4bbe ad5f 4abd 1e20 6b3e 9875 933e
000000e0: 71a9 463d a735 1a3c d453 d7bc d1a7 2e3e
000000f0: d32d 79be 5640 9d3d f4ce 28be 9995 383e

layer1_1vm.2.running_mean f4 [64]
164675.77 -215688.75 -497761.88 234608.61 -51288.664 -62476.99 -575246.5 -1853.3081
-192953.27 -263830.06 516976.62 -31526.38 -317233.06 65021.023 -151552.92 -212532.16
70158.875 -106567.31 48336.22 187338.64 132946.16 357917.16 -272703.78 -52271.883
-142502.98 -166664.25 -9206.361 239991.22 -10503.484 156006.5 -465735.9 42621.574
-210984.44 -433767.0 132567.47 -64577.758 231799.94 -314631.97 -118915.88 -209381.22
-363597.53 93664.01 324320.44 191929.61 343404.5 115805.28 39870.45 254368.3
-294183.12 -140557.56 -194480.11 -244502.45 -226749.98 122328.28 118588.625 390140.25
98399.72 298663.75 342188.94 -578274.9 -224737.55 166026.45 -107381.16 311637.12
00000000: f1d0 2048 30a2 52c8 3c0c f3c8 271c 6548
00000010: aa58 48c7 fd0c 74c7 e870 0cc9 dca9 e7c4
00000020: 516e 3cc8 c2d2 80c8 146e fc48 c34c f6c6
00000030: 22e6 9ac8 06fd 7d47 3b00 14c8 0a8d 4fc8
00000040: 7007 8947 a823 d0c7 38d0 3c47 a9f2 3648
00000050: 8ad4 0148 a5c3 ae48 f927 85c8 e22f 4cc7
00000060: bf29 0bc8 10c2 22c8 72d9 0fc6 ce5d 6a48
00000070: f01d 24c6 a059 1848 fd68 e3c8 937d 2647
00000080: 1c0a 4ec8 e0cc d3c8 de75 0148 c241 7cc7
00000090: fc5d 6248 ffa0 99c8 f141 e8c7 4e79 4cc8
000000a0: b189 b1c8 01f0 b647 0e5c 9e48 676e 3b48
000000b0: 90ad a748 a42e e247 73be 1b47 1368 7848
000000c0: e4a4 8fc8 6443 09c8 07ec 3dc8 9dc5 6ec8
000000d0: 7f6f 5dc8 24ec ee47 509e e747 887f be48
000000e0: dc2f c047 f8d4 9148 9e15 a748 2e2e 0dc9
000000f0: 6378 5bc8 9d22 2248 94ba d1c7 a42a 9848

layer1_1vm.2.running_var f4 [64]
6.8144056e+09 1.1573086e+10 5.869475e+10 1.374828e+10 6.9708314e+08 9.772774e+08 8.206995e+10 2.3116802e+07
9.73828e+09 1.6142025e+10 6.4690287e+10 2.7231494e+08 2.4830675e+10 1.0689354e+09 5.535899e+09 1.1182003e+10
1.1071415e+09 2.7027436e+09 6.0435066e+08 9.125938e+09 4.2460826e+09 3.2817328e+10 1.8302355e+10 7.1918656e+08
4.8504607e+09 7.5814205e+09 3.907318e+07 1.2933345e+10 4.8802216e+07 5.851881e+09 5.5479304e+10 5.335586e+08
1.1302131e+10 4.6642627e+10 4.2515878e+09 1.2232562e+09 1.3208285e+10 2.4214989e+10 3.5626127e+09 1.0618726e+10
3.113826e+10 2.1874117e+09 2.5260515e+10 9.623483e+09 2.7334842e+10 3.405891e+09 3.926066e+08 1.4910804e+10
1.8755795e+10 5.162184e+09 9.660861e+09 1.5760893e+10 1.3671408e+10 3.7495951e+09 3.564348e+09 4.294881e+10
2.4927206e+09 2.2186926e+10 3.2265568e+10 8.593295e+10 1.2278579e+10 6.5701053e+09 3.0072003e+09 2.3859534e+10
00000000: ca15 cb4f d273 2c50 ada7 5a51 87dd 4c50
00000010: 9432 264e 4700 694e 00de 9851 015e b04b
00000020: 971c 1150 f088 7050 77fd 7051 92d9 814d
00000030: c100 b950 a4da 7e4e 8ffb a44f f59f 2650
00000040: 47fb 834e 9818 214f a316 104e b1fc 0750
00000050: 1416 7d4f 1682 f450 f95c 8850 aa77 2b4e
00000060: 148e 904f a6f1 e14f 670d 154c ccb8 4050
00000070: 6a2a 3a4c 4f66 ae4f 30ad 4e51 aa6b fe4d
00000080: 356a 2850 e0c1 2d51 156a 7d4f d1d2 914e
00000090: 9cd1 4450 6d6a b450 2859 544f 3a3b 1e50
000000a0: 85ff e750 4161 024f 9c34 bc50 ad66 0f50
000000b0: 13a9 cb50 c601 4b4f 9c35 bb4d 3430 5e50
000000c0: d7bd 8b50 57d8 994f 43f5 0f50 09db 6a50
000000d0: 48b8 4b50 487e 5f4f a273 544f 2dff 1f51
000000e0: e693 144f 344e a550 b065 f050 0610 a051
000000f0: 10f7 3650 edcd c34f 3c3e 334f 73c4 b150

layer1_2vm.0.weight f4 [32, 64]
0.12048506 -0.07753948 0.05179076 -0.124666035 0.33619368 0.060893636 0.19292843 0.12677921
-0.07472981 -0.2684451 0.19284937 -0.083095126 0.28418118 -0.09775664 0.18559882 -0.14408076
-0.08104357 0.062308304 0.1906984 -0.03489945 -0.11793018 -0.21452366 -0.12451236 0.10031972
-0.18955252 -0.16401137 0.0043938933 0.14722164 0.1997399 -0.21804185 0.14762369 -0.2577594
0.055135097 0.23282745 0.12009673 0.007260137 -0.22076693 0.019436823 0.008333686 -0.07688727
0.16875854 0.12705533 0.09280993 0.24478823 -0.038150646 0.041530892 -0.27060366 -0.1401395
0.12511985 0.07086329 -0.041611165 -0.2527561 0.19865574 0.0011906789 0.0089243585 -0.12740575
-0.12705542 0.12689711 -0.0774562 -0.37870353 -0.07480681 0.077605896 -0.33852744 -0.3343157
0.22973274 -0.006006487 0.32728773 -0.21170564 0.19059664 -0.1218069 -0.39822397 -0.1463696
0.10275402 -0.093787596 0.30749607 0.11690347 -0.1769178 0.089791924 -0.04903705 -0.10467931
-0.023601234 0.059804335 0.21752788 0.024962293 -0.28008786 -0.10563649 -0.1556905 0.15883507
-0.075594805 0.042887527 -0.0875421 -0.35650274 0.022488609 0.018555831 0.010516568 0.13738821
0.15800826 -0.25592935 -0.061906103 -0.027529664 0.06593466 -0.15878539 -0.060094103 -0.2550198
-0.15933543 0.005594723 0.15682209 -0.29131904 -0.069785915 -0.15153256 -0.003521033 0.10927538
-0.18825091 -0.1581036 0.071323164 -0.025688076 -0.19662246 0.03578723 0.12503813 0.066803396
0.13826121 -0.32622543 0.043133132 0.1295278 -0.09238254 -0.14476824 -0.04596116 -0.033288863
-0.38511056 0.31210315 -0.122675635 0.093531646 0.18843271 0.27208003 -0.10328394 -0.1378336
0.43438873 -0.07877476 0.018440101 -0.28621492 -0.42769864 0.25648746 0.015632434 0.27869445
0.33997247 0.15571004 -0.07832494 -0.20341963 -0.12902099 0.22084674 -0.015588919 0.28772706
-0.1199017 0.07707732 -0.47240213 0.1199545 0.050523926 -0.017387722 -0.08917491 -0.14135146
-0.11836019 0.15267797 0.35960573 -0.1346993 0.10454891 -0.08022359 0.22321734 0.11822796
0.1385657 -0.20470569 0.30138418 0.11972193 -0.118598655 -0.08705723 0.15830109 -0.16149817
0.06925834 -0.24743146 -0.39009097 0.20293158 -0.23000951 0.03648679 -0.057441924 -0.2395397
0.404996 0.00039930217 0.3207477 0.1770011 0.03938192 0.17955264 -0.19023909 0.009220548
0.12683092 -0.14195725 0.0012333139 0.17964233 -0.1820642 -0.066761516 -0.0719934 -0.14447488
-0.08126631 0.32173145 -0.20094568 -0.17147306 0.16791901 -0.03200548 -0.12962188 -0.23427163
-0.116672315 -0.016033376 -0.064586595 0.058884308 0.0026924135 -0.18907863 -0.07453395 0.18978338
0.016860055 -0.38830945 -0.20294693 -0.22433499 -0.13371709 -0.088117436 0.2222534 -0.34699935
0.20534642 0.019579004 -0.16267228 0.052425295 -0.009426162 -0.025985323 -0.0880701 0.16314971
-0.19260046 0.33803925 0.0077023967 -0.014630294 0.28641424 0.2214091 0.47635788 0.027918233
-0.008917076 -0.25601175 0.11129801 0.20494588 -0.16582073 0.027663115 0.048938293 0.04265938
0.024958212 -0.0011753625 0.05655449 -0.31570262 -0.012329432 -0.06931064 -0.066877544 0.1787942
00000000: dfc0 f63d 05cd 9ebd 8c22 543d e850 ffbd
00000010: 9421 ac3e 9b6b 793d 088f 453e 69d2 013e
00000020: f10b 99bd a371 89be 4e7a 453e c72d aabd
00000030: 3280 913e a234 c8bd 9e0d 3e3e e889 13be
00000040: 2cfa a5bd fe36 7f3d 7146 433e baf2 0ebd
00000050: 6185 f1bd 17ac 5bbe 5600 ffbd 6d74 cd3d
00000060: 0e1a 42be 99f2 27be a6fa 8f3b 45c1 163e
00000070: 9e88 4c3e 5d46 5fbe aa2a 173e 0af9 83be
00000080: 57d5 613d 526a 6e3e 46f5 f53d 71e6 ed3b
00000090: ba10 62be f939 9f3c 038a 083c 1377 9dbd
000000a0: 0acf 2c3e cb1a 023e 2213 be3d c4a9 7a3e
000000b0: da43 1cbd 4c1c 2a3d 908c 8abe bb80 0fbe
000000c0: 6b1f 003e c620 913d 7870 2abd 3f69 81be
000000d0: 696c 4b3e 8e10 9c3a 7937 123c a776 02be
000000e0: d11a 02be 51f1 013e 5ba1 9ebd 6ee5 c1be
000000f0: 5034 99bd d7ef 9e3d 7853 adbe 6d2b abbe
00000100: 0f3f 6b3e 11d2 c4bb 4292 a73e 5dc9 58be
00000110: c42b 433e e575 f9bd 03e4 cbbe eae1 15be
00000120: b370 d23d b613 c0bd 2070 9d3e 166b ef3d
00000130: f129 35be d4e4 b73d 13db 48bd 1b62 d6bd
00000140: 6057 c1bc 64f5 743d a1bf 5e3e b97d cc3c
00000150: ad67 8fbe f257 d8bd 556d 1fbe a9a5 223e
00000160: 73d1 9abd d5aa 2f3d 4649 b3bd 8787 b6be
00000170: 083a b83c 6602 983c af4d 2c3c 7faf 0c3e
00000180: ebcc 213e 2c09 83be 4191 7dbd e485 e1bc
00000190: c008 873d a398 22be 3c25 76bd f591 82be
000001a0: d428 23be f053 b73b f895 203e c527 95be
000001b0: ebeb 8ebd 5a2b 1bbe 22c1 66bb c5cb df3d
000001c0: d9c4 40be e9e5 21be e111 923d cd6f d2bc
000001d0: 6657 49be a195 123d ff09 003e 38d0 883d
000001e0: 5994 0d3e 0507 a7be 5eac 303d f0a2 043e
000001f0: 0f33 bdbd 203e 14be c541 3cbd e759 08bd
00000200: 362d c5be fccb 9f3e 5d3d fbbd 858d bf3d
00000210: 81f4 403e 134e 8b3e 8886 d3bd 4024 0dbe
00000220: 3368 de3e a954 a1bd b20f 973c c38a 92be
00000230: 51fb dabe 5352 833e 970f 803c 0ab1 8e3e
00000240: df10 ae3e 7472 1f3e d368 a0bd 3c4d 50be
00000250: 141e 04be a625 623e aa68 7fbc f650 933e
00000260: 068f f5bd b7da 9d3d b1de f1be b4aa f53d
00000270: 2df2 4e3d b270 8ebc 56a1 b6bd 70be 10be
00000280: d466 f2bd 9d57 1c3e 3e1e b83e 9dee 09be
00000290: bd1d d63d 444c a4bd 1693 643e 8021 f23d
000002a0: 2be4 0d3e 5e9e 51be 074f 9a3e c530 f53d
000002b0: dae3 f2bd 104b b2bd ae19 223e c75f 25be
000002c0: 51d7 8d3d ac5e 7dbe 01ba c7be 4ccd 4f3e
000002d0: 9d87 6bbe 2c73 153d 3948 6bbd e549 75be
000002e0: a35b cf3e 6e59 d139 0b39 a43e c73f 353e
000002f0: f04e 213d a6dc 373e 09ce 42be c811 173c
00000300: f7df 013e 3e5d 11be 26a7 a13a 29f4 373e
00000310: 0a6f 3abe 43ba 88bd 4771 93bd 39f1 13be
00000320: f36e a6bd fcb9 a43e b4c4 4dbe a296 2fbe
00000330: f6f2 2b3e 2e18 03bd 99bb 04be e7e4 6fbe
00000340: e5f1 eebd 6d58 83bc fa45 84bd ac30 713d
00000350: 3473 303b d49d 41be 41a5 98bd 9356 423e
00000360: 191e 8a3c 7fd0 c6be 52d1 4fbe 12b8 65be
00000370: 22ed 08be ea76 b4bd 6596 633e e6a9 b1be
00000380: 5546 523e 2664 a03c 9093 26be e8bb 563d
00000390: 3070 1abc 2cdf d4bc 195e b4bd b810 273e
000003a0: 0e39 45be 7b13 ad3e 6364 fc3b e7b3 6fbc
000003b0: e3a4 923e 11b9 623e 2ee5 f33e c7b4 e43c
000003c0: ed18 12bc f913 83be 36f0 e33d 55dd 513e
000003d0: e9cc 29be c29d e23c 8573 483d 9abb 2e3d
000003e0: 2a75 cc3c 9f0e 9aba aea5 673d c6a3 a1be
000003f0: 6301 4abc bdf2 8dbd 18f7 88bd d415 373e

layer1_2vm.0.bias f4 [32]
0.040227268 -0.07533222 -0.06922647 -0.1438251 0.067306645 0.038537335 0.30799395 0.128274
0.065238975 -0.014695948 0.059122358 -0.09391166 0.13731024 -0.08686434 -6.4376654e-06 0.05144179
0.05715575 0.06990872 0.0010886198 0.011948468 -0.13761415 -0.29843467 0.04006812 -0.17823729
0.036583427 0.12329326 0.0046522776 -0.084118046 -0.015962116 0.19476648 0.061217546 0.111445844
00000000: 59c5 243d c747 9abd 9cc6 8dbd e346 13be
00000010: 11d8 893d 53d9 1d3d 62b1 9d3e 425a 033e
00000020: 039c 853d 46c7 70bc 492a 723d c254 c0bd
00000030: 0e9b 0c3e eee5 b1bd 2003 d8b6 a0b4 523d
00000040: 261c 6a3d 4e2c 8f3d 05b0 8e3a 82c3 433c
00000050: b9ea 0cbe 6ecc 98be 781e 243d d683 36be
00000060: 81d8 153d 2d81 fc3d 2272 983b 1546 acbd
00000070: fcc2 82bc dd70 473e 40bf 7a3d b83d e43d

layer1_2vm.2.weight f4 [32]
0.8813791 0.9962646 0.98891425 0.86866003 1.0653219 1.0048609 1.0756943 0.97965515
1.1902366 1.2157557 0.9786849 1.0412339 0.95503986 1.0390671 1.1745346 0.95664024
1.05143 0.7703049 0.85206765 0.80004925 0.91574335 1.0155593 0.8716982 0.9734113
0.7542196 0.6959443 0.95253414 0.9528555 1.0981692 1.0610698 1.0628132 1.0040754
00000000: 10a2 613f 320b 7f3f 7c29 7d3f 8160 5e3f
00000010: 785c 883f 489f 803f 5ab0 893f aeca 7a3f
00000020: ac59 983f e29d 9b3f 188b 7a3f 2747 853f
00000030: 7e7d 743f 2700 853f 2657 963f 60e6 743f
00000040: 4295 863f b432 453f 1b21 5a3f 07d0 4c3f
00000050: 286e 6a3f d9fd 813f 9d27 5f3f 7c31 793f
00000060: 8914 413f 6829 323f 47d9 733f 57ee 733f
00000070: cf90 8c3f 23d1 873f 430a 883f 8b85 803f

layer1_2vm.2.bias f4 [32]
-0.14444157 0.0949866 -0.018785536 0.18869346 -0.0058989795 -0.023982784 -0.10816813 -0.20132017
0.018494235 0.07239516 0.175845 -0.11348654 -0.11260242 0.08094314 0.040228046 -0.12204419
-0.13165992 -0.06491218 0.010973768 -0.0011610733 0.023692187 0.07345573 -0.12938946 -0.028894113
0.040463984 -0.053218447 0.022062777 -0.1142701 -0.19229044 -0.011373693 -0.060545675 0.11868982
00000000: 7ee8 13be 5688 c23d 20e4 99bc dc38 413e
00000010: 3a4c c1bb 8b77 c4bc 4187 ddbd e026 4ebe
00000020: 3981 973c ea43 943d b610 343e a26b e8bd
00000030: 199c e6bd 84c5 a53d 2ac6 243d 4ef2 f9bd
00000040: dcd1 06be adf0 84bd 52cb 333c 282f 98ba
00000050: 1e16 c23c f56f 963d ac7e 04be 59b3 ecbc
00000060: 90bd 253d 96fb 59bd ffbc b43c 7106 eabd
00000070: c9e7 44be ba58 3abc befe 77bd a613 f33d

layer1_2vm.2.running_mean f4 [32]
-0.18974155 -0.9411585 0.29295436 -0.61538684 -0.10493229 0.3368562 -0.071136616 0.21181506
0.88137835 -0.36285937 0.14791009 0.23653205 -0.5556977 -0.17339471 -1.0528464 -0.7275669
0.09582122 -0.1281102 1.4353795 0.21548583 -1.717968 -0.87448543 -0.74271035 -0.52952576
-0.3886216 0.7958734 0.44994676 0.60178345 0.60630846 1.1611314 1.0295076 0.26350933
00000000: 9c4b 42be c3ef 70bf 1dfe 953e fe89 1dbf
00000010: bee6 d6bd 6a78 ac3e 13b0 91bd 0ce6 583e
00000020: 03a2 613f b4c8 b9be be75 173e 7535 723e
00000030: 3442 0ebf 628e 31be acc3 86bf d341 3abf
00000040: ea3d c43d 522f 03be 84ba b73f 51a8 5c3e
00000050: 60e6 dbbf 47de 5fbf 4422 3ebf 008f 07bf
00000060: 69f9 c6be 5cbe 4b3f 6c5f e63e 7b0e 1a3f
00000070: 0837 1b3f f49f 943f e8c6 833f b2ea 863e

layer1_2vm.2.running_var f4 [32]
0.93725926 0.885193 1.2914035 0.9656799 0.7710988 0.9322088 1.0260586 1.1587231
1.0326433 0.95035714 1.0938389 1.064743 0.7707187 1.2715548 1.0965672 1.4551573
0.9648291 1.3143705 1.7298958 1.0645227 2.1622868 1.2166836 0.94826627 1.0441226
0.83715034 1.4704546 0.86987233 0.90509367 1.6914611 1.404212 1.425661 0.920456
00000000: 39f0 6f3f 029c 623f b64c a53f cc36 773f
00000010: bb66 453f 3ca5 6e3f e355 833f 0a51 943f
00000020: a82d 843f 9b4a 733f ea02 8c3f 8049 883f
00000030: d24d 453f 4fc2 a23f 505c 8c3f 9842 ba3f
00000040: 0aff 763f 4b3d a83f 3a6d dd3f 4842 883f
00000050: e862 0a40 4abc 9b3f 94c1 723f cfa5 853f
00000060: 7c4f 563f db37 bc3f f4af 5e3f 38b4 673f
00000070: cc81 d83f 38bd b33f 0f7c b63f 01a3 6b3f

layer2.0.weight f4 [32, 64]
0.076146044 0.07848759 0.07412562 0.3574877 -0.101711616 0.19344041 0.41971016 0.12036325
0.31733647 0.04024236 0.336116 0.1497411 -0.037801884 0.20580307 0.008834595 -0.1164141
0.32564095 -0.2020672 -0.17225793 -0.42255184 0.096127935 0.056312975 -0.082439914 0.11736891
0.09992634 -0.09113976 -0.24508376 0.36842355 -0.2703547 0.14197944 0.017523605 0.056999378
-0.04947226 0.23410383 -0.16667408 0.2443868 0.094918385 0.2617847 0.02631036 -0.15329075
-0.25266805 -0.22573648 -0.093438946 0.20021096 0.025687648 0.07297098 0.40052766 0.04113891
-0.23989242 -0.12417782 -0.03425032 -0.05437316 -0.081606805 0.11577142 0.52189696 -0.21794234
-0.04451019 -0.21554412 -0.18203609 0.084205456 -0.2574244 0.061395947 0.08390447 -0.2535526
0.13397938 0.12837517 0.08980662 -0.08373451 0.16861756 -0.030336529 -0.003378124 0.099634476
-0.5307394 -0.054719307 0.21780054 -0.0016463225 -0.23304535 0.05073923 0.165115 -0.09313545
0.141369 -0.09572932 0.13220441 0.19509178 -0.41847724 0.15218759 -0.10376575 0.24266872
-0.05155958 0.3167649 0.10711845 -0.11163002 0.23330796 -0.31641403 0.25916275 -0.24497141
-0.15897489 -0.016175777 0.18226989 -0.16144435 -0.1746648 0.017683787 -0.009126078 0.11568084
0.22969599 0.38283318 -0.19481198 -0.26939833 0.069681615 0.120239474 0.28614685 -0.4906022
-0.16846062 -0.09047138 0.18508112 0.25240988 0.0794928 -0.12544884 0.03443301 -0.13004033
-0.045930747 -0.05433642 -0.13295624 0.12183161 -0.15475477 0.1522353 -0.08433292 0.20905048
-0.14546315 -0.05235821 -0.07984285 0.06362765 0.15843776 -0.04674338 -0.1286936 0.118774526
0.17769156 0.1326729 0.2960281 -0.34680724 0.25351134 0.05121195 0.16434018 0.1459693
-0.010278758 0.06999969 -0.123048455 0.25281855 0.43395907 0.05907756 0.08342685 0.11129095
0.27598837 -0.3048062 -0.22708644 0.006880059 -0.11905488 0.16865788 -0.08484899 -0.015240477
0.3101427 0.12140507 0.31899697 -0.074851796 -0.02745358 0.012236994 -0.15236099 0.13778594
-0.119088836 -0.13812852 -0.22394904 0.0021790396 0.50868523 0.108438574 -0.03359596 0.041360784
0.061945688 0.062353242 -0.2863442 -0.059864845 0.039664786 -0.14356963 -0.15866934 0.108632654
-0.1726169 -0.06547823 0.09780721 0.3108158 -0.101659335 0.009167946 0.2382357 0.24376756
0.069654055 -0.009195219 0.18442214 -0.38163865 0.18783575 0.119367555 -0.0040475545 -0.25574604
-0.05502783 0.3671496 -0.034963887 0.0056403764 0.008242499 -0.09024893 -0.114603095 -0.09164015
0.13753109 0.061519023 0.21964018 0.17116883 -0.065967515 0.2393391 -0.19158745 0.069632314
-0.11609159 0.048627302 0.05702733 -0.21961431 -0.08847529 0.22856474 0.081612796 -0.083193064
0.09811617 0.3648365 -0.5287009 0.19106558 -0.5866727 -0.09060116 -0.2928215 0.14998977
0.12939993 -0.027209751 0.076945305 0.072382584 0.10459986 0.056566842 0.17968486 0.03634695
-0.20896481 -0.13268395 0.17471896 0.12198415 0.07613586 -0.06068435 0.05457639 0.009009433
0.09292083 -0.038488407 0.067890495 0.29227296 0.4381205 0.09742114 0.45819634 0.12476101
00000000: 75f2 9b3d 1abe a03d 2ccf 973d a108 b73e
00000010: 2e4e d0bd 3e15 463e 40e4 d63e 0281 f63d
00000020: ed79 a23e 2cd5 243d 6517 ac3e bb55 193e
00000030: 26d6 1abd 0abe 523e fabe 103c 846a eebd
00000040: 69ba a63e b4ea 4ebe 6264 30be b758 d8be
00000050: b9de c43d 6fa8 663d 42d6 a8bd 1c5f f03d
00000060: 2ea6 cc3d 7ca7 babd 3df7 7abe 03a2 bc3e
00000070: ee6b 8abe 0f63 113e aa8d 8f3c 2e78 693d
00000080: 6da3 4abd eab8 6f3e 9cac 2abe 8940 7a3e
00000090: 9264 c23d a508 863e d388 d73c 40f8 1cbe
000000a0: b55d 81be 7727 67be eb5c bfbd 1a04 4d3e
000000b0: e76e d23c cf71 953d f611 cd3e 4681 283d
000000c0: 5ca6 75be f150 febd 104a 0cbd 64b6 5ebd
000000d0: 7821 a7bd 9119 ed3d 0a9b 053f 472c 5fbe
000000e0: 5150 36bd 99b7 5cbe ab67 3abe e973 ac3d
000000f0: 22cd 83be 517a 7b3d 1bd6 ab3d a5d1 81be
00000100: e431 093e c874 033e 88ec b73d 007d abbd
00000110: 15aa 2c3e 5084 f8bc 8463 5dbb 290d cc3d
00000120: 8ade 07bf 5a21 60bd 1b07 5f3e 6bc9 d7ba
00000130: 71a3 6ebe f0d3 4f3d e813 293e ccbd bebd
00000140: 09c3 103e bc0d c4bd 9860 073e 24c6 473e
00000150: a642 d6be 10d7 1b3e 2383 d4bd 267e 783e
00000160: 2330 53bd 022f a23e eb60 db3d 489e e4bd
00000170: 48e8 6e3e 0501 a2be fbb0 843e c9d9 7abe
00000180: 50ca 22be 1083 84bc f5a4 3a3e ab51 25be
00000190: 54db 32be 97dd 903c 8c85 15bc 14ea ec3d
000001a0: 6d35 6b3e b602 c43e cb7c 47be 94ee 89be
000001b0: 3cb5 8e3d 1d40 f63d d781 923e 3630 fbbe
000001c0: f180 2cbe 0f49 b9bd e885 3d3e de3b 813e
000001d0: 1fcd a23d a975 00be a109 0d3d 4b29 05be
000001e0: e121 3cbd de8f 5ebd ae25 08be da82 f93d
000001f0: 0978 1ebe 92e3 1b3e bdb6 acbd 5411 563e
00000200: 4bf4 14be 9075 56bd a684 a3bd 374f 823d
00000210: 823d 223e fd75 3fbd 41c8 03be 0f40 f33d
00000220: c7f4 353e 68db 073e ff90 973e b890 b1be
00000230: 3dcc 813e 9fc3 513d cb48 283e fa78 153e
00000240: 3c68 28bc ff5b 8f3d d400 fcbd 6f71 813e
00000250: e22f de3e 50fb 713d b2db aa3d 82ec e33d
00000260: 594e 8d3e 8f0f 9cbe 5989 68be 1e72 e13b
00000270: 0cd3 f3bd a7b4 2c3e 4fc5 adbd 32b3 79bc
00000280: 06cb 9e3e 39a3 f83d 9253 a33e e64b 99bd
00000290: 55e6 e0bc ac7d 483c 8504 1cbe c217 0d3e
000002a0: d9e4 f3bd 9071 0dbe e652 65be 38ce 0e3b
000002b0: 3239 023f 0b15 de3d eb9b 09bd ed69 293d
000002c0: c3ba 7d3d 1d66 7f3d b59b 92be d734 75bd
000002d0: 8b77 223d eb03 13be 377a 22be cc7a de3d
000002e0: 7cc2 30be 7319 86bd 264f c83d 4023 9f3e
000002f0: c532 d0bd 2735 163c 0ff4 733e 349e 793e
00000300: c9a6 8e3d 8ba7 16bc 28d9 3c3e 2466 c3be
00000310: 0458 403e fa76 f43d 59a1 84bb 25f1 82be
00000320: dd64 61bd 08fb bb3e 4b36 0fbd e8d2 b83b
00000330: 8c0b 073c 6ed4 b8bd 07b5 eabd d5ad bbbd
00000340: f3d4 0c3e 5ffb 7b3d 5be9 603e e246 2f3e
00000350: fa19 87bd 4f15 753e 802f 44be 639b 8e3d
00000360: 6dc1 edbd 6c2d 473d 7d95 693d 93e2 60be
00000370: 8832 b5bd e00c 6a3e 9c24 a73d 2061 aabd
00000380: 21f1 c83d dacb ba3e f158 07bf b2a6 433e
00000390: 2f30 16bf 1a8d b9bd b3ec 95be eb96 193e
000003a0: 6a81 043e fce6 debc 8095 9d3d 523d 943d
000003b0: 7438 d63d a2b2 673d 4fff 373e 8ae0 143d
000003c0: dffa 55be 4dde 07be 87e9 323e d3d2 f93d
000003d0: 1eed 9b3d 2790 78bd 7e8b 5f3d 4d9c 133c
000003e0: 474d be3d 05a6 1dbd 2c0a 8b3d cda4 953e
000003f0: 5551 e03e bc84 c73d b698 ea3e b382 ff3d

layer2.0.bias f4 [32]
0.10249471 0.004289805 -0.073975824 0.113181695 0.038634036 0.049692325 0.23147005 -0.31655172
-0.013461009 -0.044173777 0.15953922 0.06228985 0.12095414 -0.2348463 0.036409307 -0.0130862165
0.0782572 -0.17784695 -0.20133927 0.04634448 0.1256055 0.04887575 0.047186036 -0.10937208
-0.120842695 -0.10684788 0.058025733 -0.22914366 -0.11153507 0.013164268 0.039283007 -0.10854666
00000000: bfe8 d13d 7e91 8c3b a380 97bd cecb e73d
00000010: b93e 1e3d 2e8a 4b3d 7c06 6d3e 1113 a2be
00000020: 908b 5cbc 90ef 34bd 405e 233e a423 7f3d
00000030: ceb6 f73d 8c7b 70be ed21 153d 9267 56bc
00000040: 5045 a03d 831d 36be e22b 4ebe b6d3 3d3d
00000050: ba9e 003e f031 483d 2546 413d 78fe dfbd
00000060: 607c f7bd 10d3 dabd 64ac 6d3d a3a4 6abe
00000070: 806c e4bd f1ae 573c 38e7 203d b64d debd

layer2.2.weight f4 [32]
1.0399079 0.90614617 0.77536696 0.8990661 1.2565393 0.99297184 1.1118718 0.82942194
1.120575 0.971476 0.94022757 0.6932164 0.8348255 0.8565558 0.7778465 1.1095316
0.9071626 0.9812475 0.97820634 1.3585083 1.0624684 1.062485 1.1558976 0.8699786
1.0480659 0.9399136 0.6579754 1.0300195 0.77697706 0.96640104 1.1922286 1.0063936
00000000: b41b 853f 32f9 673f 737e 463f 3229 663f
00000010: 48d6 a03f 6733 7e3f d151 8e3f ff54 543f
00000020: 006f 8f3f a7b2 783f c1b2 703f a176 313f
00000030: 20b7 553f 3e47 5b3f f320 473f 2205 8e3f
00000040: cf3b 683f 0933 7b3f bb6b 7a3f 9ae3 ad3f
00000050: f7fe 873f 82ff 873f 74f4 933f ebb6 5e3f
00000060: 0627 863f 2d9e 703f 1371 283f aed7 833f
00000070: f8e7 463f 0f66 773f f29a 983f 81d1 803f

layer2.2.bias f4 [32]
0.21050727 -0.16373958 -0.001682752 0.15956788 0.18008669 0.008332317 -0.005616635 -0.11276324
0.07782497 -0.3176918 0.18010174 -0.12165477 -0.15222232 0.21953297 0.012880095 -0.06316501
0.05073901 -0.22482213 -0.03673646 0.39820832 -0.026107809 0.33427992 0.013809705 -0.16308188
-0.028659172 0.020154973 -0.09613078 0.02729215 -0.12254505 -0.1481184 0.07237473 0.21234915
00000000: 388f 573e 59ab 27be ca8f dcba c365 233e
00000010: a568 383e 4584 083c c00b b8bb 6af0 e6bd
00000020: b362 9f3d 80a8 a2be 976c 383e 2326 f9bd
00000030: 2be0 1bbe 40cd 603e 0907 533c a85c 81bd
00000040: b5d3 4f3d c637 66be f878 16bd f6e1 cb3e
00000050: 0be0 d5bc bd26 ab3e 1a42 623c f0fe 26be
00000060: a4c6 eabc 0b1c a53c 37e0 c4bd c993 df3c
00000070: e6f8 fabd 5aac 17be 3439 943d 0e72 593e

layer2.2.running_mean f4 [32]
0.9583306 0.3510711 0.8320534 0.8779267 -0.65325814 0.9172462 0.3932849 -0.117846854
1.4569453 -0.28252417 1.3754226 -0.3483637 -0.17160045 -0.90405256 0.5083359 -0.71214205
1.4035733 0.7362408 0.029937398 1.2895428 0.043621875 -0.45041364 -0.44978103 -0.07881425
-0.87894684 -0.98868436 0.12020832 -0.0672627 0.19569024 -0.3230584 -0.93198395 -0.77066356
00000000: 2755 753f 97bf b33e 7401 553f cebf 603f
00000010: ed3b 27bf a6d0 6a3f a35c c93e b159 f1bd
00000020: 2f7d ba3f 02a7 90be d90d b03f ba5c b2be
00000030: 07b8 2fbe fd6f 67bf 4d22 023f f14e 36bf
00000040: 4aa8 b33f 477a 3c3f 463f f53c bd0f a53f
00000050: daac 323d 9e9c e6be b349 e6be 5e69 a1bd
00000060: a902 61bf 6b1a 7dbf c82f f63d 07c1 89bd
00000070: 0663 483e e967 a5be 8096 6ebf 354a 45bf

layer2.2.running_var f4 [32]
1.2199152 1.0389175 0.93682784 2.2412066 0.76543564 0.76707643 0.5124879 0.6760644
1.408772 1.0125326 1.770761 0.48666233 0.9775819 1.8299394 0.5874862 1.1894809
1.201589 1.1153635 1.0603178 1.1974536 0.6243997 1.1533161 0.502991 1.3992643
0.80366695 1.7178305 0.47479987 0.7912568 0.72957766 0.61134636 0.7712281 1.0167652
00000000: 2e26 9c3f 40fb 843f f3d3 6f3f ee6f 0f40
00000010: 97f3 433f 1f5f 443f 6832 033f 8e12 2d3f
00000020: a452 b43f ab9a 813f 4ca8 e23f ce2b f93e
00000030: cf42 7a3f 743b ea3f 7f65 163f e940 983f
00000040: abcd 993f 3bc4 8e3f 7eb8 873f 2946 993f
00000050: a9d8 1f3f dd9f 933f 05c4 003f 181b b33f
00000060: 1ebd 4d3f dfe1 db3f f818 f33e ce8f 4a3f
00000070: 9ac5 3a3f 3281 1c3f 346f 453f 5d25 823f

fc_advantage.0.weight f4 [20, 32]
-0.51852596 -0.17684391 0.4618333 0.12882213 -0.2463548 -0.008507407 0.008102236 0.004486013
0.048451316 -0.115911804 -0.16622446 -0.17895178 -0.20793009 0.124736756 0.1906174 0.025162308
-0.12828821 0.31264505 -0.034828223 -0.17801186 0.02912743 0.043816376 -0.39441347 -0.07424753
0.30176902 -0.13395162 0.11473279 0.048528396 -0.2711031 -0.0052972147 -0.43343997 -0.09820922
0.0168265 -0.17371036 -0.2870761 -0.2338428 0.13486405 -0.20598827 -0.06913546 -0.40956622
0.15622962 0.27263072 0.28652468 -0.023528073 0.12601288 -0.28739378 0.04484845 -0.3337472
-0.20963718 -0.5557593 -0.013281989 -0.037743866 0.4450652 -0.52193165 0.17007136 0.037546128
-0.15786369 -0.3432337 0.16830565 0.09655382 -0.015654644 -0.13950522 0.10494402 -0.27170616
0.12164921 0.13898723 -0.30175313 0.1985929 0.06743199 -0.025733769 0.0028735448 -0.08701958
-0.1972382 -0.10227041 -0.13225697 -0.3390855 -0.09162033 -0.1020602 0.115613826 0.09870167
0.0643512 0.10904309 0.45975634 -0.43707192 0.025464015 -0.3219754 -0.3211784 -0.20118444
-0.18194702 -0.46301848 0.23248859 -0.10328843 0.17847931 -0.18524955 0.23225632 0.086917095
-0.04326095 -0.389669 -0.37619406 -0.3123856 0.15701966 0.16895789 -0.23255777 -0.49115217
0.17634372 0.18742065 0.47089973 -0.1374899 -0.20597094 -0.026640942 -0.34114546 -0.06883179
0.056286406 -0.2568284 -0.076049194 0.10999881 0.092193924 0.13160868 -0.05131705 0.099224575
-0.23933344 -0.16451335 -0.1910786 0.25987044 0.17582813 -0.27472025 0.10527295 -0.04159096
-0.068142824 -0.0076201446 0.37880364 0.36143747 0.10631599 -0.37230495 -0.39692765 0.29913756
-0.15037876 0.36118123 -0.006071732 -0.05536402 0.34501883 -0.15168835 -0.24496932 -0.45072597
-0.02608642 0.11367722 -0.1832776 0.2629567 -0.46548262 0.23357384 -0.34136796 -0.23650604
0.1451266 0.28140503 0.045467876 -0.2667052 -0.08298563 0.12590066 -0.064035274 0.47476104
0.050720867 0.1668436 -0.29553622 -0.15860222 0.35396507 -0.16898431 0.054113165 0.17882818
-0.26286706 -0.11116336 -0.24266833 0.38251185 0.29294533 0.20765077 -0.25375953 0.21069859
-0.039129905 -0.14005594 -0.25574517 0.33779642 -0.33327475 -0.19232108 -0.018665716 0.13457812
0.26544785 -0.05101074 -0.01817081 -0.048433054 -0.0701743 -0.3656249 -0.06336562 -0.20386897
0.073110454 0.008617236 -0.052917067 0.06809018 -0.1573176 0.5991589 0.08530326 0.23104323
-0.24293244 0.24872176 -0.054973077 -0.11026909 -0.026943276 -0.68512595 -0.2867603 -0.13022287
-0.0058883615 -0.092896014 -0.2922439 0.045100503 -0.49016613 -0.00013912847 0.10984152 -0.07701202
-0.081648014 0.49820828 -0.005125134 0.064822145 -0.21225402 -0.029216547 -0.29855114 -0.015062429
-0.005634808 -0.09747872 -0.22594409 -0.11773214 0.113879345 0.05399255 0.047358263 0.048296817
0.11613058 -0.25031543 -0.069460414 -0.16420078 -0.20570667 -0.05546346 0.24328572 0.34761223
-0.038294036 -0.3610308 -0.2917567 0.2892936 0.00023484562 -0.14317866 -0.094684884 -0.110513166
-0.318124 -0.10730921 -0.054781564 0.13207422 0.18949398 0.13976553 -0.057159707 -0.035138175
00000000: 1ebe 04bf 9216 35be 6a75 ec3e f3e9 033e
00000010: 6f44 7cbe a762 0bbc 3ebf 043c 68ff 923b
00000020: e374 463d 2b63 edbd bf36 2abe 233f 37be
00000030: a0eb 54be fc75 ff3d 3531 433e 2f21 ce3c
00000040: fc5d 03be 0313 a03e 0aa8 0ebd be48 36be
00000050: a69c ee3c cd78 333d 90f0 c9be 170f 98bd
00000060: 7881 9a3e 9d2a 09be 06f9 ea3d b6c5 463d
00000070: 07ce 8abe 4294 adbb d8eb ddbe ea21 c9bd
00000080: bad7 893c 21e1 31be a3fb 92be 7d74 6fbe
00000090: cd19 0a3e 97ee 52be e496 8dbd aab2 d1be
000000a0: a8fa 1f3e 4196 8b3e 5db3 923e f2bd c0bc
000000b0: 8509 013e 4725 93be 02b3 373d eae0 aabe
000000c0: 21ab 56be 3e46 0ebf b39c 59bc 5099 1abd
000000d0: 96df e33e 509d 05bf 3027 2e3e f8c9 193d
000000e0: 05a7 21be 54bc afbe 5158 2c3e 02be c53d
000000f0: 2b3e 80bc 75da 0ebe e4ec d63d 121d 8bbe
00000100: 3923 f93d ab52 0e3e 637f 9abe f05b 4b3e
00000110: c819 8a3d a0cf d2bc 1552 3c3b 5237 b2bd
00000120: d0f8 49be 2673 d1bd 5f6e 07be 9d9c adbe
00000130: 71a3 bbbd f004 d1bd f1c6 ec3d 1a24 ca3d
00000140: 90ca 833d fc51 df3d 2f65 eb3e e4c7 dfbe
00000150: e999 d03c f6d9 a4be 7f71 a4be 4b03 4ebe
00000160: 5250 3abe c210 edbe 7d11 6e3e e288 d3bd
00000170: 48c3 363e 0fb2 3dbe 9ad4 6d3e 9701 b23d
00000180: 6532 31bd b282 c7be 829c c0be 01f1 9fbe
00000190: c3c9 203e 4c03 2d3e a023 6ebe 4c78 fbbe
000001a0: 7393 343e 33eb 3f3e c519 f13e 27ca 0cbe
000001b0: 0cea 52be 1b3e dabc 9eaa aebe aef7 8cbd
000001c0: 938c 663d 037f 83be aebf 9bbd 0e47 e13d
000001d0: 2bd0 bc3d 6dc4 063e d431 52bd 4136 cb3d
000001e0: d313 75be 3076 28be 1caa 43be bd0d 853e
000001f0: 4a0c 343e 22a8 8cbe 5899 d73d 485b 2abd
00000200: 778e 8bbd 68b2 f9bb 8df2 c13e 550e b93e
00000210: 33bc d93d c19e bebe 1a3a cbbe 8f28 993e
00000220: e4fc 19be bfec b83e 61f5 c6bb 62c5 62bd
00000230: 4fa6 b03e 3154 1bbe 3dd9 7abe 8ec5 e6be
00000240: 30b3 d5bc 9acf e83d 20ad 3bbe 43a2 863e
00000250: bd53 eebe fb2d 6f3e c8c7 aebe a42e 72be
00000260: 119c 143e 5214 903e 863c 3a3d 958d 88be
00000270: 5ff4 a9bd 1aec 003e ed24 83bd e113 f33e
00000280: afc0 4f3d 0cd9 2a3e 8650 97be 9f68 22be
00000290: e93a b53e 390a 2dbe c4a5 5d3d bc1e 373e
000002a0: 8396 86be 9ea9 e3bd 0c7e 78be 98d8 c33e
000002b0: eefc 953e 67a2 543e c5ec 81be 5fc1 573e
000002c0: ae46 20bd d36a 0fbe 08f1 82be a7f3 ac3e
000002d0: fda2 aabe d1ef 44be d8e8 98bc d9ce 093e
000002e0: c8e8 873e a3f0 50bd f3da 94bc bd61 46bd
000002f0: 8bb7 8fbd 3033 bbbe d6c5 81bd 07c3 50be
00000300: efba 953d 4f2f 0d3c 91bf 58bd dd72 8b3d
00000310: dd17 21be 7a62 193f 7ab3 ae3d 9996 6c3e
00000320: 48c3 78be ebb0 7e3e 732b 61bd c3d4 e1bd
00000330: 25b8 dcbc 6a64 2fbf 3fd2 92be 2559 05be
00000340: 28f3 c0bb 4440 bebd fea0 95be 4ebb 383d
00000350: 0ef7 fabe 04e3 11b9 97f4 e03d 7ab8 9dbd
00000360: 1337 a7bd 2815 ff3e bdf0 a7bb 79c1 843d
00000370: 1e59 59be 8a57 efbc b2db 98be 68c8 76bc
00000380: 32a4 b8bb eca2 c7bd e35d 67be 8c1d f1bd
00000390: 9339 e93d 4b27 5d3d bdfa 413d e2d2 453d
000003a0: dfd5 ed3d 5829 80be 4341 8ebd 4024 28be
000003b0: c5a4 52be a72d 63bd e41f 793e 3bfa b13e
000003c0: 35da 1cbd 07d9 b8be 2261 95be 4a1e 943e
000003d0: e440 7639 6d9d 12be 26ea c1bd ba54 e2bd
000003e0: 26e1 a2be eec4 dbbd a262 60bd 773e 073e
000003f0: b60a 423e b21e 0f3e 4c20 6abd 0ced 0fbd

fc_advantage.0.bias f4 [20]
-0.30581194 0.09999542 -0.063957095 0.029330337 -0.01728502 -0.07056969 -0.03350606 -0.09806889
0.13404375 0.13057305 0.4085594 -0.06260105 -0.01794507 -0.071704134 0.016518362 0.089026935
0.14523254 -0.1794963 0.09406485 0.24815683
00000000: 6293 9cbe 66ca cc3d f0fb 82bd 2d46 f03c
00000010: 5099 8dbc d786 90bd a63d 09bd 58d8 c8bd
00000020: c442 093e f1b4 053e b32e d13e fb34 80bd
00000030: 8a01 93bc 9ed9 92bd 8451 873c c153 b63d
00000040: d7b7 143e e1cd 37be 12a5 c03d d31c 7e3e

fc_value.0.weight f4 [1, 32]
0.71752334 -0.0140761165 0.20604767 0.16931912 0.4538209 0.08572873 -0.18342699 0.294069
0.27383593 0.08719956 0.21706448 -0.42594248 -0.33014557 0.30239522 0.023420967 -0.044409223
-0.0638565 0.011644677 -0.1236125 0.6964756 0.23826823 0.26831657 0.30238757 0.02090661
0.38587126 0.022877468 0.0061339554 0.1429516 -0.112404786 -0.08720249 0.5358971 0.12913828
00000000: 9caf 373f 839f 66bc 29fe 523e fe61 2d3e
00000010: 375b e83e 8b92 af3d 49d4 3bbe 3690 963e
00000020: 3934 8c3e af95 b23d 2746 5e3e 2215 dabe
00000030: d708 a9be 8cd3 9a3e 54dd bf3c 72e6 35bd
00000040: 32c7 82bd 51c9 3e3c 8d28 fdbd 3a4c 323f
00000050: 96fc 733e ca60 893e 8bd2 9a3e 5744 ab3c
00000060: eb90 c53e 8769 bb3c 59ff c83b e761 123e
00000070: 7b34 e6bd 3897 b2bd 8d30 093f d33c 043e
