models/clients/client-3/sub_model.pkl (torch, 42501 bytes, 27 tensors)

layer1_task.0.weight f4 [32, 3]
00000000: 13d1 233d 98b9 873d 0eb6 a8be 14cb 5abe
00000010: bc0b e2bd 2717 e1bc e320 4dbe ee73 d93d
00000020: 37ef 533e 7775 08bd d19b 1d3d 5c32 a43e
00000030: 2d6a 0bbd 1655 06bf 9ac5 f4bc 2e6c 933e
00000040: 69f3 3e3e b6b3 5bbe 29cf 89be 98a3 48be
00000050: 8574 4e3d 702c 23bd 2d01 e03d 1be0 cb3d
00000060: 3a7b 06be 914e a93e 3c5c 443e f5c9 fe3c
00000070: 959e 3dbe 6697 85bd 584d b1bd 616f 2e3e
00000080: 5bdc 943e 8571 f5bd 2142 7d3e b655 89be
00000090: 6265 b5be a29f 47be 0e02 4b3e c080 c13b
000000a0: 803f 4d3f 3eaf aabd 9444 a43d d55c c4bd
000000b0: f853 b7be 7664 033e 6d41 0c3e 3063 c13e
000000c0: 4baa 233e b43d d33e 7600 973e 77c7 96bd
000000d0: ed21 d23d c0d1 3bbd c655 79bb bdd2 f4bd
000000e0: 476d 9a3e 8fbb 073e 1a5c 60be 69cd abbd
000000f0: 4a00 b2be c8c3 36be 19e0 e13c ae66 453e
00000100: 071a ddbe 6bb4 333d a86f aa3e 34db d33d
00000110: 9cd7 32be ec0e 43bd 0efe 7f3d 6301 c43c
00000120: 5717 7abe 84c0 15bd e8ca 2dbe 325d 3a3e
00000130: 40f1 fabd be92 01be 8daf 5e3e 133f 043e
00000140: 3dfe 7f3e 0d0c 1fbd 6bf2 19be 2caa e13b
00000150: f994 4abe 0c0e 433e c0d7 46bd df4a 5c3e
00000160: fbf4 a1bd cdae dd3d 69f7 023e 2797 51bc
00000170: abf8 96be 7c5b 8d3e 2819 1cbf 4dea 7c3e
0.03999431 0.06627196 -0.32951397 -0.2136653 -0.110373944 -0.02747686 -0.20032077 0.10617815
0.20696722 -0.03331515 0.038478676 0.3206967 -0.034036804 -0.5247358 -0.02987938 0.28793472
0.18647541 -0.21455273 -0.26915863 -0.19593656 0.05040409 -0.0398373 0.10937724 0.09954854
-0.13132945 0.33067754 0.1917581 0.03110216 -0.18517525 -0.065230176 -0.0865733 0.17034675
0.29074368 -0.11984543 0.24732257 -0.26823205 -0.3542891 -0.19494489 0.19825003 0.005905241
0.8017502 -0.08334206 0.08020893 -0.09588019 -0.3580625 0.12831292 0.13696833 0.37770987
0.1598293 0.41258013 0.2949254 -0.07362264 0.10260377 -0.04585433 -0.003804551 -0.11954258
0.30161497 0.13255142 -0.21910134 -0.08388788 -0.34765846 -0.17848122 0.027572678 0.1927745
-0.4318392 0.04387323 0.33288312 0.10344544 -0.17465061 -0.047621652 0.062498145 0.023926442
-0.24422966 -0.03656055 -0.16971934 0.18199614 -0.12253046 -0.12653634 0.21746655 0.12914686
0.24999328 -0.038829852 -0.15033881 0.006886741 -0.19783391 0.19048327 -0.0485456 0.21512936
-0.079080544 0.10824356 0.12789692 -0.012792385 -0.29486594 0.2760886 -0.60975885 0.24698754

layer1_task.0.bias f4 [32]
00000000: d2d3 9f3c b878 c13d f0ce 8abe f4cb bebd
00000010: e712 473d eac7 453e b50c 26bd e7c7 a7bd
00000020: 9c3f cdbc fdf2 01be f5f3 653b 0cdc 823d
00000030: c4e5 a6bd c759 2bbe 5e5e 55be b260 4cbe
00000040: 2c43 013d 0fc7 71bd bd21 0b3c c1e6 973a
00000050: 4c78 86bc 4c3b a3bd fe3a 39be 3cac 033e
00000060: fa64 d3bd 1927 303d f6f1 433c 4c39 233d
00000070: c618 133e cf28 afbc 4acf b3bd 9ddd 443e
0.019510183 0.094468534 -0.27111006 -0.09316245 0.04860201 0.19314542 -0.040539462 -0.08192425
-0.025054745 -0.12690349 0.0035088037 0.06389627 -0.08149293 -0.16733466 -0.2083678 -0.19958761
0.0315582 -0.059027728 0.008491931 0.0011589156 -0.016414784 -0.07970294 -0.1808891 0.12858671
-0.10321994 0.043006036 0.011959543 0.039849564 0.14364919 -0.021381764 -0.087797716 0.19225164

layer1_task.2.weight f4 [32]
00000000: a759 883f 4dd8 753f fadc 8a3f 1d63 2d3f
00000010: b3b3 7a3f 7746 843f ad9d 6a3f 72ad 623f
00000020: 94ad 6d3f 2ecf 6c3f a053 8e3f bd16 793f
00000030: c8d8 823f fc67 973f 3db6 8d3f dbe4 6b3f
00000040: 42be 853f 477a 653f 449b ab3f 2208 833f
00000050: 13e0 933f 3ee7 943f 336c 4b3f e9c3 833f
00000060: 9431 803f 2818 5c3f f60e 753f 405c 883f
00000070: c442 753f b6f3 703f 20a5 8a3f 36cc 6e3f
1.065236 0.96033174 1.0848687 0.6772936 0.9793045 1.0334004 0.91646844 0.88545907
0.92842984 0.9250363 1.111927 0.9730032 1.0222406 1.1828609 1.107124 0.9214608
1.0448687 0.89639705 1.3406758 1.0236857 1.1552757 1.163307 0.79461974 1.0294162
1.001513 0.8597436 0.95725954 1.0653152 0.95805 0.94121873 1.0831642 0.9328035

layer1_task.2.bias f4 [32]
00000000: a3f0 523d 27ef ec3c 97f2 083d 5f96 5c3d
00000010: ddb0 94bc df89 51bd 2727 85bd 720b 993d
00000020: 6b8d 953d f38b b3bd ecca 0b3d c0b5 213e
00000030: a0b3 be3d 12ff 513d 68de 163c 876c d9bc
00000040: b054 8c3c 017f adbd 70a6 34bb 7657 f9bd
00000050: 6f73 323c de33 c9bd 398f 4cbd 5083 cebd
00000060: 47cf 67ba 38fd aebb 4ab1 d43d d255 1d3e
00000070: 2f5f 193e 947d 0c3e fadc 0dbe baca 283d
0.05149902 0.02892263 0.033434477 0.053854343 -0.018150741 -0.051156875 -0.06501608 0.07472886
0.07302364 -0.087669276 0.03412907 0.15791988 0.093116045 0.051268645 0.009208299 -0.026541008
0.017130226 -0.0847149 -0.0027565025 -0.12174885 0.010891779 -0.09824346 -0.049941275 -0.100836396
-0.00088428374 -0.0053402446 0.10385378 0.15364769 0.14977716 0.13719779 -0.13853827 0.04120896

layer1_task.2.running_mean f4 [32]
00000000: 20a7 0e45 03da 52c6 5634 4bc6 4bc1 11c5
00000010: 1aea 18c5 6d3b 9446 e34d 89c6 be63 1cc5
00000020: 1722 0ac6 4d94 fe44 1df9 b3c5 1c64 fdc5
00000030: 50fe b2c6 9ce7 1c44 913f a945 9a91 0546
00000040: 68f2 2346 f3c8 9bc5 a969 aa42 f2e7 0446
00000050: 12a1 adc6 5183 3f46 4b56 a546 e49f 5ac5
00000060: e994 74c6 457b 3946 0081 5446 0410 07c5
00000070: 9e35 48c6 9454 5d46 fb98 0446 892d 8646
2282.4453 -13494.503 -13005.084 -2332.0808 -2446.6313 18973.713 -17574.943 -2502.234
-8840.522 2036.6344 -5759.139 -8108.5137 -22911.156 627.6189 5415.946 8548.4
10492.602 -4985.1187 85.20637 8505.986 -22224.535 12256.829 21163.146 -3497.9932
-15653.228 11870.817 13600.25 -2161.001 -12813.404 14165.145 8486.245 17174.768

layer1_task.2.running_var f4 [32]
00000000: 0c5c 874a c8b3 0e4d 44a2 004d 1afe 834a
00000010: eb5c 8d4a 0365 8a4d b8f9 6a4d 99dd 9a4a
00000020: ef2f 684c e670 4d4a 671c c94b f5ea 494c
00000030: 533e c54d 3b13 a248 b491 b64b 2418 5e4c
00000040: 0e5b a44c 3527 914b 404b a047 f3ef 684c
00000050: 2eb8 bd4d d2f1 da4c 9478 ac4d cfab 134b
00000060: a78e 394d c829 da4c af87 084d bdaa 684a
00000070: e358 004d 97a7 194d 3629 614c 0ddd 624d
4.435462e+06 1.4963418e+08 1.3488237e+08 4.325133e+06 4.6321815e+06 2.9023446e+08 2.4638963e+08 5.0746365e+06
6.0866492e+07 3.3659455e+06 2.6360014e+07 5.293154e+07 4.136495e+08 331929.84 2.3929704e+07 5.822069e+07
8.616971e+07 1.9025514e+07 82070.5 6.1063116e+07 3.9787053e+08 1.1479003e+08 3.6169792e+08 9.677775e+06
1.9457086e+08 1.1438035e+08 1.431621e+08 3.8120152e+06 1.3458181e+08 1.6111858e+08 5.90246e+07 2.378836e+08

layer1_1vm.0.weight f4 [64, 40]
00000000: 8a95 95bd 9d04 233e 5c18 f13c b4af 7d3d
00000010: 0245 a03e 112c 86bd e0f2 933b 6286 92bd
00000020: 75d2 cdbc e336 91bd 003c c5bc 9448 6cbe
00000030: d747 debd 7a80 a9bd 22ca 9abe 4f39 ff3c
00000040: 4167 b5bc d39e 0e3e a264 2a3e bfa8 bcbe
00000050: 9709 c03e 3a61 a63d 51b3 5ebe cd65 213e
00000060: 6b7b cabd c8df 63bd e631 d1bd 0e4c 02be
00000070: e7ee 273d 2ebf 66be b49e 25bd 7b3c dfbd
00000080: 2680 5d3e 266d 8abd d68a 8e3e 785d c4bd
00000090: d0c8 443e 764e d23d 3899 77b9 9692 68bd
000000a0: 94f5 283b 644b 2dbe cc59 48bd 4086 383e
000000b0: 19ed 9cbd a69f 453e 9d65 1fbe 1664 ac39
000000c0: 19ef 9ebe f40c 153e 4262 82bd bb40 cf3c
000000d0: aed3 5b3e 1273 bcbb 3a34 03be e75f 0d3d
000000e0: 3adb 173e 4580 8d3d 1459 debb a6e8 b63d
000000f0: 30c5 2abd 3606 a83d 30af f4bd 4cd3 2d3e
00000100: a7f4 1abe c0b4 983d 669c c23d 8822 3d3e
00000110: e4a2 803d dd4c fbbd a4c8 2cbe 08e1 1c3d
00000120: 8651 7c3d 5904 5cbd 885c ad3d 33aa 3fbe
00000130: 29fa b5be f7f2 ad3d a66d 7f3e 256c 84bd
00000140: 07d6 ea3c ed53 88be 9a24 0abe af49 293d
00000150: 0be5 3abe 34a6 6c3e 92e1 b23d b0f2 133e
00000160: 3738 93be 041f 0fbe 351c 84bd bd5c cb3d
00000170: 7c11 0e3e 8ace aa3d b92e 8a3e e6ca 22bb
00000180: b390 923d 6855 8c3e bc37 08be 44e3 f33c
00000190: b2d8 51bd f16e 983d feb4 03be c0fc 5fbc
000001a0: f9ab de3d f577 d03d 2a95 c8be d6e9 953e
000001b0: 1f56 3abe 77e3 38be 3ad1 53be 66c2 173e
000001c0: 11aa 3a3e 5fad 18be 1b53 ce3d 0504 833e
000001d0: 994d 023e 5f78 523d 735b 2b3e 4508 80be
000001e0: 289d 31be 0d2f 99bd 5068 8f3e 5d3d 80be
000001f0: 4bdc 69bd 273c 65bd 0687 f23d dbee b03c
00000200: cbd8 25be 0519 bebd adad fcbd e7a2 c2bc
00000210: a629 bb3b a987 46be ff6b 3ebe 216c 003e
00000220: a249 9f3c 72f7 99be 7396 4d3c 54c0 673d
00000230: fe35 823d c1b5 2b3e 3c12 5c3e 6b4a c9bd
00000240: 144e 83bd 833a 403e ace5 f83d 1299 9a3d
00000250: 31fe 653e 226f d13e 6644 80bd cc35 813e
00000260: e0f5 bdbe 38de 83be eb3b 42be 1072 e1bd
00000270: 6a5f a23d be8f 1a3c 9bda 68be 3691 3fbe
00000280: c513 11be 9ae4 febd f471 a9be bea3 58be
00000290: 24a7 70be a0a9 4cbe 73d8 a6bd d257 d3bd
000002a0: 41e4 1cbe 5877 723e 13aa 923d c2d5 17bd
000002b0: bbd0 cd3c bff9 f33d 8606 32be c3f8 38be
000002c0: 4bae 93be 5393 9a3d e1eb fabc 80c2 f13d
000002d0: c81f 62be e0c9 1bbd 8903 9a3d b9e0 923c
000002e0: 1606 213e 0632 363d 1831 2bbe ef15 a4be
000002f0: 7e7d 69be 4557 0c3e 0609 cdbc 5bd2 963e
00000300: d098 373e 7bee 4c3e f1f1 0d3e 3be8 3b3e
00000310: d380 3bbe a87f 163e 6f69 cd3e b806 543e
00000320: 5b0a 00be 19c8 f03c 1fca 89bc ed11 993d
00000330: e584 bd3d d300 223e 7191 e53d 7de1 bcbc
00000340: 54d9 7c3e 8f16 0ebd 3ad0 16be 8cbd d53d
00000350: 2c04 983d 2a4c 8e3e 5953 943e 9d74 503e
00000360: a67e 503e 6a54 cc3e b810 33be 37f0 1b3e
00000370: 856c a73d a4b2 353e b256 8abd b2f3 d43d
00000380: 3ea8 b3bd 2ba0 58be 6649 8abd 3786 523e
00000390: 6d7d 033e 2a01 4bbc cbc1 9cbc 0c5e 923d
000003a0: c5f7 363d 9fac 0ebf 4d3d adbd adbc 56be
000003b0: aff8 103d 7ee3 063d f9c9 873e 3591 293e
000003c0: 97e0 bf3d f504 66be e28c 7b3d d79f 833d
000003d0: 742a 06be fdf1 75bd e09f e1bd bc4e d13d
000003e0: 7099 0e3d ee5f bb3d c086 9bbe f51e 103e
000003f0: 5935 92be 5e89 773d 22b3 f6bd 441b 913e
-0.07303913 0.15919729 0.02943056 0.06193514 0.3130265 -0.06551374 0.004515037 -0.07154538
-0.025124768 -0.07090547 -0.024076462 -0.23074561 -0.10853546 -0.08276458 -0.3023234 0.031155257
-0.022143962 0.13927774 0.16639951 -0.36847493 0.37507316 0.08124013 -0.21748091 0.1576149
-0.09886821 -0.055633336 -0.102145955 -0.12724325 0.04099932 -0.22533867 -0.040434554 -0.109002076
0.21630916 -0.067591 0.27840298 -0.0958814 0.19217229 0.102688715 -0.00023612834 -0.05678042
0.0025781142 -0.1692329 -0.048913762 0.18019962 -0.0766241 0.19299182 -0.15566106 0.00032880966
-0.31041792 0.14555722 -0.063663974 0.02529942 0.21467468 -0.005751022 -0.12812892 0.034515288
0.14829722 0.06909231 -0.0067855213 0.08931093 -0.04169196 0.0820431 -0.11947477 0.16975135
-0.1513239 0.0745635 0.09502487 0.18470204 0.06281069 -0.1227052 -0.16873413 0.038300544
0.061601184 -0.053715084 0.084649146 -0.1871727 -0.3554242 0.084936075 0.24944171 -0.064659394
0.02866651 -0.2662653 -0.13490525 0.041330036 -0.18251435 0.23110276 0.087344304 0.14448047
-0.28753826 -0.13976675 -0.064506926 0.09929798 0.13873857 0.083401754 0.26988772 -0.0024840175
0.071565054 0.2740891 -0.13302511 0.029771455 -0.051232047 0.074430354 -0.12862012 -0.0136711
0.10872645 0.1017913 -0.39176303 0.29279965 -0.18196915 -0.18055521 -0.20685282 0.14820251
0.18228938 -0.14909886 0.10074445 0.25589004 0.12724914 0.051384326 0.16734104 -0.2500631
-0.17345107 -0.07479677 0.28009272 -0.25046816 -0.057094853 -0.05596557 0.1184216 0.02159827
-0.16195981 -0.09282116 -0.123378135 -0.023759319 0.005711752 -0.19387688 -0.18595885 0.12541248
0.01944429 -0.30071598 0.012548077 0.056579903 0.063579544 0.16768552 0.21491331 -0.09828647
-0.064113766 0.1877232 0.121531814 0.07548727 0.22460248 0.409051 -0.06263046 0.25236356
-0.3710165 -0.25755477 -0.1896817 -0.11008084 0.07928355 0.009433685 -0.22739641 -0.18707737
-0.14167698 -0.12445946 -0.33094752 -0.21156213 -0.23501259 -0.19986582 -0.08146753 -0.10319485
-0.15321447 0.23678339 0.07161345 -0.03706909 0.025123945 0.1191287 -0.17385301 -0.18063645
-0.28843912 0.07547631 -0.030630054 0.11804676 -0.22082436 -0.03803432 0.075202055 0.017929422
0.15724978 0.0444813 -0.16717947 -0.32047984 -0.22801778 0.13705166 -0.025028717 0.29457363
0.17929387 0.20012848 0.13861825 0.18350308 -0.18310861 0.14697134 0.40119502 0.20705688
-0.1250395 0.029392289 -0.016820012 0.07474122 0.09253863 0.15820627 0.11209381 -0.02305674
0.24692279 -0.034689482 -0.1472787 0.10436544 0.07422671 0.27792484 0.2896984 0.20356984
0.20360813 0.39908153 -0.17486846 0.15228353 0.08174995 0.17743927 -0.06754817 0.10398044
-0.08772324 -0.21154849 -0.06752281 0.20559011 0.12840815 -0.012390414 -0.019135376 0.07146844
0.044669885 -0.5573215 -0.08458958 -0.20970412 0.035393413 0.032931797 0.2652128 0.16559298
0.09369009 -0.22462828 0.061413653 0.064269714 -0.13102132 -0.06004523 -0.11016822 0.102200955
0.0348143 0.091491565 -0.30376244 0.14074309 -0.28556326 0.060433738 -0.120458856 0.28341115

layer1_1vm.0.bias f4 [64]
00000000: 8089 823e 1acd f83d 4505 673e 418f 1c3e
00000010: 6c14 203d 74b2 b5bd 59f2 5abd cfca 0bbe
00000020: 0ba3 e5bd 44c7 ce3d d429 353e 4234 28be
00000030: 1138 76be 3201 88be 588f c4bc 3628 b0bc
00000040: f72e df3c f96c 9c3d c617 21be 1f47 48bd
00000050: fabc 6a3c 2b3f 58bb c006 ffbc b301 8a3d
00000060: f5c0 8a3c c035 a23d bbcc e4bd 19fe bdbd
00000070: c63c 1c3e ef40 693d b5b2 40bc 6de4 d2bb
00000080: 7807 843d 5954 833b cb36 0cbd 9159 9a3d
00000090: 3244 1bbe 508f 15bd e872 9e3c 0f59 24bd
000000a0: 814f b3bd b7ac bfbc b966 e3bc 9561 b4bd
000000b0: b57b 9a3c 13a4 49bc bcc4 043d 5e7d 16bd
000000c0: 6965 d33d a8cd c43d 92ef 803d a955 c3bd
000000d0: 74f1 ecbc 5e50 3e3d f843 dc3c 1fd6 e73d
000000e0: 7f49 f3bd 43ae d03c 9602 55be 2e0b 0dbe
000000f0: 3b1e 033d af3a 43bd debc 42ba a468 82ba
0.2549553 0.12148495 0.22560604 0.15289022 0.039081976 -0.08871928 -0.053453777 -0.13651584
-0.112127386 0.10096601 0.17691737 -0.16426185 -0.24044825 -0.26563412 -0.023994133 -0.02150355
0.027244074 0.076379724 -0.15731725 -0.04889595 0.014327282 -0.0032996635 -0.031131148 0.06738605
0.016937712 0.07920408 -0.11171862 -0.09276981 0.15257558 0.05694669 -0.011761357 -0.006435922
0.06446737 0.0040078578 -0.034231942 0.07536615 -0.15162733 -0.036513627 0.019341901 -0.040123995
-0.087553985 -0.023397787 -0.027758943 -0.08807675 0.018857816 -0.012307185 0.032414183 -0.036740653
0.10322077 0.09609538 0.062956944 -0.09537823 -0.028923728 0.046463363 0.026887879 0.11320137
-0.11879253 0.02547372 -0.20801768 -0.13773796 0.032011252 -0.047663387 -0.0007428656 -0.0009949398

layer1_1vm.2.weight f4 [64]
00000000: 8c57 843f 114f 6c3f a274 7e3f cdad 8a3f
00000010: 4a54 903f 29e5 7e3f 7463 7e3f f4dc 663f
00000020: 8ae0 833f 3894 943f c9ef 513f 0100 703f
00000030: 3aa2 903f 8ed6 973f f444 7f3f d69f 813f
00000040: ab9c 973f 0cc5 983f 0fcc 7a3f 8218 6b3f
00000050: bf2c 833f d4b5 8b3f a38b 7e3f e7e3 893f
00000060: d2a0 803f 53f5 673f dc1f 6a3f 92d0 823f
00000070: 0710 893f b7b0 823f 7887 643f 278c 873f
00000080: cc2b 563f ce97 8e3f 5b29 863f e3c9 6d3f
00000090: 1fde 753f a997 883f ada9 673f 0d38 4f3f
000000a0: 35e5 833f b869 823f 378e 7d3f 318c 813f
000000b0: fa99 743f 8a83 893f 00bd 943f b602 873f
000000c0: a47b 813f edda 853f 02ae 803f ab27 663f
000000d0: b08a 873f 3da3 8f3f 664b 853f 4792 823f
000000e0: 2d8d 7a3f fc09 573f 7a40 953f e132 9d3f
000000f0: 64ad 663f 01dd 883f a9aa 883f 3821 893f
1.0339217 0.92308146 0.9939672 1.083429 1.1275723 0.9956842 0.99370503 0.901809
1.0302899 1.1607733 0.8200651 0.93750006 1.1299508 1.1862352 0.9971459 1.0126903
1.1844686 1.1935134 0.9796762 0.9183427 1.024803 1.0914865 0.9943182 1.0772675
1.0049078 0.9060871 0.91454864 1.0219901 1.0708016 1.0210179 0.8926921 1.0589646
0.8366058 1.1140077 1.0481371 0.9288618 0.96042055 1.0671283 0.9049328 0.809449
1.0304323 1.0188513 0.9904513 1.0120908 0.9554745 1.0743268 1.1620178 1.0547702
1.0115857 1.0457436 1.0053103 0.8990428 1.0589199 1.1221691 1.0413635 1.020089
0.9787167 0.8399961 1.1660302 1.2281152 0.90108323 1.0692445 1.0677081 1.0713263

layer1_1vm.2.bias f4 [64]
00000000: 3a6c 133e b525 d03c 9f94 883e 5490 263e
00000010: 7cc2 773c 3354 583c 45be f93a 76d7 6b3c
00000020: 187c febd edea 933e ee26 b73d 9863 76bd
00000030: 127e b93d f2e9 9fbc eba9 053e d44a 1fbe
00000040: c9e2 c9bd 4f47 ea3d 42e6 ca3d 09bd ecbc
00000050: 64fd b33d 6469 b53d f0ef 93bd b3ff 29be
00000060: c675 22bd 72b4 223e a72d 25be 2634 2b3e
00000070: a386 e7bd 1fe0 3cbe ecdc 5c3e c352 e9bd
00000080: 070b 063d 6b00 393e 32df a53d 47d1 4b3e
00000090: e18d 1f3e 6a84 0d3d e4ae 58bb 1cd3 a4bd
000000a0: 2f20 74be 4cc4 503d f361 a3bd 8143 033d
000000b0: eb2c 163e f833 bfbd 7010 34bd 5a16 5a3e
000000c0: 2ece 21bd da22 043e 3b36 5abd 563a a63d
000000d0: 18d8 c73c 3220 d3bd 71ad df3d b985 fc3c
000000e0: 45fe 8e3c 1021 7dbc 2159 673e 7880 ff3d
000000f0: dc07 60be 224d 15be bb76 21bd b59a efbd
0.14396754 0.025408605 0.2667589 0.16265994 0.015122052 0.013203668 0.0019053897 0.014394632
-0.12426013 0.28890172 0.08942972 -0.060153574 0.09057249 -0.019520734 0.130531 -0.15555888
-0.09857709 0.11439382 0.099071994 -0.028898733 0.08788565 0.08857992 -0.07223499 -0.16601448
-0.0396631 0.15889147 -0.16130696 0.16719112 -0.11304977 -0.1844487 0.2156865 -0.11392739
0.03272536 0.18066566 0.08099212 0.19904052 0.15581466 0.034550108 -0.0033063227 -0.080480784
-0.23840402 0.050968453 -0.07977667 0.0320468 0.14665572 -0.09336084 -0.04396099 0.21297589
-0.03950327 0.1290392 -0.053274374 0.081165954 0.024395034 -0.10308875 0.10921753 0.030825483
0.01745523 -0.015449777 0.22592594 0.12475675 -0.21877998 -0.14580205 -0.03941987 -0.1169943

layer1_1vm.2.running_mean f4 [64]
00000000: fc3c fa47 3922 39c8 24b7 68c8 f5f0 ccc7
00000010: 9048 ca46 de63 e446 0f7a b3c8 b8ba 80c7
00000020: 48d2 d2c7 a414 5946 d523 8348 d66b 0747
00000030: d818 b9c8 e83a acc7 c069 82c6 8318 cdc7
00000040: c480 41c7 ba7c 97c8 eb35 11c7 abb3 2ec8
00000050: e67a a647 15c7 5c46 3a65 6e48 b93b d4c7
00000060: a158 35c8 7dec 7a47 8683 3e47 5ead e547
00000070: a967 db44 682b f7c6 2407 9ec8 8fdf 8847
00000080: a588 fec6 8eb4 0fc8 4b65 aa46 29d5 e5c7
00000090: 62c7 7647 1fc1 0cc8 afe9 d1c7 2793 3b48
000000a0: a4e6 3ec8 174c 6747 323d 5746 81ee 1f48
000000b0: 5a7a 0148 d6e5 1646 ec83 0548 19f6 d7c5
000000c0: d832 98c7 bb06 fb47 87c8 cb47 b580 64c7
000000d0: 72e3 4fc7 3950 0e48 acaa 4a47 668b 5e48
000000e0: 6692 fe47 c7b0 0647 4944 c345 cf53 a8c8
000000f0: 72e3 6148 5c55 f847 b74c 00c8 fecd e748
128121.97 -189576.89 -238300.56 -104929.914 25892.281 29233.934 -367568.47 -65909.44
-107940.56 13893.16 268574.66 34667.836 -379078.75 -88181.81 -16692.875 -105009.02
-49536.766 -310245.8 -37173.918 -178894.67 85237.8 14129.7705 244116.9 -108663.445
-185698.52 64236.49 48771.523 117594.734 1755.2394 -31637.703 -323641.12 70079.12
-32580.322 -147154.22 21810.646 -117674.32 63175.383 -144132.48 -107475.37 192076.61
-195482.56 59212.09 13775.299 163770.02 132585.4 9657.459 136719.69 -6910.762
-77925.69 128525.46 104337.055 -58496.707 -53219.445 145728.89 51882.67 227885.6
130340.8 34480.777 6248.5356 -344734.47 231309.78 127146.72 -131378.86 474735.94

layer1_1vm.2.running_var f4 [64]
00000000: 48d2 774f 8dc2 1250 ddda 5a50 973f 1e4f
00000010: 403d 214d 836f 4d4d 4f92 ec50 f1b1 8c4e
00000020: 07ea 294f 10b7 3e4c 85c4 6a50 dafa 984d
00000030: c88f 0451 f6bd de4e bef2 9c4c 2dea 2f4f
00000040: b4be 1e4e 0a0b c250 fba7 ac4d 393d da4f
00000050: 388a e04e 9c74 4a4c 2625 6a50 9b9d 374f
00000060: 54a6 0a50 0e4a 814e 9a7d 194e 5460 434f
00000070: b977 e44b 1156 584d a71e c950 6bd5 994e
00000080: a55f 7c4d 8384 a84f a530 e74c 75ec 4a4f
00000090: c1d0 734e 839b af4f e6c2 314f 4014 0a50
000000a0: 54de 0b50 ea9c 4a4e 29ea 484c 0fda ce4f
000000b0: 1462 8a4f 2a8a bb4b 6132 854f 5785 ac4b
000000c0: 320d bd4e fa9b 614f 0b95 264f 66aa 474e
000000d0: c60b 224e fc7b a14f 96c1 264e cc72 3850
000000e0: b324 7a4f df0b 904d 4ef8 e64b c497 c850
000000f0: 988d 3c50 8c37 624f f9ea 8c4f acc9 3f51
4.1577533e+09 9.848894e+09 1.4687106e+10 2.6549676e+09 1.6907162e+08 2.1541483e+08 3.1752092e+10 1.1802359e+09
2.8506867e+09 4.9994816e+07 1.5754991e+10 3.2082208e+08 3.5584246e+10 1.8684956e+09 8.228606e+07 2.9513597e+09
6.658245e+08 2.6044027e+10 3.6208624e+08 7.322891e+09 1.8835773e+09 5.3072496e+07 1.5713212e+10 3.0805594e+09
9.304625e+09 1.084557e+09 6.437864e+08 3.27787e+09 2.9945714e+07 2.2684494e+08 2.6993834e+10 1.2904503e+09
2.6463291e+08 5.654513e+09 1.2121015e+08 3.404494e+09 1.0226361e+09 5.892409e+09 2.98234e+09 9.266332e+09
9.386414e+09 8.498203e+08 5.266858e+07 6.9407944e+09 4.643367e+09 2.4581204e+07 4.4693427e+09 2.2612654e+07
1.5858793e+09 3.7850957e+09 2.7947855e+09 8.374583e+08 6.7967014e+08 5.4185144e+09 6.994262e+08 1.2378124e+10
4.196709e+09 3.0208714e+08 3.0273692e+07 2.6923114e+10 1.2653584e+10 3.7952911e+09 4.728419e+09 5.148264e+10

layer1_2vm.0.weight f4 [32, 64]
00000000: 2a0d 863e 249c 21bc 7e24 8e3e be8e 2abe
00000010: e2fd d13d d8e8 5d3c ebd3 a63e 603b 6d3e
00000020: f06c 523e 34cf 10be 9b19 943e afc5 23bd
00000030: bf37 563d 4ca6 eabd 29af 2d3e 7fc4 18be
00000040: 76fd 6fbe 9b8b 0abd af14 ec3e 55ef 483e
00000050: 9d95 43be da42 3bbe 8cb2 9abd 48c2 fabd
00000060: ddb2 043e 065d 21bd b5a5 d93d fa80 773d
00000070: df91 253e 5a17 c6bd 95ff d93d beba a5bd
00000080: 48bd 26bc db6d 073e abb2 cabb b0d4 15be
00000090: 709e 08be 7f80 cd3d 3c79 f8bb d0f3 16be
000000a0: 958c 0b3e de10 153e ed7a c23d 2486 5c3e
000000b0: 3520 2fbb 7e2a 053e 3d27 a2be ec1e 54be
000000c0: 07c8 183d f6b6 81bc 97d9 2dbe 6a1c 9dbe
000000d0: dd4c 483e 5ce0 383b 38ff d23d 0383 b2bd
000000e0: 3924 0a3e 5b78 5e3e 8803 a7bd 6e8f 94be
000000f0: 91d1 983d a113 d83d 8338 78bd 89ef 41be
00000100: 0625 663d 2c83 fe3d 8a77 813e dab2 99be
00000110: f6bb 913e 9521 0d3e 9ff4 babe 8016 85be
00000120: 8543 093e b493 56be 47b4 f73d a64d 533c
00000130: c285 e6bd 9532 ecbb 6171 93be e39d febd
00000140: 30b1 753d ead1 ca3d dbcd e93e fd14 133e
00000150: 9d22 18be 998f 363e caac a23d 25fd 56bd
00000160: 496b 03be e0e2 833c 15b6 9bbc 0870 70bd
00000170: f4be 293e c70e 85bc fe47 c1bd 6b36 e93d
00000180: 47e3 1a3d 83c7 b5be 86ef 8ebe 466a 8fbd
00000190: 868d c3bd 92c6 3abe da1f 993d 1f64 01be
000001a0: 1982 adbe 8d60 d9bd 35aa d13d 4d0a c1bd
000001b0: 0cad 463d b7dc 57bd 1255 8ebe f80c 883e
000001c0: f26d 95be 56e2 5dbe fcfe fe3d 0a7b 27be
000001d0: 80c8 35be 13c7 923d c0d5 b6bb a67b 153e
000001e0: c550 02be 5d8a 51be 280c 1dbd 943d db3d
000001f0: 4574 68bd 29c3 f43b 8021 133e ead4 a63d
00000200: 59e3 d0bd cfa9 973e 3666 2dbd 58de 4c3d
00000210: 4082 2d3d 2d97 ca3e 5c34 5fbe 468e aabe
00000220: be4f 963c dbe9 71be d33f cc3e 9c99 b6bd
00000230: 83f0 d5be 8c11 5f3e 395f aa3e 14f8 943e
00000240: 96ea 983e 6f32 82bd 8fa8 03be 9038 f8bd
00000250: 3813 25be b6ab 843e 80f0 6dbe 3131 663d
00000260: b643 60be c439 643e 1a35 d0be 9387 e53d
00000270: ef02 9f3c f1ea 84be c767 e9bd 369f 04be
00000280: 8b96 40bd 41d3 873d c0bc e3bb 393f 753d
00000290: f1a3 2a3e e82b 80be e021 3d3e 63b5 0fbe
000002a0: b7ce 81bd c74d 24be 5c67 783e 6f14 c63d
000002b0: c658 eb3d 5388 853d d1c3 2c3e 1637 3f3e
000002c0: 3f2b 21bd 6ea2 d9be ca29 d13d 0356 553d
000002d0: 540f 5abc 3757 403c e7c2 ddbd e6d9 b4be
000002e0: 6777 dd3e 137f aabe 67cd 853e 2196 b9bd
000002f0: 944a bf3d 2645 273e 6595 cabe f1a3 3dbe
00000300: 1e93 fa3d 3bce 76be 604a 993d 9df5 823d
00000310: 39ad 14bd 250e f43b 6ae1 d7bc 3fcd 6fbe
00000320: 8277 bc3d 000c 203d 2aa3 283d ee82 85be
00000330: 4aa4 e2bc 9c9d 2ebc 60d3 afbe 4ed2 80bd
00000340: 61bd 203e c046 da3c 74d8 d03d 0934 48be
00000350: 43b0 893e ec69 923d 4533 ad3d c742 77bc
00000360: c057 863d b6e7 a7be 49ae e53d 909a 1cbe
00000370: eeb5 be3d 1e05 47be 25bc a93e cd46 86bd
00000380: 898b 3b3d cfce 0cbe 8e8b e03c 56dd 483e
00000390: 627b 073e 2731 64be 9ac9 15be d053 abbd
000003a0: 89a6 eebd 3e3c 833d 79d5 b23d d65d 923d
000003b0: 2bad 573d 9ec5 5a3e e66c 4a3e 214e 323e
000003c0: be6c b3bd 80a1 99be 25c7 5f3e 6e10 18ba
000003d0: 13b2 12be d896 083e 3967 a83d 0efd 263c
000003e0: 031c 1dbd 5bbb c4bd 88fa 8abe 9579 83be
000003f0: a06a ecbd c47b 1f3d 55d7 f6bc 8675 ce3d
0.26181918 -0.009863887 0.27762216 -0.16656014 0.102535024 0.013544284 0.32583556 0.23167181
0.20549369 -0.14141542 0.28925785 -0.039983448 0.052299257 -0.114575 0.1696135 -0.14918707
-0.23436531 -0.033824544 0.4610953 0.19622548 -0.19100042 -0.1828722 -0.07553586 -0.122440875
0.12958856 -0.039395355 0.10627309 0.060425736 0.16168927 -0.09672423 0.106444515 -0.08092259
-0.010176964 0.132255 -0.0061858497 -0.14631915 -0.13341689 0.10034274 -0.0075828116 -0.14741445
0.13627847 0.14557216 0.094961025 0.21535546 -0.0026722078 0.1300449 -0.3167056 -0.20714921
0.037300136 -0.015834313 -0.16977535 -0.3068574 0.19560571 0.00282099 0.10302585 -0.08716395
0.1349038 0.217256 -0.081549704 -0.29015678 0.074618466 0.10550619 -0.06060077 -0.18939032
0.056187652 0.12427363 0.25286514 -0.30019265 0.28463715 0.13782342 -0.36514756 -0.2599373
0.13404663 -0.20954782 0.12094932 0.012896931 -0.11255981 -0.0072081783 -0.2879744 -0.12432458
0.059983432 0.09903319 0.45664868 0.14363475 -0.14856954 0.17828216 0.07943113 -0.05248751
-0.12833895 0.016099393 -0.019007722 -0.05870059 0.16576749 -0.016242398 -0.094375595 0.113873325
0.037814405 -0.35503778 -0.27917117 -0.07002692 -0.09548478 -0.18239811 0.07476778 -0.1263585
-0.3388832 -0.10614119 0.102375425 -0.09425793 0.048504874 -0.052700724 -0.27799278 0.26572394
-0.29185444 -0.21668372 0.12450978 -0.1635553 -0.17752266 0.07166877 -0.00557968 0.1459795
-0.12726124 -0.20462938 -0.03834167 0.107051045 -0.05675151 0.007469554 0.14368248 0.08146079
-0.10199613 0.2962174 -0.042333804 0.05001673 0.042360544 0.39568463 -0.21797317 -0.3331167
0.01834857 -0.23624365 0.39892444 -0.089160174 -0.41785058 0.21784037 0.33275774 0.2909552
0.29866475 -0.06357276 -0.12857269 -0.121201634 -0.16120613 0.25912255 -0.23236275 0.056199256
-0.2190083 0.22287661 -0.40665513 0.11207499 0.019410579 -0.25960496 -0.11396747 -0.12951359
-0.04701857 0.0663209 -0.006949991 0.059874747 0.16664101 -0.25033498 0.18469954 -0.14034037
-0.06338256 -0.16045295 0.24258178 0.09671866 0.114915416 0.065201424 0.16871573 0.18673357
-0.039347883 -0.42506737 0.10213049 0.05208398 -0.013309319 0.011739544 -0.1082819 -0.35322493
0.4325516 -0.33300075 0.26133272 -0.09061838 0.093403965 0.16334972 -0.39567104 -0.1851957
0.122350916 -0.24102108 0.07484889 0.06394503 -0.03629801 0.007447975 -0.026352603 -0.23418139
0.09202482 0.039073944 0.04117123 -0.26076454 -0.02766623 -0.010657694 -0.34340954 -0.062901124
0.15697242 0.026645064 0.10197535 -0.195511 0.2689229 0.07149109 0.084570445 -0.015091605
0.06559706 -0.3279397 0.11214883 -0.15293336 0.09312044 -0.19435546 0.33151355 -0.06556473
0.045787368 -0.13750766 0.027410295 0.19615683 0.1323066 -0.22284375 -0.14627686 -0.08365595
-0.11652858 0.06407975 0.08732123 0.07146804 0.05265538 0.21364447 0.19768104 0.17412616
-0.08760975 -0.30006027 0.21853311 -0.0005800788 -0.14325742 0.13338792 0.08222813 0.010192169
-0.038356792 -0.09606048 -0.27144265 -0.25678697 -0.115437746 0.03893639 -0.030131975 0.100810096

layer1_2vm.0.bias f4 [32]
00000000: 13a6 4abd 4124 51be f199 e0bd 6f63 93bd
00000010: ebfa 753d d2c1 cfbc e6df ae3d 9b4b 5abc
00000020: 7658 6ebd e16b 9e3d 33da 29be 104e 5cbe
00000030: 5e68 293e cff8 ddbc f946 4dbe 0275 f2bd
00000040: 6e01 553b 407c e53c a6c1 b7bd 5e34 d0bc
00000050: 7325 32bd c374 213d 1d92 c03d bd45 d9bb
00000060: 46b0 a6bd 29e3 febd f9da afbd 81f4 803c
00000070: 7dff 063e 0612 503d b1c4 a73d c543 853c
-0.049474787 -0.20423986 -0.10966862 -0.071967 0.060053747 -0.025360975 0.08538799 -0.01332369
-0.05818983 0.0773542 -0.16587143 -0.21514153 0.16543719 -0.02709618 -0.20046605 -0.11838724
0.0032502073 0.028013349 -0.089724824 -0.025415596 -0.043492746 0.039417993 0.09402869 -0.006630628
-0.0813909 -0.12445671 -0.085866876 0.015741589 0.13183399 0.05079844 0.08191813 0.016267667

layer1_2vm.2.weight f4 [32]
00000000: ec4f 623f 83c8 853f c717 7d3f 1d6a 833f
00000010: 0b94 883f 2a53 553f 60bf 6a3f 64cc 8a3f
00000020: 052a 613f 6972 543f 4e6b 633f 556c 883f
00000030: e8df 753f e26e 923f 3631 613f 320d 8d3f
00000040: 3e1f 913f 597a 8c3f 6e66 7b3f e5e3 903f
00000050: 4a7d 6a3f c56f 873f 30b1 a13f e5a2 733f
00000060: e3dd 8a3f 8770 9c3f 00c7 753f b868 5f3f
00000070: ae7f 853f e0e3 7e3f 34e3 523f ca67 903f
0.884032 1.0451816 0.98864406 1.0266758 1.0670179 0.83330023 0.91698265 1.0843625
0.8795474 0.82987076 0.8883561 1.065806 0.9604478 1.1440089 0.87965715 1.1019652
1.1337659 1.0974838 0.9820317 1.1319548 0.91597426 1.0580984 1.2632198 0.9517043
1.0848964 1.2221841 0.96006775 0.87269163 1.042959 0.9956646 0.82377934 1.1281674

layer1_2vm.2.bias f4 [32]
00000000: 70f4 063d 6748 86bd c2cc 4bbe 94d7 14be
00000010: 503d 453e e05e 193d c31d e4bc 096c b03e
00000020: 63fc 44bd 0e7b a1bd faed b6bc 32a7 d3bd
00000030: a59e a9bd f22f dbbd 2b01 0cbd bda5 23be
00000040: 5518 ca3c bce1 513e 093a 1f3e 0716 08bd
00000050: a0da e73d 3d15 14be ee3c f13d 2901 1d3e
00000060: d1f6 6c3e 7273 c2bc 063f 7c3b aa62 683d
00000070: c1ae 12bd c60e c53c 14ce 323e eb02 f0bd
0.032947958 -0.065567784 -0.19902328 -0.14535362 0.1926167 0.037443995 -0.027846223 0.34457424
-0.048092257 -0.07884799 -0.022330273 -0.10334624 -0.08282212 -0.10702504 -0.0341808 -0.15981193
0.024669806 0.20496267 0.15549482 -0.033224132 0.11320996 -0.14461227 0.117791995 0.15332474
0.23141028 -0.02373669 0.0038489713 0.05673472 -0.03581119 0.024054896 0.17461425 -0.117193066

layer1_2vm.2.running_mean f4 [32]
00000000: 8e83 8f3e 1491 80bf 604c 46be 4554 c0be
00000010: 06aa 8dbe 982c 133f b65c 56bf f4f6 c8be
00000020: 5813 453f 5d5e 3cbf 567d fcbe 98b2 693f
00000030: ef46 ba3d 3da7 eabe f97b 80bf 4298 93be
00000040: cc5a 42bf 2ec6 50be a125 4e3f 5a63 243e
00000050: 3e25 8cbf 1805 4c3f 3c1f 1bbf 7467 c23d
00000060: b980 e03e aa15 aa3e b81d bd3d f8d3 493e
00000070: da05 213f e4ea 6e3f da7c b63e 5892 9cbe
0.28030056 -1.0044274 -0.19365072 -0.37564293 -0.2766878 0.5748992 -0.83735216 -0.3925091
0.7698264 -0.73581487 -0.49314374 0.9128814 0.09095561 -0.45830718 -1.0037833 -0.288271
-0.75919795 -0.203881 0.8052617 0.16053525 -1.0948865 0.7969527 -0.60594535 0.09492388
0.43848208 0.33219653 0.09234184 0.19709766 0.62899554 0.93327165 0.3564213 -0.305804

layer1_2vm.2.running_var f4 [32]
00000000: 49ce 8a3f c65a b83f d589 973f 2cb2 3f3f
00000010: 6c9b 8d3f 5be4 913f 844f 0d40 08d0 6b3f
00000020: a6a5 ad3f 4b7a 7a3f d34f 823f a1c0 863f
00000030: e7af 5b3f 17a4 8c3f b89e 9b3f e0f3 c53f
00000040: fc97 933f 8fbd a03f 2bc1 9a3f 72e0 883f
00000050: c150 da3f 2ee0 b73f 31f4 7e3f c187 a43f
00000060: 4e93 aa3f 48e2 5a3f e924 763f 9f7e 6e3f
00000070: 39d1 aa3f ce2e 963f 8b8e 583f fb04 923f
1.0844203 1.4402702 1.1838938 0.74881244 1.1063056 1.1397814 2.2079782 0.92114305
1.3566177 0.97842854 1.018061 1.0527536 0.8581528 1.0987576 1.2157812 1.546505
1.1530757 1.2557849 1.20902 1.0693495 1.7055894 1.4365289 0.99591357 1.2853929
1.3326204 0.8550153 0.9615007 0.9316196 1.33451 1.1733034 0.84592503 1.140777

layer2.0.weight f4 [32, 64]
00000000: 774e 0fbe 3a91 8e3d 0726 7c3c 07f7 9b3e
00000010: 68eb c93d 6f6a 673e 1f8f b43e 2f55 a33c
00000020: 88f1 633e 630f a7bd 0942 7e3e fec0 a73d
00000030: 4471 09bc 9a47 95bd ecc0 033e 8339 4bbe
00000040: 44cc 7c3e 912f 60be 2f21 36be 404f 9fbe
00000050: 9900 7f3e 3e32 9dbd e87a 4dbd d437 0f3e
00000060: c35b ae3e 4687 3f3e ae09 92be 8688 783d
00000070: a830 4fbe bc20 403d 89a8 f53d 3dc0 dd3d
00000080: cacb a0be cc76 a83e 40ee b63d 303b 323e
00000090: 385f 5e3e 963c 2d3d b254 393e 40dd 263e
000000a0: c59e 4fbe ca0c e1bc c37e 13bd 3f3c 113e
000000b0: dd8c 08be d0e4 a6bd 81b7 963e 7a0b febd
000000c0: 4574 dfbd f4bc 78be 0aaa 8b3d 5f61 7ebe
000000d0: 7c00 323d 1b5c 86bd f1de c13e ba61 90be
000000e0: 748a e7be 0fec d2bd 3cc4 95bd bcb3 44bd
000000f0: 23c9 1cbe 7e41 1e3d 4c53 0e3e b998 e0be
00000100: 4bbc be3e ad3f efbd e8f5 f1bd 48ce 0abe
00000110: e156 033f e481 02bd fac6 09bd 861c 8e3d
00000120: 423c 13be 9f05 21bd 3c5b 373e ccb7 003c
00000130: 2232 8abc 3570 b43d e474 d63d 0baf 6d3e
00000140: e160 bc3e 24a5 2c3d 8351 7ebd 8d69 143d
00000150: 3403 f5be c321 023e 3100 413e 76c7 a93e
00000160: 07c3 30bd b370 083d c083 663d ec57 ccbb
00000170: 3a50 adbc f6c4 a6bd 6bb8 e13d b417 5abe
00000180: 90f7 74be 2b99 c9bd f1e3 9ebd a351 5abe
00000190: 877b 99bd 612c 3f3d 3c53 57bc 13ea ccbd
000001a0: e553 c63e 395f bd3e 09f1 27be ce29 96be
000001b0: becf 883e b423 2b3d 77c3 a13d 58c6 babe
000001c0: a9b3 80be 994e 393e 59b3 033d b27c 3a3e
000001d0: a606 1e3c f7a4 c43d dc1a 16be 6036 47be
000001e0: 0778 c3bd 61a4 89be f435 20be 181c b2bd
000001f0: 878f 33bd c288 5d3d ae04 863d 8f82 803e
00000200: 7e7e 8fbc 0832 0bbd 317f 80bd 3a4d 253c
00000210: 83bc fc3d 6a9c 0fbc 7ee9 c03b d90b 033e
00000220: 4294 ccbb 38ee c53d 41dd 8fbd 9f41 adbe
00000230: 2693 3d3e 2cf0 033e 9bd7 e3bd eedb 523d
00000240: 6d93 16be 65e7 af3d 7f4e 03be 03d3 873e
00000250: 1c7c 053e 84ee aa3c a97d 0ebe e725 42be
00000260: 6be0 093d 569f 90be 64a3 82bd 5247 353d
00000270: 690a 08bd 7ee5 4e3e a508 0cbe 02fa 49be
00000280: be5a f33e fd54 513c b489 043f 477e 953d
00000290: 277d 513d 1707 c1be ea8e 41bc c426 0abe
000002a0: 4d4c 883d acc6 c23d e5d5 353c 6f2d f73d
000002b0: f490 ea3c 0448 833e 53b9 f3bd 5cba 9e3b
000002c0: 225f 55be 46c2 a33e c5df 8ebe eaae 07be
000002d0: 3fb4 3dbd fa64 553e d298 4fbd 2f83 db3d
000002e0: 21e4 10be ba9a 18be 0b9f 413d 164c 073d
000002f0: f2bc f7bc 8cc7 e53d a097 723d d016 893e
00000300: 7bcf 9f3c 28fc 73be 6d16 1f3e 5cfe 803c
00000310: fe7b a13c 067f bd3d 3108 b2be 8358 64be
00000320: b9ef 60bd 4306 833e 66ff a9bd 093c b8bd
00000330: 54d1 0ebe 467b 70bd 9c1c aa3d dbc3 63bd
00000340: 3bf6 ce3d 93df 353e 9fe9 9a3d 267c 773e
00000350: e3cd 93bd 91b4 043f 3208 8b3d 1a16 793d
00000360: eb9b cdbd 2de1 7a3d d168 383d f81d 0a3d
00000370: 5676 3ebe cf0d 4cbd 16c8 a63e fdfc 4ebd
00000380: 8427 90bd a3d2 d23e c13f 1bbe 79cd 523d
00000390: 7908 b0be 1d86 93bd 9ece 2ebc 459a 333e
000003a0: 8ed3 173e 5243 663e 84d1 483e d917 6e3e
000003b0: 9a44 cc3d edc9 3d3e e77f 23be 2d94 6bbe
000003c0: e45d 73be 2a4d efbc 2a48 063e 4abd 26bd
000003d0: b836 783c b952 b4ba fb73 42bd b80e 65bd
000003e0: 5d53 36be ea49 65bd ff8b 57bd 0969 883c
000003f0: 950f d13e b899 1ebe 5946 fa3e c7b3 d63c
-0.13994776 0.069612935 0.015389926 0.30461904 0.09859353 0.22599195 0.35265443 0.01993808
0.22260106 -0.08157232 0.24829878 0.08191107 -0.008388821 -0.072890475 0.12866563 -0.19846158
0.24687296 -0.21893145 -0.17786096 -0.3111515 0.24902572 -0.076755986 -0.05016604 0.1398614
0.34054384 0.18703946 -0.2852301 0.060677074 -0.20233405 0.046906218 0.11995036 0.10827682
-0.3140548 0.32903135 0.08932161 0.1740539 0.2171601 0.042294107 0.18098715 0.16295338
-0.2027541 -0.027471919 -0.03600956 0.14183138 -0.13334985 -0.08149111 0.29436877 -0.12404533
-0.109108485 -0.2429083 0.06819542 -0.24841832 0.043457493 -0.065605365 0.37865403 -0.2819956
-0.4522282 -0.10298931 -0.07312819 -0.04802297 -0.15311103 0.038636677 0.13898963 -0.43866518
0.3725303 -0.11682067 -0.11814481 -0.13555253 0.5130444 -0.031862155 -0.033637024 0.06939034
-0.14378455 -0.039312 0.17905897 0.007856321 -0.016869608 0.08810464 0.10471514 0.23211305
0.36792663 0.042149678 -0.062089454 0.036233474 -0.47854006 0.12708192 0.1884773 0.3315999
-0.043154743 0.033310603 0.05627799 -0.006236067 -0.021156419 -0.08143036 0.11021503 -0.21298105
-0.23922563 -0.098436676 -0.0775832 -0.21320204 -0.07494264 0.046673182 -0.013142403 -0.100055836
0.3873588 0.36986712 -0.16400541 -0.2932877 0.26720995 0.041782096 0.0789861 -0.3647945
-0.2513707 0.18096389 0.03215346 0.1821163 0.00964514 0.09601777 -0.14658684 -0.19454336
-0.09544378 -0.26883224 -0.15645581 -0.08696765 -0.04383805 0.0540855 0.06543861 0.25099608
-0.01751637 -0.03398326 -0.0627426 0.010089213 0.12340643 -0.008765319 0.0058872094 0.12797488
-0.0062432596 0.09664577 -0.07024623 -0.33839127 0.18513164 0.12884587 -0.11125108 0.051479273
-0.14704676 0.08589057 -0.12822913 0.26528177 0.13035625 0.020865686 -0.13915123 -0.18959771
0.033661287 -0.28246564 -0.063788205 0.04425747 -0.033213053 0.20204732 -0.13675173 -0.19724277
0.47530168 0.01277661 0.5177262 0.07299476 0.051144745 -0.37700722 -0.0118138585 -0.1349135
0.06655178 0.0951055 0.01109836 0.12069213 0.028633572 0.2564088 -0.11900582 0.004843993
-0.20837072 0.31984156 -0.27905098 -0.13250318 -0.046314474 0.20839301 -0.05068285 0.10718381
-0.14149524 -0.14902773 0.047270816 0.033031546 -0.030241463 0.11219701 0.059226632 0.26775217
0.019508114 -0.23826659 0.15535899 0.015746288 0.019712444 0.092527434 -0.34771875 -0.2229939
-0.054916117 0.25590715 -0.083006665 -0.08995826 -0.1394704 -0.058711313 0.08306238 -0.055606704
0.101055585 0.17761068 0.07564091 0.24168453 -0.07217004 0.5183802 0.067886725 0.060812093
-0.100395046 0.0612499 0.045021836 0.033719987 -0.18599829 -0.049817856 0.32574528 -0.050534237
-0.07038787 0.41176328 -0.15161039 0.051465485 -0.34381464 -0.072033145 -0.010669379 0.17539318
0.14826795 0.22486618 0.19611174 0.23251285 0.09974022 0.1853406 -0.1596676 -0.23005743
-0.23766285 -0.0292116 0.13113466 -0.040707864 0.015149765 -0.0013757563 -0.04747389 -0.05592224
-0.17805238 -0.055978693 -0.052623745 0.016651647 0.408322 -0.15488327 0.48881796 0.026208771

layer2.0.bias f4 [32]
00000000: d931 b33e 7981 2abd 9c85 403e 833b 75bd
00000010: a1ad 5b3b 0352 ae3d 4eb2 78bd dd6f f4bd
00000020: a263 13be e588 a53c 3279 52bd 70d3 bfbd
00000030: afbf 983d 14cb 533e cb5d 293b 06c4 1bbd
00000040: 274a e7bd 4754 ccbd 2932 af3d d9f1 aa3d
00000050: 9fbc 76be 53bc a9bc 6ecd 1c3e db74 a5bd
00000060: 8beb c03d 3924 213e 239e 093e 4c41 45be
00000070: 17ae 103e bf3d 193e 1cbf 64be 2a86 76bb
0.34998968 -0.04162738 0.18800968 -0.059871208 0.003352024 0.08511736 -0.06071692 -0.11935399
-0.14393476 0.020206878 -0.051385112 -0.093665004 0.07458436 0.20682937 0.0025843258 -0.03802874
-0.1129344 -0.09977012 0.08554489 0.0834691 -0.2409539 -0.020719683 0.1531274 -0.08078929
0.09419926 0.15736474 0.1343923 -0.1926319 0.1412891 0.1496496 -0.22338527 -0.003761659

layer2.2.weight f4 [32]
00000000: 9b71 ab3f 5195 803f 2c12 6d3f 8a7e 8e3f
00000010: b9f2 8c3f 6a36 7f3f 7989 703f 53d7 6b3f
00000020: ace0 8a3f 4d87 8f3f aaa4 a53f 7a63 6f3f
00000030: 5a93 7f3f 5054 8e3f 30e3 843f 463f 7e3f
00000040: 802f 5b3f 9a37 8b3f 31f5 8a3f 0199 7a3f
00000050: b8bd 533f 52b6 8c3f 7dc7 8e3f 268d 4f3f
00000060: 1191 863f c978 403f 0c16 653f 56c9 833f
00000070: fb4b 543f c531 8d3f 7317 a43f d3b0 6a3f
1.3394045 1.0045568 0.92605853 1.1132367 1.1011573 0.99692404 0.93959767 0.92125434
1.0849814 1.1213166 1.2940876 0.93511164 0.99834216 1.111948 1.0381832 0.993153
0.85619354 1.0876343 1.0856076 0.97889715 0.8271136 1.099314 1.1154629 0.8107475
1.0513021 0.75184304 0.89486766 1.0295818 0.82928437 1.1030813 1.2819656 0.9167606

layer2.2.bias f4 [32]
00000000: 30e9 a93e 46c7 0fbe a8e7 393e 3f6f d83e
00000010: 8f30 243e 0ded 873d 3339 ccbd 3e87 c0bc
00000020: 0ae2 803e 6462 f93d 98ae e73d 3de7 e1bd
00000030: 0f6f 2abe 8e16 433e bc8b 423e 8e85 7c39
00000040: 2367 fe3d 334b 813d 5df8 f9bc feb7 c13e
00000050: 349b 263d f7ba 953d 5ae3 223e 826b b6be
00000060: 50b5 743d c4bf 04be 6e7e d5bd 0305 153e
00000070: 1069 f1bd bb21 463e 4225 403e 6cda c93d
0.3318572 -0.1404086 0.18154776 0.42272374 0.16034149 0.06637011 -0.099718474 -0.023501989
0.25172454 0.1217697 0.11312598 -0.11030433 -0.16643928 0.19051573 0.18998617 0.00024082346
0.124220155 0.06313171 -0.030513937 0.37835687 0.040675357 0.07311051 0.1590704 -0.35628897
0.059743226 -0.12963778 -0.10424505 0.14552693 -0.11787617 0.19348805 0.18764213 0.09856114

layer2.2.running_mean f4 [32]
00000000: 7687 323f 19a3 5a3d 493c 983e f092 f23e
00000010: ae0b 33bf b5cc 193e c0ec dabe fc92 f53e
00000020: f2d5 1e3f b8d2 1c3f c7e1 1f3f 8121 46be
00000030: ae59 79be 135e 60be 76da fc3d 5d83 1bbf
00000040: e2ec 843f 3762 8e3f a594 713e 0f89 423f
00000050: 6bbc 62bf 4eb7 99bf 600f 4e3f d17f 683f
00000060: 3fc7 a9bf 5828 e03d 6778 ff3e 2f1a 97bf
00000070: 26a3 323e 9002 a5bd f38f 44bf a1c0 68bf
0.69737947 0.0533782 0.29733494 0.4737773 -0.69939697 0.15019496 -0.4275875 0.47963703
0.62045205 0.6125903 0.62453884 -0.19348718 -0.24350616 -0.21910886 0.123463556 -0.6074732
1.0384791 1.1123723 0.2359186 0.75990385 -0.88568753 -1.2009065 0.8049221 0.9082003
-1.326393 0.10945195 0.49896547 -1.1804866 0.17445049 -0.080571294 -0.7678215 -0.9091893

layer2.2.running_var f4 [32]
00000000: b10b da3f c886 a03f 2f6b 253f 6a6d 1940
00000010: 2430 623f d5ea 133f edca 303f 54b2 443f
00000020: dc96 823f 807c 5b3f 9bbe 893f f8f7 573f
00000030: 1295 533f eff0 593f c005 8a3f 1bb6 483f
00000040: 8e44 2840 6ed7 cd3f 0356 9c3f 4806 273f
00000050: 13f5 7f3f 12eb ad3f 60f2 283f 28ae 913f
00000060: 39d3 a53f 60d4 683f 7996 733f c891 bd3f
00000070: ec27 633f d4ee 443f 305d 803f 1b27 6c3f
1.7034818 1.2541132 0.64616674 2.397303 0.88354707 0.577802 0.6905964 0.7683461
1.0202289 0.85736847 1.0761293 0.84362745 0.8264934 0.8513326 1.0783005 0.7840287
2.6291842 1.6081369 1.2213749 0.6524396 0.9998333 1.3587363 0.65994835 1.1381273
1.2955085 0.9094906 0.9515148 1.4810114 0.8873279 0.7692692 1.0028439 0.9224717

fc_advantage.0.weight f4 [20, 32]
00000000: afc6 a1be 087a d3bd 2bc2 c73e 3e0e 263e
00000010: 8193 43bd 1302 b0be a9b2 7abe d1b9 38bd
00000020: 0b45 743d 910d ebbd 2f65 fdbd 8e32 8a3d
00000030: 2719 51be ffd1 af3d 6ae0 583e 2ef7 023d
00000040: 7769 9bbe b9a2 ff3d bfcf 10be d76d 133d
00000050: 406b 87bd db81 683d 4e9a 31be 6bef 8fbd
00000060: ee17 183e 5ee1 0c3e 4823 c5bd eb02 9c3e
00000070: 7c5f adbe eead 703d 9334 b7be d9d0 10be
00000080: f31b 56bd 0348 66be 0b8f e3be ec11 a0be
00000090: 93aa ce3b 9a61 3bbe 3d11 70be e819 97be
000000a0: c038 e9bc 9aa7 793d bae2 7cbd baa3 273d
000000b0: ba67 b13e 8212 0cbe 1100 093c 5390 c6be
000000c0: 7318 45bd 4068 c2be 4739 0fbe 3a1c 2cbe
000000d0: 68fa 6a3d d245 07bf 9d6e 913e 96d0 0e3e
000000e0: 9e68 3cbe 10bd 46be 26ca 003e 2ffd 403c
000000f0: b90b 5ebd 2ce3 acbd beba 0bbe 602d 06be
00000100: 4db3 fabd d229 303e f105 f0be 20d3 a0bb
00000110: 8958 b03d 7bab ee3c 5ef5 9ebd e950 cbbd
00000120: 0542 4e3d 77b2 35be 1c8b d53d e570 2cbe
00000130: e3e9 4bbe 1707 bfbd 645f 7b3e c398 553e
00000140: e2d0 e73c c889 e13d cbfe d13e 1872 56be
00000150: 3a9b 083d 2eb0 8fbe af86 70be 650f 54be
00000160: 434d 063e 148a c9be 9dc9 233e 4e9a d9ba
00000170: 517a 493e 85d8 c9be 0790 a83d 3b6e fb3d
00000180: cd59 95be afc7 aebe 2267 91be ecd1 79be
00000190: f3b5 013e a036 e83d 33ce 91be f2ed 71bc
000001a0: 59be a13e 6ff9 893e 22d4 3e3f c11d bfbd
000001b0: 3119 b8be a2fd d1bd 4c68 06be 9b95 cc3e
000001c0: 3c99 933e 201b b4be 7460 333e 86df 003e
000001d0: bde3 493e 402d 913b 8c26 f33d ccda 52be
000001e0: faee 03bf 4eba 66bd 44c5 a3be 85db bb3e
000001f0: e0f9 e63b 5824 18bd dda6 fbbd 6245 67be
00000200: 0a82 8bbe a9fe ec3d 3cad 733e 9a4c b23e
00000210: 1a1d df3d 5ba6 f6bd cd14 61be c08d 713e
00000220: 87cf b8bd 0b45 503e c81d 433e b31e 003d
00000230: 5004 843e c9ec 09bc f646 83be f560 00bf
00000240: abaf 4f3d f820 333c 293f 25be 65ca 993e
00000250: 9543 42be d1fd 723d 8398 b1be 4401 8bbe
00000260: 3c23 df3d 5f9d d63d 85b9 863e 4ebc 19bf
00000270: 5b66 6cbe e052 ac3e af7d 1dbe db9b 783e
00000280: bd23 d6bd 10a9 63be ec39 e9be 3c5b 24be
00000290: d64c 973e d9a0 48be 80fd 373e f823 9c3e
000002a0: ff18 bf3d d557 b5bd e5c0 afbe 25fc 063f
000002b0: 81c8 2d3e b5f3 8a3e 1cb4 35be 2f0e c4bd
000002c0: 39ca 59be 60cb b5bd 692d 75be 20b7 223f
000002d0: a0a7 cebe c158 cbbe 607e ddbd e4b3 aabb
000002e0: 66c4 663d 42b1 583e 56c2 b83b e5b6 f7bd
000002f0: b107 48be 7952 58be 3f89 203e afce b2bd
00000300: f657 95bd c073 02be ce07 87bd 62be 62be
00000310: 55c2 41be d725 da3e 7148 f1bb 78b5 993e
00000320: de0a 90be 6136 873e a155 25be c263 8c3d
00000330: 5944 8fbd 5420 bdbe ab11 99be 131b 603d
00000340: 206e fabd ddb5 c1be 8aed 65be 28b0 e93d
00000350: 2012 eebe e17d 0ebe 04f3 5a3d a5d4 5c3e
00000360: 1ba6 243d eefc 493e 0841 bcbd 3e43 3b3e
00000370: ea18 3abe a928 89be efac 99be b8f5 303c
00000380: 4f5c 9dbe fe78 5dbd 6391 5a3d 921a 3ebe
00000390: def9 5d3e d0d1 ac3d b277 d53e f4cc 5c3e
000003a0: d955 3d3d 6830 b1be 93c3 12be 0d6e 80be
000003b0: 40e2 bcbe 8234 ce3d 0a5a 813e 666d e93e
000003c0: ac10 5d3d 9ce7 b2be a05e d13d 93e4 f43e
000003d0: f9ff 9a3d 2125 1dbe 649e 8d3c dc58 a13b
000003e0: 4d9e b2be c40b 3f3d e6bd cfbd b71b 843e
000003f0: 2eec 553e 9610 bfbd 4e32 4d3e 1088 1e3e
-0.31596896 -0.1032601 0.39015326 0.1621637 -0.047748093 -0.34376583 -0.24482216 -0.045099083
0.059636157 -0.11477197 -0.12372815 0.06747924 -0.20419751 0.085849755 0.21179357 0.03197401
-0.303539 0.12482209 -0.14141749 0.035993423 -0.06612253 0.056764465 -0.17344019 -0.07028087
0.14852878 0.13757846 -0.0962587 0.30470976 -0.3386191 0.058759622 -0.35782298 -0.14142169
-0.05227275 -0.22488408 -0.4444507 -0.31263673 0.006306955 -0.18298951 -0.23444076 -0.29511952
-0.028469443 0.060950853 -0.06173966 0.040927626 0.3464945 -0.13678935 0.008361832 -0.38781986
-0.04811902 -0.3797016 -0.13986693 -0.16807643 0.057367712 -0.5284091 0.28404704 0.13946757
-0.18399283 -0.19408059 0.12577114 0.011779114 -0.0542104 -0.08441767 -0.13645455 -0.13103247
-0.1224123 0.17203453 -0.46879533 -0.0049079806 0.08610637 0.029134503 -0.07761644 -0.09927542
0.05035593 -0.1774386 0.10426924 -0.16839941 -0.1991344 -0.09327524 0.24548107 0.20859055
0.028297845 0.11012608 0.41014704 -0.20941961 0.03335116 -0.28064102 -0.23488878 -0.20708998
0.1311541 -0.39363158 0.15994878 -0.0016601773 0.19675566 -0.39423004 0.08230596 0.12276884
-0.29170075 -0.34136721 -0.28398997 -0.24396485 0.12667064 0.11338544 -0.2847763 -0.014766203
0.31590536 0.26948115 0.7454244 -0.09331847 -0.3595672 -0.10253455 -0.13125724 0.3995789
0.28827846 -0.35176945 0.17517263 0.12585267 0.19715782 0.004430443 0.118725866 -0.20591277
-0.51536524 -0.056330018 -0.3198644 0.36690918 0.0070488304 -0.037144035 -0.12287686 -0.22585061
-0.2724765 0.1157201 0.23796552 0.34824067 0.108942226 -0.120434485 -0.21980591 0.2358923
-0.09023958 0.20338838 0.1905433 0.031279277 0.2578454 -0.00841827 -0.25640076 -0.50147945
0.05070464 0.010933153 -0.16137375 0.30037227 -0.18971093 0.05932409 -0.3468667 -0.27149403
0.10895392 0.10479235 0.26313415 -0.60052955 -0.2308592 0.3365698 -0.15379976 0.24278204
-0.10456035 -0.22232461 -0.45552003 -0.16050428 0.2955081 -0.19592609 0.17967796 0.30496192
0.093309395 -0.08854643 -0.34326854 0.5272849 0.16971017 0.2713906 -0.17744488 -0.09573018
-0.21268548 -0.08876681 -0.23943104 0.63560677 -0.40362263 -0.3971615 -0.1081512 -0.005209433
0.056339644 0.21161368 0.005638401 -0.12095431 -0.19534184 -0.21125211 0.15677355 -0.08730828
-0.07292168 -0.12739468 -0.065932855 -0.22142938 -0.18921788 0.42606995 -0.007363372 0.30021262
-0.2813329 0.26408675 -0.16145946 0.06854965 -0.06995458 -0.36938727 -0.29896292 0.05471332
-0.12228036 -0.37834063 -0.22453895 0.11410552 -0.46498203 -0.13915206 0.053454414 0.21565492
0.040197473 0.19725391 -0.09192091 0.1828737 -0.18173566 -0.26788834 -0.3001475 0.010800771
-0.30734488 -0.054070465 0.053361308 -0.18564823 0.21677348 0.08438456 0.41692883 0.21562558
0.04622445 -0.34607244 -0.14332418 -0.25083962 -0.36891365 0.10068609 0.25264007 0.45591277
0.053970978 -0.3494233 0.102231264 0.47830638 0.07568354 -0.15346195 0.01728744 0.004923923
-0.348864 0.04664208 -0.10143642 0.25802395 0.20890877 -0.093293354 0.20038721 0.15481591

fc_advantage.0.bias f4 [20]
00000000: 18e6 093d 3e56 a7be 5e63 67be 2dd5 59be
00000010: 25fe 9bbe e27f 893e b8e3 77bd 39a7 f8bd
00000020: 1bbe 15be b92e f4bd 4cda d83d 5302 113b
00000030: e861 6f3d 6ee4 8e3d 4858 163e 9764 ddbc
00000040: 6b94 e93d 78e8 f43d 7843 f73d fce2 553e
0.0336667 -0.32682985 -0.225965 -0.21272726 -0.30467334 0.2685538 -0.060519904 -0.1214127
-0.146233 -0.11922974 0.10588512 0.002212663 0.05844298 0.06977163 0.14682114 -0.027025504
0.114052616 0.119584024 0.120734155 0.20887369

fc_value.0.weight f4 [1, 32]
00000000: a447 613f 3a0f fb3b 3cd4 e33e cd0f e73e
00000010: 989b 173f c3de 863e d0dd 493b 8df0 2b3e
00000020: db2c f33e ea7c 713e 9c61 c83e cbf5 d2be
00000030: bf9f 6dbe 6794 403e a8a6 ba3e 8178 b33e
00000040: da4d c1bc f677 053e df53 143e 4333 3a3f
00000050: 0c1a 19bc 1ba8 723e eed1 873d 3b55 a5bc
00000060: 73f0 4f3e f448 1c3e 2d6d e63c 698f ae3e
00000070: 5e7e f73d 97c5 633e 3082 eb3e 856c 223e
0.8799994 0.0076617273 0.4449786 0.45129243 0.5922179 0.2634183 0.0030802377 0.16790982
0.4749516 0.23582807 0.3913697 -0.4120315 -0.2320547 0.18806611 0.36455274 0.35052875
-0.023596693 0.13034043 0.1448512 0.7273447 -0.009344589 0.2369694 0.06631838 -0.020182243
0.20306568 0.15262204 0.028128231 0.34093788 0.120846495 0.22243343 0.45997763 0.1586171
